module attributes {torch.debug_module_name = "MNASNet"} {
  func.func private @set_frequency_caps(i64, i64)
  func.func private @S0(%arg0: index, %arg1: index, %arg2: index, %arg3: index, %arg4: memref<64x3x226x226xf32>) attributes {scop.stmt} {
    %cst = arith.constant 0.000000e+00 : f32
    affine.store %cst, %arg4[symbol(%arg0), symbol(%arg1), symbol(%arg2), symbol(%arg3)] : memref<64x3x226x226xf32>
    return
  }
  func.func private @S1(%arg0: index, %arg1: index, %arg2: index, %arg3: index, %arg4: memref<64x32x112x112xf32>) attributes {scop.stmt} {
    %cst = arith.constant 0.000000e+00 : f32
    affine.store %cst, %arg4[symbol(%arg0), symbol(%arg1), symbol(%arg2), symbol(%arg3)] : memref<64x32x112x112xf32>
    return
  }
  func.func private @S2(%arg0: index, %arg1: index, %arg2: index, %arg3: index, %arg4: memref<64x32x112x112xf32>, %arg5: index, %arg6: index, %arg7: index, %arg8: memref<32x3x3x3xf32>, %arg9: memref<64x3x226x226xf32>) attributes {scop.stmt} {
    %0 = affine.load %arg4[symbol(%arg0), symbol(%arg1), symbol(%arg2), symbol(%arg3)] : memref<64x32x112x112xf32>
    %1 = affine.load %arg9[symbol(%arg0), symbol(%arg5), symbol(%arg2) * 2 + symbol(%arg6), symbol(%arg3) * 2 + symbol(%arg7)] : memref<64x3x226x226xf32>
    %2 = affine.load %arg8[symbol(%arg1), symbol(%arg5), symbol(%arg6), symbol(%arg7)] : memref<32x3x3x3xf32>
    %3 = arith.mulf %1, %2 : f32
    %4 = arith.addf %0, %3 : f32
    affine.store %4, %arg4[symbol(%arg0), symbol(%arg1), symbol(%arg2), symbol(%arg3)] : memref<64x32x112x112xf32>
    return
  }
  func.func private @S3(%arg0: index, %arg1: index, %arg2: index, %arg3: index, %arg4: memref<64x32x112x112xf32>, %arg5: memref<64x32x112x112xf32>) attributes {scop.stmt} {
    %cst = arith.constant 0.000000e+00 : f32
    %cst_0 = arith.constant 1.000000e+00 : f32
    %cst_1 = arith.constant 1.000000e-05 : f64
    %0 = affine.load %arg5[symbol(%arg0), symbol(%arg1), symbol(%arg2), symbol(%arg3)] : memref<64x32x112x112xf32>
    %1 = arith.truncf %cst_1 : f64 to f32
    %2 = arith.addf %1, %cst_0 : f32
    %3 = math.rsqrt %2 : f32
    %4 = arith.mulf %0, %3 : f32
    %5 = arith.addf %4, %cst : f32
    affine.store %5, %arg4[symbol(%arg0), symbol(%arg1), symbol(%arg2), symbol(%arg3)] : memref<64x32x112x112xf32>
    return
  }
  func.func private @S4(%arg0: index, %arg1: index, %arg2: index, %arg3: index, %arg4: memref<64x32x112x112xf32>, %arg5: memref<64x32x112x112xf32>) attributes {scop.stmt} {
    %cst = arith.constant 0.000000e+00 : f32
    %0 = affine.load %arg5[symbol(%arg0), symbol(%arg1), symbol(%arg2), symbol(%arg3)] : memref<64x32x112x112xf32>
    %1 = arith.cmpf ugt, %0, %cst : f32
    %2 = arith.select %1, %0, %cst : f32
    affine.store %2, %arg4[symbol(%arg0), symbol(%arg1), symbol(%arg2), symbol(%arg3)] : memref<64x32x112x112xf32>
    return
  }
  func.func private @S5(%arg0: index, %arg1: index, %arg2: index, %arg3: index, %arg4: memref<64x32x114x114xf32>) attributes {scop.stmt} {
    %cst = arith.constant 0.000000e+00 : f32
    affine.store %cst, %arg4[symbol(%arg0), symbol(%arg1), symbol(%arg2), symbol(%arg3)] : memref<64x32x114x114xf32>
    return
  }
  func.func private @S6(%arg0: index, %arg1: index, %arg2: index, %arg3: index, %arg4: memref<64x32x112x112xf32>, %arg5: index, %arg6: index, %arg7: memref<32x3x3xf32>, %arg8: memref<64x32x114x114xf32>) attributes {scop.stmt} {
    %0 = affine.load %arg4[symbol(%arg0), symbol(%arg1), symbol(%arg2), symbol(%arg3)] : memref<64x32x112x112xf32>
    %1 = affine.load %arg8[symbol(%arg0), symbol(%arg1), symbol(%arg2) + symbol(%arg5), symbol(%arg3) + symbol(%arg6)] : memref<64x32x114x114xf32>
    %2 = affine.load %arg7[symbol(%arg1), symbol(%arg5), symbol(%arg6)] : memref<32x3x3xf32>
    %3 = arith.mulf %1, %2 : f32
    %4 = arith.addf %0, %3 : f32
    affine.store %4, %arg4[symbol(%arg0), symbol(%arg1), symbol(%arg2), symbol(%arg3)] : memref<64x32x112x112xf32>
    return
  }
  func.func private @S7(%arg0: index, %arg1: index, %arg2: index, %arg3: index, %arg4: memref<64x32x112x112xf32>, %arg5: memref<64x32x112x112xf32>) attributes {scop.stmt} {
    %cst = arith.constant 0.000000e+00 : f32
    %cst_0 = arith.constant 1.000000e+00 : f32
    %cst_1 = arith.constant 1.000000e-05 : f64
    %0 = affine.load %arg5[symbol(%arg0), symbol(%arg1), symbol(%arg2), symbol(%arg3)] : memref<64x32x112x112xf32>
    %1 = arith.truncf %cst_1 : f64 to f32
    %2 = arith.addf %1, %cst_0 : f32
    %3 = math.rsqrt %2 : f32
    %4 = arith.mulf %0, %3 : f32
    %5 = arith.addf %4, %cst : f32
    affine.store %5, %arg4[symbol(%arg0), symbol(%arg1), symbol(%arg2), symbol(%arg3)] : memref<64x32x112x112xf32>
    return
  }
  func.func private @S8(%arg0: index, %arg1: index, %arg2: index, %arg3: index, %arg4: memref<64x32x112x112xf32>, %arg5: memref<64x32x112x112xf32>) attributes {scop.stmt} {
    %cst = arith.constant 0.000000e+00 : f32
    %0 = affine.load %arg5[symbol(%arg0), symbol(%arg1), symbol(%arg2), symbol(%arg3)] : memref<64x32x112x112xf32>
    %1 = arith.cmpf ugt, %0, %cst : f32
    %2 = arith.select %1, %0, %cst : f32
    affine.store %2, %arg4[symbol(%arg0), symbol(%arg1), symbol(%arg2), symbol(%arg3)] : memref<64x32x112x112xf32>
    return
  }
  func.func private @S9(%arg0: index, %arg1: index, %arg2: index, %arg3: index, %arg4: memref<64x16x112x112xf32>) attributes {scop.stmt} {
    %cst = arith.constant 0.000000e+00 : f32
    affine.store %cst, %arg4[symbol(%arg0), symbol(%arg1), symbol(%arg2), symbol(%arg3)] : memref<64x16x112x112xf32>
    return
  }
  func.func private @S10(%arg0: index, %arg1: index, %arg2: index, %arg3: index, %arg4: memref<64x16x112x112xf32>, %arg5: index, %arg6: index, %arg7: index, %arg8: memref<16x32x1x1xf32>, %arg9: memref<64x32x112x112xf32>) attributes {scop.stmt} {
    %0 = affine.load %arg4[symbol(%arg0), symbol(%arg1), symbol(%arg2), symbol(%arg3)] : memref<64x16x112x112xf32>
    %1 = affine.load %arg9[symbol(%arg0), symbol(%arg5), symbol(%arg2) + symbol(%arg6), symbol(%arg3) + symbol(%arg7)] : memref<64x32x112x112xf32>
    %2 = affine.load %arg8[symbol(%arg1), symbol(%arg5), symbol(%arg6), symbol(%arg7)] : memref<16x32x1x1xf32>
    %3 = arith.mulf %1, %2 : f32
    %4 = arith.addf %0, %3 : f32
    affine.store %4, %arg4[symbol(%arg0), symbol(%arg1), symbol(%arg2), symbol(%arg3)] : memref<64x16x112x112xf32>
    return
  }
  func.func private @S11(%arg0: index, %arg1: index, %arg2: index, %arg3: index, %arg4: memref<64x16x112x112xf32>, %arg5: memref<64x16x112x112xf32>) attributes {scop.stmt} {
    %cst = arith.constant 0.000000e+00 : f32
    %cst_0 = arith.constant 1.000000e+00 : f32
    %cst_1 = arith.constant 1.000000e-05 : f64
    %0 = affine.load %arg5[symbol(%arg0), symbol(%arg1), symbol(%arg2), symbol(%arg3)] : memref<64x16x112x112xf32>
    %1 = arith.truncf %cst_1 : f64 to f32
    %2 = arith.addf %1, %cst_0 : f32
    %3 = math.rsqrt %2 : f32
    %4 = arith.mulf %0, %3 : f32
    %5 = arith.addf %4, %cst : f32
    affine.store %5, %arg4[symbol(%arg0), symbol(%arg1), symbol(%arg2), symbol(%arg3)] : memref<64x16x112x112xf32>
    return
  }
  func.func private @S12(%arg0: index, %arg1: index, %arg2: index, %arg3: index, %arg4: memref<64x48x112x112xf32>) attributes {scop.stmt} {
    %cst = arith.constant 0.000000e+00 : f32
    affine.store %cst, %arg4[symbol(%arg0), symbol(%arg1), symbol(%arg2), symbol(%arg3)] : memref<64x48x112x112xf32>
    return
  }
  func.func private @S13(%arg0: index, %arg1: index, %arg2: index, %arg3: index, %arg4: memref<64x48x112x112xf32>, %arg5: index, %arg6: index, %arg7: index, %arg8: memref<48x16x1x1xf32>, %arg9: memref<64x16x112x112xf32>) attributes {scop.stmt} {
    %0 = affine.load %arg4[symbol(%arg0), symbol(%arg1), symbol(%arg2), symbol(%arg3)] : memref<64x48x112x112xf32>
    %1 = affine.load %arg9[symbol(%arg0), symbol(%arg5), symbol(%arg2) + symbol(%arg6), symbol(%arg3) + symbol(%arg7)] : memref<64x16x112x112xf32>
    %2 = affine.load %arg8[symbol(%arg1), symbol(%arg5), symbol(%arg6), symbol(%arg7)] : memref<48x16x1x1xf32>
    %3 = arith.mulf %1, %2 : f32
    %4 = arith.addf %0, %3 : f32
    affine.store %4, %arg4[symbol(%arg0), symbol(%arg1), symbol(%arg2), symbol(%arg3)] : memref<64x48x112x112xf32>
    return
  }
  func.func private @S14(%arg0: index, %arg1: index, %arg2: index, %arg3: index, %arg4: memref<64x48x112x112xf32>, %arg5: memref<64x48x112x112xf32>) attributes {scop.stmt} {
    %cst = arith.constant 0.000000e+00 : f32
    %cst_0 = arith.constant 1.000000e+00 : f32
    %cst_1 = arith.constant 1.000000e-05 : f64
    %0 = affine.load %arg5[symbol(%arg0), symbol(%arg1), symbol(%arg2), symbol(%arg3)] : memref<64x48x112x112xf32>
    %1 = arith.truncf %cst_1 : f64 to f32
    %2 = arith.addf %1, %cst_0 : f32
    %3 = math.rsqrt %2 : f32
    %4 = arith.mulf %0, %3 : f32
    %5 = arith.addf %4, %cst : f32
    affine.store %5, %arg4[symbol(%arg0), symbol(%arg1), symbol(%arg2), symbol(%arg3)] : memref<64x48x112x112xf32>
    return
  }
  func.func private @S15(%arg0: index, %arg1: index, %arg2: index, %arg3: index, %arg4: memref<64x48x112x112xf32>, %arg5: memref<64x48x112x112xf32>) attributes {scop.stmt} {
    %cst = arith.constant 0.000000e+00 : f32
    %0 = affine.load %arg5[symbol(%arg0), symbol(%arg1), symbol(%arg2), symbol(%arg3)] : memref<64x48x112x112xf32>
    %1 = arith.cmpf ugt, %0, %cst : f32
    %2 = arith.select %1, %0, %cst : f32
    affine.store %2, %arg4[symbol(%arg0), symbol(%arg1), symbol(%arg2), symbol(%arg3)] : memref<64x48x112x112xf32>
    return
  }
  func.func private @S16(%arg0: index, %arg1: index, %arg2: index, %arg3: index, %arg4: memref<64x48x114x114xf32>) attributes {scop.stmt} {
    %cst = arith.constant 0.000000e+00 : f32
    affine.store %cst, %arg4[symbol(%arg0), symbol(%arg1), symbol(%arg2), symbol(%arg3)] : memref<64x48x114x114xf32>
    return
  }
  func.func private @S17(%arg0: index, %arg1: index, %arg2: index, %arg3: index, %arg4: memref<64x48x56x56xf32>) attributes {scop.stmt} {
    %cst = arith.constant 0.000000e+00 : f32
    affine.store %cst, %arg4[symbol(%arg0), symbol(%arg1), symbol(%arg2), symbol(%arg3)] : memref<64x48x56x56xf32>
    return
  }
  func.func private @S18(%arg0: index, %arg1: index, %arg2: index, %arg3: index, %arg4: memref<64x48x56x56xf32>, %arg5: index, %arg6: index, %arg7: memref<48x3x3xf32>, %arg8: memref<64x48x114x114xf32>) attributes {scop.stmt} {
    %0 = affine.load %arg4[symbol(%arg0), symbol(%arg1), symbol(%arg2), symbol(%arg3)] : memref<64x48x56x56xf32>
    %1 = affine.load %arg8[symbol(%arg0), symbol(%arg1), symbol(%arg2) * 2 + symbol(%arg5), symbol(%arg3) * 2 + symbol(%arg6)] : memref<64x48x114x114xf32>
    %2 = affine.load %arg7[symbol(%arg1), symbol(%arg5), symbol(%arg6)] : memref<48x3x3xf32>
    %3 = arith.mulf %1, %2 : f32
    %4 = arith.addf %0, %3 : f32
    affine.store %4, %arg4[symbol(%arg0), symbol(%arg1), symbol(%arg2), symbol(%arg3)] : memref<64x48x56x56xf32>
    return
  }
  func.func private @S19(%arg0: index, %arg1: index, %arg2: index, %arg3: index, %arg4: memref<64x48x56x56xf32>, %arg5: memref<64x48x56x56xf32>) attributes {scop.stmt} {
    %cst = arith.constant 0.000000e+00 : f32
    %cst_0 = arith.constant 1.000000e+00 : f32
    %cst_1 = arith.constant 1.000000e-05 : f64
    %0 = affine.load %arg5[symbol(%arg0), symbol(%arg1), symbol(%arg2), symbol(%arg3)] : memref<64x48x56x56xf32>
    %1 = arith.truncf %cst_1 : f64 to f32
    %2 = arith.addf %1, %cst_0 : f32
    %3 = math.rsqrt %2 : f32
    %4 = arith.mulf %0, %3 : f32
    %5 = arith.addf %4, %cst : f32
    affine.store %5, %arg4[symbol(%arg0), symbol(%arg1), symbol(%arg2), symbol(%arg3)] : memref<64x48x56x56xf32>
    return
  }
  func.func private @S20(%arg0: index, %arg1: index, %arg2: index, %arg3: index, %arg4: memref<64x48x56x56xf32>, %arg5: memref<64x48x56x56xf32>) attributes {scop.stmt} {
    %cst = arith.constant 0.000000e+00 : f32
    %0 = affine.load %arg5[symbol(%arg0), symbol(%arg1), symbol(%arg2), symbol(%arg3)] : memref<64x48x56x56xf32>
    %1 = arith.cmpf ugt, %0, %cst : f32
    %2 = arith.select %1, %0, %cst : f32
    affine.store %2, %arg4[symbol(%arg0), symbol(%arg1), symbol(%arg2), symbol(%arg3)] : memref<64x48x56x56xf32>
    return
  }
  func.func private @S21(%arg0: index, %arg1: index, %arg2: index, %arg3: index, %arg4: memref<64x24x56x56xf32>) attributes {scop.stmt} {
    %cst = arith.constant 0.000000e+00 : f32
    affine.store %cst, %arg4[symbol(%arg0), symbol(%arg1), symbol(%arg2), symbol(%arg3)] : memref<64x24x56x56xf32>
    return
  }
  func.func private @S22(%arg0: index, %arg1: index, %arg2: index, %arg3: index, %arg4: memref<64x24x56x56xf32>, %arg5: index, %arg6: index, %arg7: index, %arg8: memref<24x48x1x1xf32>, %arg9: memref<64x48x56x56xf32>) attributes {scop.stmt} {
    %0 = affine.load %arg4[symbol(%arg0), symbol(%arg1), symbol(%arg2), symbol(%arg3)] : memref<64x24x56x56xf32>
    %1 = affine.load %arg9[symbol(%arg0), symbol(%arg5), symbol(%arg2) + symbol(%arg6), symbol(%arg3) + symbol(%arg7)] : memref<64x48x56x56xf32>
    %2 = affine.load %arg8[symbol(%arg1), symbol(%arg5), symbol(%arg6), symbol(%arg7)] : memref<24x48x1x1xf32>
    %3 = arith.mulf %1, %2 : f32
    %4 = arith.addf %0, %3 : f32
    affine.store %4, %arg4[symbol(%arg0), symbol(%arg1), symbol(%arg2), symbol(%arg3)] : memref<64x24x56x56xf32>
    return
  }
  func.func private @S23(%arg0: index, %arg1: index, %arg2: index, %arg3: index, %arg4: memref<64x24x56x56xf32>, %arg5: memref<64x24x56x56xf32>) attributes {scop.stmt} {
    %cst = arith.constant 0.000000e+00 : f32
    %cst_0 = arith.constant 1.000000e+00 : f32
    %cst_1 = arith.constant 1.000000e-05 : f64
    %0 = affine.load %arg5[symbol(%arg0), symbol(%arg1), symbol(%arg2), symbol(%arg3)] : memref<64x24x56x56xf32>
    %1 = arith.truncf %cst_1 : f64 to f32
    %2 = arith.addf %1, %cst_0 : f32
    %3 = math.rsqrt %2 : f32
    %4 = arith.mulf %0, %3 : f32
    %5 = arith.addf %4, %cst : f32
    affine.store %5, %arg4[symbol(%arg0), symbol(%arg1), symbol(%arg2), symbol(%arg3)] : memref<64x24x56x56xf32>
    return
  }
  func.func private @S24(%arg0: index, %arg1: index, %arg2: index, %arg3: index, %arg4: memref<64x72x56x56xf32>) attributes {scop.stmt} {
    %cst = arith.constant 0.000000e+00 : f32
    affine.store %cst, %arg4[symbol(%arg0), symbol(%arg1), symbol(%arg2), symbol(%arg3)] : memref<64x72x56x56xf32>
    return
  }
  func.func private @S25(%arg0: index, %arg1: index, %arg2: index, %arg3: index, %arg4: memref<64x72x56x56xf32>, %arg5: index, %arg6: index, %arg7: index, %arg8: memref<72x24x1x1xf32>, %arg9: memref<64x24x56x56xf32>) attributes {scop.stmt} {
    %0 = affine.load %arg4[symbol(%arg0), symbol(%arg1), symbol(%arg2), symbol(%arg3)] : memref<64x72x56x56xf32>
    %1 = affine.load %arg9[symbol(%arg0), symbol(%arg5), symbol(%arg2) + symbol(%arg6), symbol(%arg3) + symbol(%arg7)] : memref<64x24x56x56xf32>
    %2 = affine.load %arg8[symbol(%arg1), symbol(%arg5), symbol(%arg6), symbol(%arg7)] : memref<72x24x1x1xf32>
    %3 = arith.mulf %1, %2 : f32
    %4 = arith.addf %0, %3 : f32
    affine.store %4, %arg4[symbol(%arg0), symbol(%arg1), symbol(%arg2), symbol(%arg3)] : memref<64x72x56x56xf32>
    return
  }
  func.func private @S26(%arg0: index, %arg1: index, %arg2: index, %arg3: index, %arg4: memref<64x72x56x56xf32>, %arg5: memref<64x72x56x56xf32>) attributes {scop.stmt} {
    %cst = arith.constant 0.000000e+00 : f32
    %cst_0 = arith.constant 1.000000e+00 : f32
    %cst_1 = arith.constant 1.000000e-05 : f64
    %0 = affine.load %arg5[symbol(%arg0), symbol(%arg1), symbol(%arg2), symbol(%arg3)] : memref<64x72x56x56xf32>
    %1 = arith.truncf %cst_1 : f64 to f32
    %2 = arith.addf %1, %cst_0 : f32
    %3 = math.rsqrt %2 : f32
    %4 = arith.mulf %0, %3 : f32
    %5 = arith.addf %4, %cst : f32
    affine.store %5, %arg4[symbol(%arg0), symbol(%arg1), symbol(%arg2), symbol(%arg3)] : memref<64x72x56x56xf32>
    return
  }
  func.func private @S27(%arg0: index, %arg1: index, %arg2: index, %arg3: index, %arg4: memref<64x72x56x56xf32>, %arg5: memref<64x72x56x56xf32>) attributes {scop.stmt} {
    %cst = arith.constant 0.000000e+00 : f32
    %0 = affine.load %arg5[symbol(%arg0), symbol(%arg1), symbol(%arg2), symbol(%arg3)] : memref<64x72x56x56xf32>
    %1 = arith.cmpf ugt, %0, %cst : f32
    %2 = arith.select %1, %0, %cst : f32
    affine.store %2, %arg4[symbol(%arg0), symbol(%arg1), symbol(%arg2), symbol(%arg3)] : memref<64x72x56x56xf32>
    return
  }
  func.func private @S28(%arg0: index, %arg1: index, %arg2: index, %arg3: index, %arg4: memref<64x72x58x58xf32>) attributes {scop.stmt} {
    %cst = arith.constant 0.000000e+00 : f32
    affine.store %cst, %arg4[symbol(%arg0), symbol(%arg1), symbol(%arg2), symbol(%arg3)] : memref<64x72x58x58xf32>
    return
  }
  func.func private @S29(%arg0: index, %arg1: index, %arg2: index, %arg3: index, %arg4: memref<64x72x56x56xf32>, %arg5: index, %arg6: index, %arg7: memref<72x3x3xf32>, %arg8: memref<64x72x58x58xf32>) attributes {scop.stmt} {
    %0 = affine.load %arg4[symbol(%arg0), symbol(%arg1), symbol(%arg2), symbol(%arg3)] : memref<64x72x56x56xf32>
    %1 = affine.load %arg8[symbol(%arg0), symbol(%arg1), symbol(%arg2) + symbol(%arg5), symbol(%arg3) + symbol(%arg6)] : memref<64x72x58x58xf32>
    %2 = affine.load %arg7[symbol(%arg1), symbol(%arg5), symbol(%arg6)] : memref<72x3x3xf32>
    %3 = arith.mulf %1, %2 : f32
    %4 = arith.addf %0, %3 : f32
    affine.store %4, %arg4[symbol(%arg0), symbol(%arg1), symbol(%arg2), symbol(%arg3)] : memref<64x72x56x56xf32>
    return
  }
  func.func private @S30(%arg0: index, %arg1: index, %arg2: index, %arg3: index, %arg4: memref<64x72x56x56xf32>, %arg5: memref<64x72x56x56xf32>) attributes {scop.stmt} {
    %cst = arith.constant 0.000000e+00 : f32
    %cst_0 = arith.constant 1.000000e+00 : f32
    %cst_1 = arith.constant 1.000000e-05 : f64
    %0 = affine.load %arg5[symbol(%arg0), symbol(%arg1), symbol(%arg2), symbol(%arg3)] : memref<64x72x56x56xf32>
    %1 = arith.truncf %cst_1 : f64 to f32
    %2 = arith.addf %1, %cst_0 : f32
    %3 = math.rsqrt %2 : f32
    %4 = arith.mulf %0, %3 : f32
    %5 = arith.addf %4, %cst : f32
    affine.store %5, %arg4[symbol(%arg0), symbol(%arg1), symbol(%arg2), symbol(%arg3)] : memref<64x72x56x56xf32>
    return
  }
  func.func private @S31(%arg0: index, %arg1: index, %arg2: index, %arg3: index, %arg4: memref<64x72x56x56xf32>, %arg5: memref<64x72x56x56xf32>) attributes {scop.stmt} {
    %cst = arith.constant 0.000000e+00 : f32
    %0 = affine.load %arg5[symbol(%arg0), symbol(%arg1), symbol(%arg2), symbol(%arg3)] : memref<64x72x56x56xf32>
    %1 = arith.cmpf ugt, %0, %cst : f32
    %2 = arith.select %1, %0, %cst : f32
    affine.store %2, %arg4[symbol(%arg0), symbol(%arg1), symbol(%arg2), symbol(%arg3)] : memref<64x72x56x56xf32>
    return
  }
  func.func private @S32(%arg0: index, %arg1: index, %arg2: index, %arg3: index, %arg4: memref<64x24x56x56xf32>, %arg5: index, %arg6: index, %arg7: index, %arg8: memref<24x72x1x1xf32>, %arg9: memref<64x72x56x56xf32>) attributes {scop.stmt} {
    %0 = affine.load %arg4[symbol(%arg0), symbol(%arg1), symbol(%arg2), symbol(%arg3)] : memref<64x24x56x56xf32>
    %1 = affine.load %arg9[symbol(%arg0), symbol(%arg5), symbol(%arg2) + symbol(%arg6), symbol(%arg3) + symbol(%arg7)] : memref<64x72x56x56xf32>
    %2 = affine.load %arg8[symbol(%arg1), symbol(%arg5), symbol(%arg6), symbol(%arg7)] : memref<24x72x1x1xf32>
    %3 = arith.mulf %1, %2 : f32
    %4 = arith.addf %0, %3 : f32
    affine.store %4, %arg4[symbol(%arg0), symbol(%arg1), symbol(%arg2), symbol(%arg3)] : memref<64x24x56x56xf32>
    return
  }
  func.func private @S33(%arg0: index, %arg1: index, %arg2: index, %arg3: index, %arg4: memref<64x24x56x56xf32>, %arg5: memref<64x24x56x56xf32>) attributes {scop.stmt} {
    %cst = arith.constant 0.000000e+00 : f32
    %cst_0 = arith.constant 1.000000e+00 : f32
    %cst_1 = arith.constant 1.000000e-05 : f64
    %0 = affine.load %arg5[symbol(%arg0), symbol(%arg1), symbol(%arg2), symbol(%arg3)] : memref<64x24x56x56xf32>
    %1 = arith.truncf %cst_1 : f64 to f32
    %2 = arith.addf %1, %cst_0 : f32
    %3 = math.rsqrt %2 : f32
    %4 = arith.mulf %0, %3 : f32
    %5 = arith.addf %4, %cst : f32
    affine.store %5, %arg4[symbol(%arg0), symbol(%arg1), symbol(%arg2), symbol(%arg3)] : memref<64x24x56x56xf32>
    return
  }
  func.func private @S34(%arg0: index, %arg1: index, %arg2: index, %arg3: index, %arg4: memref<64x24x56x56xf32>, %arg5: memref<64x24x56x56xf32>, %arg6: memref<64x24x56x56xf32>) attributes {scop.stmt} {
    %0 = affine.load %arg6[symbol(%arg0), symbol(%arg1), symbol(%arg2), symbol(%arg3)] : memref<64x24x56x56xf32>
    %1 = affine.load %arg5[symbol(%arg0), symbol(%arg1), symbol(%arg2), symbol(%arg3)] : memref<64x24x56x56xf32>
    %2 = arith.addf %0, %1 : f32
    affine.store %2, %arg4[symbol(%arg0), symbol(%arg1), symbol(%arg2), symbol(%arg3)] : memref<64x24x56x56xf32>
    return
  }
  func.func private @S35(%arg0: index, %arg1: index, %arg2: index, %arg3: index, %arg4: memref<64x72x56x56xf32>, %arg5: index, %arg6: index, %arg7: index, %arg8: memref<72x24x1x1xf32>, %arg9: memref<64x24x56x56xf32>) attributes {scop.stmt} {
    %0 = affine.load %arg4[symbol(%arg0), symbol(%arg1), symbol(%arg2), symbol(%arg3)] : memref<64x72x56x56xf32>
    %1 = affine.load %arg9[symbol(%arg0), symbol(%arg5), symbol(%arg2) + symbol(%arg6), symbol(%arg3) + symbol(%arg7)] : memref<64x24x56x56xf32>
    %2 = affine.load %arg8[symbol(%arg1), symbol(%arg5), symbol(%arg6), symbol(%arg7)] : memref<72x24x1x1xf32>
    %3 = arith.mulf %1, %2 : f32
    %4 = arith.addf %0, %3 : f32
    affine.store %4, %arg4[symbol(%arg0), symbol(%arg1), symbol(%arg2), symbol(%arg3)] : memref<64x72x56x56xf32>
    return
  }
  func.func private @S36(%arg0: index, %arg1: index, %arg2: index, %arg3: index, %arg4: memref<64x72x56x56xf32>, %arg5: memref<64x72x56x56xf32>) attributes {scop.stmt} {
    %cst = arith.constant 0.000000e+00 : f32
    %cst_0 = arith.constant 1.000000e+00 : f32
    %cst_1 = arith.constant 1.000000e-05 : f64
    %0 = affine.load %arg5[symbol(%arg0), symbol(%arg1), symbol(%arg2), symbol(%arg3)] : memref<64x72x56x56xf32>
    %1 = arith.truncf %cst_1 : f64 to f32
    %2 = arith.addf %1, %cst_0 : f32
    %3 = math.rsqrt %2 : f32
    %4 = arith.mulf %0, %3 : f32
    %5 = arith.addf %4, %cst : f32
    affine.store %5, %arg4[symbol(%arg0), symbol(%arg1), symbol(%arg2), symbol(%arg3)] : memref<64x72x56x56xf32>
    return
  }
  func.func private @S37(%arg0: index, %arg1: index, %arg2: index, %arg3: index, %arg4: memref<64x72x56x56xf32>, %arg5: memref<64x72x56x56xf32>) attributes {scop.stmt} {
    %cst = arith.constant 0.000000e+00 : f32
    %0 = affine.load %arg5[symbol(%arg0), symbol(%arg1), symbol(%arg2), symbol(%arg3)] : memref<64x72x56x56xf32>
    %1 = arith.cmpf ugt, %0, %cst : f32
    %2 = arith.select %1, %0, %cst : f32
    affine.store %2, %arg4[symbol(%arg0), symbol(%arg1), symbol(%arg2), symbol(%arg3)] : memref<64x72x56x56xf32>
    return
  }
  func.func private @S38(%arg0: index, %arg1: index, %arg2: index, %arg3: index, %arg4: memref<64x72x58x58xf32>) attributes {scop.stmt} {
    %cst = arith.constant 0.000000e+00 : f32
    affine.store %cst, %arg4[symbol(%arg0), symbol(%arg1), symbol(%arg2), symbol(%arg3)] : memref<64x72x58x58xf32>
    return
  }
  func.func private @S39(%arg0: index, %arg1: index, %arg2: index, %arg3: index, %arg4: memref<64x72x56x56xf32>, %arg5: index, %arg6: index, %arg7: memref<72x3x3xf32>, %arg8: memref<64x72x58x58xf32>) attributes {scop.stmt} {
    %0 = affine.load %arg4[symbol(%arg0), symbol(%arg1), symbol(%arg2), symbol(%arg3)] : memref<64x72x56x56xf32>
    %1 = affine.load %arg8[symbol(%arg0), symbol(%arg1), symbol(%arg2) + symbol(%arg5), symbol(%arg3) + symbol(%arg6)] : memref<64x72x58x58xf32>
    %2 = affine.load %arg7[symbol(%arg1), symbol(%arg5), symbol(%arg6)] : memref<72x3x3xf32>
    %3 = arith.mulf %1, %2 : f32
    %4 = arith.addf %0, %3 : f32
    affine.store %4, %arg4[symbol(%arg0), symbol(%arg1), symbol(%arg2), symbol(%arg3)] : memref<64x72x56x56xf32>
    return
  }
  func.func private @S40(%arg0: index, %arg1: index, %arg2: index, %arg3: index, %arg4: memref<64x72x56x56xf32>, %arg5: memref<64x72x56x56xf32>) attributes {scop.stmt} {
    %cst = arith.constant 0.000000e+00 : f32
    %cst_0 = arith.constant 1.000000e+00 : f32
    %cst_1 = arith.constant 1.000000e-05 : f64
    %0 = affine.load %arg5[symbol(%arg0), symbol(%arg1), symbol(%arg2), symbol(%arg3)] : memref<64x72x56x56xf32>
    %1 = arith.truncf %cst_1 : f64 to f32
    %2 = arith.addf %1, %cst_0 : f32
    %3 = math.rsqrt %2 : f32
    %4 = arith.mulf %0, %3 : f32
    %5 = arith.addf %4, %cst : f32
    affine.store %5, %arg4[symbol(%arg0), symbol(%arg1), symbol(%arg2), symbol(%arg3)] : memref<64x72x56x56xf32>
    return
  }
  func.func private @S41(%arg0: index, %arg1: index, %arg2: index, %arg3: index, %arg4: memref<64x72x56x56xf32>, %arg5: memref<64x72x56x56xf32>) attributes {scop.stmt} {
    %cst = arith.constant 0.000000e+00 : f32
    %0 = affine.load %arg5[symbol(%arg0), symbol(%arg1), symbol(%arg2), symbol(%arg3)] : memref<64x72x56x56xf32>
    %1 = arith.cmpf ugt, %0, %cst : f32
    %2 = arith.select %1, %0, %cst : f32
    affine.store %2, %arg4[symbol(%arg0), symbol(%arg1), symbol(%arg2), symbol(%arg3)] : memref<64x72x56x56xf32>
    return
  }
  func.func private @S42(%arg0: index, %arg1: index, %arg2: index, %arg3: index, %arg4: memref<64x24x56x56xf32>, %arg5: index, %arg6: index, %arg7: index, %arg8: memref<24x72x1x1xf32>, %arg9: memref<64x72x56x56xf32>) attributes {scop.stmt} {
    %0 = affine.load %arg4[symbol(%arg0), symbol(%arg1), symbol(%arg2), symbol(%arg3)] : memref<64x24x56x56xf32>
    %1 = affine.load %arg9[symbol(%arg0), symbol(%arg5), symbol(%arg2) + symbol(%arg6), symbol(%arg3) + symbol(%arg7)] : memref<64x72x56x56xf32>
    %2 = affine.load %arg8[symbol(%arg1), symbol(%arg5), symbol(%arg6), symbol(%arg7)] : memref<24x72x1x1xf32>
    %3 = arith.mulf %1, %2 : f32
    %4 = arith.addf %0, %3 : f32
    affine.store %4, %arg4[symbol(%arg0), symbol(%arg1), symbol(%arg2), symbol(%arg3)] : memref<64x24x56x56xf32>
    return
  }
  func.func private @S43(%arg0: index, %arg1: index, %arg2: index, %arg3: index, %arg4: memref<64x24x56x56xf32>, %arg5: memref<64x24x56x56xf32>) attributes {scop.stmt} {
    %cst = arith.constant 0.000000e+00 : f32
    %cst_0 = arith.constant 1.000000e+00 : f32
    %cst_1 = arith.constant 1.000000e-05 : f64
    %0 = affine.load %arg5[symbol(%arg0), symbol(%arg1), symbol(%arg2), symbol(%arg3)] : memref<64x24x56x56xf32>
    %1 = arith.truncf %cst_1 : f64 to f32
    %2 = arith.addf %1, %cst_0 : f32
    %3 = math.rsqrt %2 : f32
    %4 = arith.mulf %0, %3 : f32
    %5 = arith.addf %4, %cst : f32
    affine.store %5, %arg4[symbol(%arg0), symbol(%arg1), symbol(%arg2), symbol(%arg3)] : memref<64x24x56x56xf32>
    return
  }
  func.func private @S44(%arg0: index, %arg1: index, %arg2: index, %arg3: index, %arg4: memref<64x24x56x56xf32>, %arg5: memref<64x24x56x56xf32>, %arg6: memref<64x24x56x56xf32>) attributes {scop.stmt} {
    %0 = affine.load %arg6[symbol(%arg0), symbol(%arg1), symbol(%arg2), symbol(%arg3)] : memref<64x24x56x56xf32>
    %1 = affine.load %arg5[symbol(%arg0), symbol(%arg1), symbol(%arg2), symbol(%arg3)] : memref<64x24x56x56xf32>
    %2 = arith.addf %0, %1 : f32
    affine.store %2, %arg4[symbol(%arg0), symbol(%arg1), symbol(%arg2), symbol(%arg3)] : memref<64x24x56x56xf32>
    return
  }
  func.func private @S45(%arg0: index, %arg1: index, %arg2: index, %arg3: index, %arg4: memref<64x72x56x56xf32>, %arg5: index, %arg6: index, %arg7: index, %arg8: memref<72x24x1x1xf32>, %arg9: memref<64x24x56x56xf32>) attributes {scop.stmt} {
    %0 = affine.load %arg4[symbol(%arg0), symbol(%arg1), symbol(%arg2), symbol(%arg3)] : memref<64x72x56x56xf32>
    %1 = affine.load %arg9[symbol(%arg0), symbol(%arg5), symbol(%arg2) + symbol(%arg6), symbol(%arg3) + symbol(%arg7)] : memref<64x24x56x56xf32>
    %2 = affine.load %arg8[symbol(%arg1), symbol(%arg5), symbol(%arg6), symbol(%arg7)] : memref<72x24x1x1xf32>
    %3 = arith.mulf %1, %2 : f32
    %4 = arith.addf %0, %3 : f32
    affine.store %4, %arg4[symbol(%arg0), symbol(%arg1), symbol(%arg2), symbol(%arg3)] : memref<64x72x56x56xf32>
    return
  }
  func.func private @S46(%arg0: index, %arg1: index, %arg2: index, %arg3: index, %arg4: memref<64x72x56x56xf32>, %arg5: memref<64x72x56x56xf32>) attributes {scop.stmt} {
    %cst = arith.constant 0.000000e+00 : f32
    %cst_0 = arith.constant 1.000000e+00 : f32
    %cst_1 = arith.constant 1.000000e-05 : f64
    %0 = affine.load %arg5[symbol(%arg0), symbol(%arg1), symbol(%arg2), symbol(%arg3)] : memref<64x72x56x56xf32>
    %1 = arith.truncf %cst_1 : f64 to f32
    %2 = arith.addf %1, %cst_0 : f32
    %3 = math.rsqrt %2 : f32
    %4 = arith.mulf %0, %3 : f32
    %5 = arith.addf %4, %cst : f32
    affine.store %5, %arg4[symbol(%arg0), symbol(%arg1), symbol(%arg2), symbol(%arg3)] : memref<64x72x56x56xf32>
    return
  }
  func.func private @S47(%arg0: index, %arg1: index, %arg2: index, %arg3: index, %arg4: memref<64x72x56x56xf32>, %arg5: memref<64x72x56x56xf32>) attributes {scop.stmt} {
    %cst = arith.constant 0.000000e+00 : f32
    %0 = affine.load %arg5[symbol(%arg0), symbol(%arg1), symbol(%arg2), symbol(%arg3)] : memref<64x72x56x56xf32>
    %1 = arith.cmpf ugt, %0, %cst : f32
    %2 = arith.select %1, %0, %cst : f32
    affine.store %2, %arg4[symbol(%arg0), symbol(%arg1), symbol(%arg2), symbol(%arg3)] : memref<64x72x56x56xf32>
    return
  }
  func.func private @S48(%arg0: index, %arg1: index, %arg2: index, %arg3: index, %arg4: memref<64x72x60x60xf32>) attributes {scop.stmt} {
    %cst = arith.constant 0.000000e+00 : f32
    affine.store %cst, %arg4[symbol(%arg0), symbol(%arg1), symbol(%arg2), symbol(%arg3)] : memref<64x72x60x60xf32>
    return
  }
  func.func private @S49(%arg0: index, %arg1: index, %arg2: index, %arg3: index, %arg4: memref<64x72x28x28xf32>) attributes {scop.stmt} {
    %cst = arith.constant 0.000000e+00 : f32
    affine.store %cst, %arg4[symbol(%arg0), symbol(%arg1), symbol(%arg2), symbol(%arg3)] : memref<64x72x28x28xf32>
    return
  }
  func.func private @S50(%arg0: index, %arg1: index, %arg2: index, %arg3: index, %arg4: memref<64x72x28x28xf32>, %arg5: index, %arg6: index, %arg7: memref<72x5x5xf32>, %arg8: memref<64x72x60x60xf32>) attributes {scop.stmt} {
    %0 = affine.load %arg4[symbol(%arg0), symbol(%arg1), symbol(%arg2), symbol(%arg3)] : memref<64x72x28x28xf32>
    %1 = affine.load %arg8[symbol(%arg0), symbol(%arg1), symbol(%arg2) * 2 + symbol(%arg5), symbol(%arg3) * 2 + symbol(%arg6)] : memref<64x72x60x60xf32>
    %2 = affine.load %arg7[symbol(%arg1), symbol(%arg5), symbol(%arg6)] : memref<72x5x5xf32>
    %3 = arith.mulf %1, %2 : f32
    %4 = arith.addf %0, %3 : f32
    affine.store %4, %arg4[symbol(%arg0), symbol(%arg1), symbol(%arg2), symbol(%arg3)] : memref<64x72x28x28xf32>
    return
  }
  func.func private @S51(%arg0: index, %arg1: index, %arg2: index, %arg3: index, %arg4: memref<64x72x28x28xf32>, %arg5: memref<64x72x28x28xf32>) attributes {scop.stmt} {
    %cst = arith.constant 0.000000e+00 : f32
    %cst_0 = arith.constant 1.000000e+00 : f32
    %cst_1 = arith.constant 1.000000e-05 : f64
    %0 = affine.load %arg5[symbol(%arg0), symbol(%arg1), symbol(%arg2), symbol(%arg3)] : memref<64x72x28x28xf32>
    %1 = arith.truncf %cst_1 : f64 to f32
    %2 = arith.addf %1, %cst_0 : f32
    %3 = math.rsqrt %2 : f32
    %4 = arith.mulf %0, %3 : f32
    %5 = arith.addf %4, %cst : f32
    affine.store %5, %arg4[symbol(%arg0), symbol(%arg1), symbol(%arg2), symbol(%arg3)] : memref<64x72x28x28xf32>
    return
  }
  func.func private @S52(%arg0: index, %arg1: index, %arg2: index, %arg3: index, %arg4: memref<64x72x28x28xf32>, %arg5: memref<64x72x28x28xf32>) attributes {scop.stmt} {
    %cst = arith.constant 0.000000e+00 : f32
    %0 = affine.load %arg5[symbol(%arg0), symbol(%arg1), symbol(%arg2), symbol(%arg3)] : memref<64x72x28x28xf32>
    %1 = arith.cmpf ugt, %0, %cst : f32
    %2 = arith.select %1, %0, %cst : f32
    affine.store %2, %arg4[symbol(%arg0), symbol(%arg1), symbol(%arg2), symbol(%arg3)] : memref<64x72x28x28xf32>
    return
  }
  func.func private @S53(%arg0: index, %arg1: index, %arg2: index, %arg3: index, %arg4: memref<64x40x28x28xf32>) attributes {scop.stmt} {
    %cst = arith.constant 0.000000e+00 : f32
    affine.store %cst, %arg4[symbol(%arg0), symbol(%arg1), symbol(%arg2), symbol(%arg3)] : memref<64x40x28x28xf32>
    return
  }
  func.func private @S54(%arg0: index, %arg1: index, %arg2: index, %arg3: index, %arg4: memref<64x40x28x28xf32>, %arg5: index, %arg6: index, %arg7: index, %arg8: memref<40x72x1x1xf32>, %arg9: memref<64x72x28x28xf32>) attributes {scop.stmt} {
    %0 = affine.load %arg4[symbol(%arg0), symbol(%arg1), symbol(%arg2), symbol(%arg3)] : memref<64x40x28x28xf32>
    %1 = affine.load %arg9[symbol(%arg0), symbol(%arg5), symbol(%arg2) + symbol(%arg6), symbol(%arg3) + symbol(%arg7)] : memref<64x72x28x28xf32>
    %2 = affine.load %arg8[symbol(%arg1), symbol(%arg5), symbol(%arg6), symbol(%arg7)] : memref<40x72x1x1xf32>
    %3 = arith.mulf %1, %2 : f32
    %4 = arith.addf %0, %3 : f32
    affine.store %4, %arg4[symbol(%arg0), symbol(%arg1), symbol(%arg2), symbol(%arg3)] : memref<64x40x28x28xf32>
    return
  }
  func.func private @S55(%arg0: index, %arg1: index, %arg2: index, %arg3: index, %arg4: memref<64x40x28x28xf32>, %arg5: memref<64x40x28x28xf32>) attributes {scop.stmt} {
    %cst = arith.constant 0.000000e+00 : f32
    %cst_0 = arith.constant 1.000000e+00 : f32
    %cst_1 = arith.constant 1.000000e-05 : f64
    %0 = affine.load %arg5[symbol(%arg0), symbol(%arg1), symbol(%arg2), symbol(%arg3)] : memref<64x40x28x28xf32>
    %1 = arith.truncf %cst_1 : f64 to f32
    %2 = arith.addf %1, %cst_0 : f32
    %3 = math.rsqrt %2 : f32
    %4 = arith.mulf %0, %3 : f32
    %5 = arith.addf %4, %cst : f32
    affine.store %5, %arg4[symbol(%arg0), symbol(%arg1), symbol(%arg2), symbol(%arg3)] : memref<64x40x28x28xf32>
    return
  }
  func.func private @S56(%arg0: index, %arg1: index, %arg2: index, %arg3: index, %arg4: memref<64x120x28x28xf32>) attributes {scop.stmt} {
    %cst = arith.constant 0.000000e+00 : f32
    affine.store %cst, %arg4[symbol(%arg0), symbol(%arg1), symbol(%arg2), symbol(%arg3)] : memref<64x120x28x28xf32>
    return
  }
  func.func private @S57(%arg0: index, %arg1: index, %arg2: index, %arg3: index, %arg4: memref<64x120x28x28xf32>, %arg5: index, %arg6: index, %arg7: index, %arg8: memref<120x40x1x1xf32>, %arg9: memref<64x40x28x28xf32>) attributes {scop.stmt} {
    %0 = affine.load %arg4[symbol(%arg0), symbol(%arg1), symbol(%arg2), symbol(%arg3)] : memref<64x120x28x28xf32>
    %1 = affine.load %arg9[symbol(%arg0), symbol(%arg5), symbol(%arg2) + symbol(%arg6), symbol(%arg3) + symbol(%arg7)] : memref<64x40x28x28xf32>
    %2 = affine.load %arg8[symbol(%arg1), symbol(%arg5), symbol(%arg6), symbol(%arg7)] : memref<120x40x1x1xf32>
    %3 = arith.mulf %1, %2 : f32
    %4 = arith.addf %0, %3 : f32
    affine.store %4, %arg4[symbol(%arg0), symbol(%arg1), symbol(%arg2), symbol(%arg3)] : memref<64x120x28x28xf32>
    return
  }
  func.func private @S58(%arg0: index, %arg1: index, %arg2: index, %arg3: index, %arg4: memref<64x120x28x28xf32>, %arg5: memref<64x120x28x28xf32>) attributes {scop.stmt} {
    %cst = arith.constant 0.000000e+00 : f32
    %cst_0 = arith.constant 1.000000e+00 : f32
    %cst_1 = arith.constant 1.000000e-05 : f64
    %0 = affine.load %arg5[symbol(%arg0), symbol(%arg1), symbol(%arg2), symbol(%arg3)] : memref<64x120x28x28xf32>
    %1 = arith.truncf %cst_1 : f64 to f32
    %2 = arith.addf %1, %cst_0 : f32
    %3 = math.rsqrt %2 : f32
    %4 = arith.mulf %0, %3 : f32
    %5 = arith.addf %4, %cst : f32
    affine.store %5, %arg4[symbol(%arg0), symbol(%arg1), symbol(%arg2), symbol(%arg3)] : memref<64x120x28x28xf32>
    return
  }
  func.func private @S59(%arg0: index, %arg1: index, %arg2: index, %arg3: index, %arg4: memref<64x120x28x28xf32>, %arg5: memref<64x120x28x28xf32>) attributes {scop.stmt} {
    %cst = arith.constant 0.000000e+00 : f32
    %0 = affine.load %arg5[symbol(%arg0), symbol(%arg1), symbol(%arg2), symbol(%arg3)] : memref<64x120x28x28xf32>
    %1 = arith.cmpf ugt, %0, %cst : f32
    %2 = arith.select %1, %0, %cst : f32
    affine.store %2, %arg4[symbol(%arg0), symbol(%arg1), symbol(%arg2), symbol(%arg3)] : memref<64x120x28x28xf32>
    return
  }
  func.func private @S60(%arg0: index, %arg1: index, %arg2: index, %arg3: index, %arg4: memref<64x120x32x32xf32>) attributes {scop.stmt} {
    %cst = arith.constant 0.000000e+00 : f32
    affine.store %cst, %arg4[symbol(%arg0), symbol(%arg1), symbol(%arg2), symbol(%arg3)] : memref<64x120x32x32xf32>
    return
  }
  func.func private @S61(%arg0: index, %arg1: index, %arg2: index, %arg3: index, %arg4: memref<64x120x28x28xf32>, %arg5: index, %arg6: index, %arg7: memref<120x5x5xf32>, %arg8: memref<64x120x32x32xf32>) attributes {scop.stmt} {
    %0 = affine.load %arg4[symbol(%arg0), symbol(%arg1), symbol(%arg2), symbol(%arg3)] : memref<64x120x28x28xf32>
    %1 = affine.load %arg8[symbol(%arg0), symbol(%arg1), symbol(%arg2) + symbol(%arg5), symbol(%arg3) + symbol(%arg6)] : memref<64x120x32x32xf32>
    %2 = affine.load %arg7[symbol(%arg1), symbol(%arg5), symbol(%arg6)] : memref<120x5x5xf32>
    %3 = arith.mulf %1, %2 : f32
    %4 = arith.addf %0, %3 : f32
    affine.store %4, %arg4[symbol(%arg0), symbol(%arg1), symbol(%arg2), symbol(%arg3)] : memref<64x120x28x28xf32>
    return
  }
  func.func private @S62(%arg0: index, %arg1: index, %arg2: index, %arg3: index, %arg4: memref<64x120x28x28xf32>, %arg5: memref<64x120x28x28xf32>) attributes {scop.stmt} {
    %cst = arith.constant 0.000000e+00 : f32
    %cst_0 = arith.constant 1.000000e+00 : f32
    %cst_1 = arith.constant 1.000000e-05 : f64
    %0 = affine.load %arg5[symbol(%arg0), symbol(%arg1), symbol(%arg2), symbol(%arg3)] : memref<64x120x28x28xf32>
    %1 = arith.truncf %cst_1 : f64 to f32
    %2 = arith.addf %1, %cst_0 : f32
    %3 = math.rsqrt %2 : f32
    %4 = arith.mulf %0, %3 : f32
    %5 = arith.addf %4, %cst : f32
    affine.store %5, %arg4[symbol(%arg0), symbol(%arg1), symbol(%arg2), symbol(%arg3)] : memref<64x120x28x28xf32>
    return
  }
  func.func private @S63(%arg0: index, %arg1: index, %arg2: index, %arg3: index, %arg4: memref<64x120x28x28xf32>, %arg5: memref<64x120x28x28xf32>) attributes {scop.stmt} {
    %cst = arith.constant 0.000000e+00 : f32
    %0 = affine.load %arg5[symbol(%arg0), symbol(%arg1), symbol(%arg2), symbol(%arg3)] : memref<64x120x28x28xf32>
    %1 = arith.cmpf ugt, %0, %cst : f32
    %2 = arith.select %1, %0, %cst : f32
    affine.store %2, %arg4[symbol(%arg0), symbol(%arg1), symbol(%arg2), symbol(%arg3)] : memref<64x120x28x28xf32>
    return
  }
  func.func private @S64(%arg0: index, %arg1: index, %arg2: index, %arg3: index, %arg4: memref<64x40x28x28xf32>, %arg5: index, %arg6: index, %arg7: index, %arg8: memref<40x120x1x1xf32>, %arg9: memref<64x120x28x28xf32>) attributes {scop.stmt} {
    %0 = affine.load %arg4[symbol(%arg0), symbol(%arg1), symbol(%arg2), symbol(%arg3)] : memref<64x40x28x28xf32>
    %1 = affine.load %arg9[symbol(%arg0), symbol(%arg5), symbol(%arg2) + symbol(%arg6), symbol(%arg3) + symbol(%arg7)] : memref<64x120x28x28xf32>
    %2 = affine.load %arg8[symbol(%arg1), symbol(%arg5), symbol(%arg6), symbol(%arg7)] : memref<40x120x1x1xf32>
    %3 = arith.mulf %1, %2 : f32
    %4 = arith.addf %0, %3 : f32
    affine.store %4, %arg4[symbol(%arg0), symbol(%arg1), symbol(%arg2), symbol(%arg3)] : memref<64x40x28x28xf32>
    return
  }
  func.func private @S65(%arg0: index, %arg1: index, %arg2: index, %arg3: index, %arg4: memref<64x40x28x28xf32>, %arg5: memref<64x40x28x28xf32>) attributes {scop.stmt} {
    %cst = arith.constant 0.000000e+00 : f32
    %cst_0 = arith.constant 1.000000e+00 : f32
    %cst_1 = arith.constant 1.000000e-05 : f64
    %0 = affine.load %arg5[symbol(%arg0), symbol(%arg1), symbol(%arg2), symbol(%arg3)] : memref<64x40x28x28xf32>
    %1 = arith.truncf %cst_1 : f64 to f32
    %2 = arith.addf %1, %cst_0 : f32
    %3 = math.rsqrt %2 : f32
    %4 = arith.mulf %0, %3 : f32
    %5 = arith.addf %4, %cst : f32
    affine.store %5, %arg4[symbol(%arg0), symbol(%arg1), symbol(%arg2), symbol(%arg3)] : memref<64x40x28x28xf32>
    return
  }
  func.func private @S66(%arg0: index, %arg1: index, %arg2: index, %arg3: index, %arg4: memref<64x40x28x28xf32>, %arg5: memref<64x40x28x28xf32>, %arg6: memref<64x40x28x28xf32>) attributes {scop.stmt} {
    %0 = affine.load %arg6[symbol(%arg0), symbol(%arg1), symbol(%arg2), symbol(%arg3)] : memref<64x40x28x28xf32>
    %1 = affine.load %arg5[symbol(%arg0), symbol(%arg1), symbol(%arg2), symbol(%arg3)] : memref<64x40x28x28xf32>
    %2 = arith.addf %0, %1 : f32
    affine.store %2, %arg4[symbol(%arg0), symbol(%arg1), symbol(%arg2), symbol(%arg3)] : memref<64x40x28x28xf32>
    return
  }
  func.func private @S67(%arg0: index, %arg1: index, %arg2: index, %arg3: index, %arg4: memref<64x120x28x28xf32>, %arg5: index, %arg6: index, %arg7: index, %arg8: memref<120x40x1x1xf32>, %arg9: memref<64x40x28x28xf32>) attributes {scop.stmt} {
    %0 = affine.load %arg4[symbol(%arg0), symbol(%arg1), symbol(%arg2), symbol(%arg3)] : memref<64x120x28x28xf32>
    %1 = affine.load %arg9[symbol(%arg0), symbol(%arg5), symbol(%arg2) + symbol(%arg6), symbol(%arg3) + symbol(%arg7)] : memref<64x40x28x28xf32>
    %2 = affine.load %arg8[symbol(%arg1), symbol(%arg5), symbol(%arg6), symbol(%arg7)] : memref<120x40x1x1xf32>
    %3 = arith.mulf %1, %2 : f32
    %4 = arith.addf %0, %3 : f32
    affine.store %4, %arg4[symbol(%arg0), symbol(%arg1), symbol(%arg2), symbol(%arg3)] : memref<64x120x28x28xf32>
    return
  }
  func.func private @S68(%arg0: index, %arg1: index, %arg2: index, %arg3: index, %arg4: memref<64x120x28x28xf32>, %arg5: memref<64x120x28x28xf32>) attributes {scop.stmt} {
    %cst = arith.constant 0.000000e+00 : f32
    %cst_0 = arith.constant 1.000000e+00 : f32
    %cst_1 = arith.constant 1.000000e-05 : f64
    %0 = affine.load %arg5[symbol(%arg0), symbol(%arg1), symbol(%arg2), symbol(%arg3)] : memref<64x120x28x28xf32>
    %1 = arith.truncf %cst_1 : f64 to f32
    %2 = arith.addf %1, %cst_0 : f32
    %3 = math.rsqrt %2 : f32
    %4 = arith.mulf %0, %3 : f32
    %5 = arith.addf %4, %cst : f32
    affine.store %5, %arg4[symbol(%arg0), symbol(%arg1), symbol(%arg2), symbol(%arg3)] : memref<64x120x28x28xf32>
    return
  }
  func.func private @S69(%arg0: index, %arg1: index, %arg2: index, %arg3: index, %arg4: memref<64x120x28x28xf32>, %arg5: memref<64x120x28x28xf32>) attributes {scop.stmt} {
    %cst = arith.constant 0.000000e+00 : f32
    %0 = affine.load %arg5[symbol(%arg0), symbol(%arg1), symbol(%arg2), symbol(%arg3)] : memref<64x120x28x28xf32>
    %1 = arith.cmpf ugt, %0, %cst : f32
    %2 = arith.select %1, %0, %cst : f32
    affine.store %2, %arg4[symbol(%arg0), symbol(%arg1), symbol(%arg2), symbol(%arg3)] : memref<64x120x28x28xf32>
    return
  }
  func.func private @S70(%arg0: index, %arg1: index, %arg2: index, %arg3: index, %arg4: memref<64x120x32x32xf32>) attributes {scop.stmt} {
    %cst = arith.constant 0.000000e+00 : f32
    affine.store %cst, %arg4[symbol(%arg0), symbol(%arg1), symbol(%arg2), symbol(%arg3)] : memref<64x120x32x32xf32>
    return
  }
  func.func private @S71(%arg0: index, %arg1: index, %arg2: index, %arg3: index, %arg4: memref<64x120x28x28xf32>, %arg5: index, %arg6: index, %arg7: memref<120x5x5xf32>, %arg8: memref<64x120x32x32xf32>) attributes {scop.stmt} {
    %0 = affine.load %arg4[symbol(%arg0), symbol(%arg1), symbol(%arg2), symbol(%arg3)] : memref<64x120x28x28xf32>
    %1 = affine.load %arg8[symbol(%arg0), symbol(%arg1), symbol(%arg2) + symbol(%arg5), symbol(%arg3) + symbol(%arg6)] : memref<64x120x32x32xf32>
    %2 = affine.load %arg7[symbol(%arg1), symbol(%arg5), symbol(%arg6)] : memref<120x5x5xf32>
    %3 = arith.mulf %1, %2 : f32
    %4 = arith.addf %0, %3 : f32
    affine.store %4, %arg4[symbol(%arg0), symbol(%arg1), symbol(%arg2), symbol(%arg3)] : memref<64x120x28x28xf32>
    return
  }
  func.func private @S72(%arg0: index, %arg1: index, %arg2: index, %arg3: index, %arg4: memref<64x120x28x28xf32>, %arg5: memref<64x120x28x28xf32>) attributes {scop.stmt} {
    %cst = arith.constant 0.000000e+00 : f32
    %cst_0 = arith.constant 1.000000e+00 : f32
    %cst_1 = arith.constant 1.000000e-05 : f64
    %0 = affine.load %arg5[symbol(%arg0), symbol(%arg1), symbol(%arg2), symbol(%arg3)] : memref<64x120x28x28xf32>
    %1 = arith.truncf %cst_1 : f64 to f32
    %2 = arith.addf %1, %cst_0 : f32
    %3 = math.rsqrt %2 : f32
    %4 = arith.mulf %0, %3 : f32
    %5 = arith.addf %4, %cst : f32
    affine.store %5, %arg4[symbol(%arg0), symbol(%arg1), symbol(%arg2), symbol(%arg3)] : memref<64x120x28x28xf32>
    return
  }
  func.func private @S73(%arg0: index, %arg1: index, %arg2: index, %arg3: index, %arg4: memref<64x120x28x28xf32>, %arg5: memref<64x120x28x28xf32>) attributes {scop.stmt} {
    %cst = arith.constant 0.000000e+00 : f32
    %0 = affine.load %arg5[symbol(%arg0), symbol(%arg1), symbol(%arg2), symbol(%arg3)] : memref<64x120x28x28xf32>
    %1 = arith.cmpf ugt, %0, %cst : f32
    %2 = arith.select %1, %0, %cst : f32
    affine.store %2, %arg4[symbol(%arg0), symbol(%arg1), symbol(%arg2), symbol(%arg3)] : memref<64x120x28x28xf32>
    return
  }
  func.func private @S74(%arg0: index, %arg1: index, %arg2: index, %arg3: index, %arg4: memref<64x40x28x28xf32>, %arg5: index, %arg6: index, %arg7: index, %arg8: memref<40x120x1x1xf32>, %arg9: memref<64x120x28x28xf32>) attributes {scop.stmt} {
    %0 = affine.load %arg4[symbol(%arg0), symbol(%arg1), symbol(%arg2), symbol(%arg3)] : memref<64x40x28x28xf32>
    %1 = affine.load %arg9[symbol(%arg0), symbol(%arg5), symbol(%arg2) + symbol(%arg6), symbol(%arg3) + symbol(%arg7)] : memref<64x120x28x28xf32>
    %2 = affine.load %arg8[symbol(%arg1), symbol(%arg5), symbol(%arg6), symbol(%arg7)] : memref<40x120x1x1xf32>
    %3 = arith.mulf %1, %2 : f32
    %4 = arith.addf %0, %3 : f32
    affine.store %4, %arg4[symbol(%arg0), symbol(%arg1), symbol(%arg2), symbol(%arg3)] : memref<64x40x28x28xf32>
    return
  }
  func.func private @S75(%arg0: index, %arg1: index, %arg2: index, %arg3: index, %arg4: memref<64x40x28x28xf32>, %arg5: memref<64x40x28x28xf32>) attributes {scop.stmt} {
    %cst = arith.constant 0.000000e+00 : f32
    %cst_0 = arith.constant 1.000000e+00 : f32
    %cst_1 = arith.constant 1.000000e-05 : f64
    %0 = affine.load %arg5[symbol(%arg0), symbol(%arg1), symbol(%arg2), symbol(%arg3)] : memref<64x40x28x28xf32>
    %1 = arith.truncf %cst_1 : f64 to f32
    %2 = arith.addf %1, %cst_0 : f32
    %3 = math.rsqrt %2 : f32
    %4 = arith.mulf %0, %3 : f32
    %5 = arith.addf %4, %cst : f32
    affine.store %5, %arg4[symbol(%arg0), symbol(%arg1), symbol(%arg2), symbol(%arg3)] : memref<64x40x28x28xf32>
    return
  }
  func.func private @S76(%arg0: index, %arg1: index, %arg2: index, %arg3: index, %arg4: memref<64x40x28x28xf32>, %arg5: memref<64x40x28x28xf32>, %arg6: memref<64x40x28x28xf32>) attributes {scop.stmt} {
    %0 = affine.load %arg6[symbol(%arg0), symbol(%arg1), symbol(%arg2), symbol(%arg3)] : memref<64x40x28x28xf32>
    %1 = affine.load %arg5[symbol(%arg0), symbol(%arg1), symbol(%arg2), symbol(%arg3)] : memref<64x40x28x28xf32>
    %2 = arith.addf %0, %1 : f32
    affine.store %2, %arg4[symbol(%arg0), symbol(%arg1), symbol(%arg2), symbol(%arg3)] : memref<64x40x28x28xf32>
    return
  }
  func.func private @S77(%arg0: index, %arg1: index, %arg2: index, %arg3: index, %arg4: memref<64x240x28x28xf32>) attributes {scop.stmt} {
    %cst = arith.constant 0.000000e+00 : f32
    affine.store %cst, %arg4[symbol(%arg0), symbol(%arg1), symbol(%arg2), symbol(%arg3)] : memref<64x240x28x28xf32>
    return
  }
  func.func private @S78(%arg0: index, %arg1: index, %arg2: index, %arg3: index, %arg4: memref<64x240x28x28xf32>, %arg5: index, %arg6: index, %arg7: index, %arg8: memref<240x40x1x1xf32>, %arg9: memref<64x40x28x28xf32>) attributes {scop.stmt} {
    %0 = affine.load %arg4[symbol(%arg0), symbol(%arg1), symbol(%arg2), symbol(%arg3)] : memref<64x240x28x28xf32>
    %1 = affine.load %arg9[symbol(%arg0), symbol(%arg5), symbol(%arg2) + symbol(%arg6), symbol(%arg3) + symbol(%arg7)] : memref<64x40x28x28xf32>
    %2 = affine.load %arg8[symbol(%arg1), symbol(%arg5), symbol(%arg6), symbol(%arg7)] : memref<240x40x1x1xf32>
    %3 = arith.mulf %1, %2 : f32
    %4 = arith.addf %0, %3 : f32
    affine.store %4, %arg4[symbol(%arg0), symbol(%arg1), symbol(%arg2), symbol(%arg3)] : memref<64x240x28x28xf32>
    return
  }
  func.func private @S79(%arg0: index, %arg1: index, %arg2: index, %arg3: index, %arg4: memref<64x240x28x28xf32>, %arg5: memref<64x240x28x28xf32>) attributes {scop.stmt} {
    %cst = arith.constant 0.000000e+00 : f32
    %cst_0 = arith.constant 1.000000e+00 : f32
    %cst_1 = arith.constant 1.000000e-05 : f64
    %0 = affine.load %arg5[symbol(%arg0), symbol(%arg1), symbol(%arg2), symbol(%arg3)] : memref<64x240x28x28xf32>
    %1 = arith.truncf %cst_1 : f64 to f32
    %2 = arith.addf %1, %cst_0 : f32
    %3 = math.rsqrt %2 : f32
    %4 = arith.mulf %0, %3 : f32
    %5 = arith.addf %4, %cst : f32
    affine.store %5, %arg4[symbol(%arg0), symbol(%arg1), symbol(%arg2), symbol(%arg3)] : memref<64x240x28x28xf32>
    return
  }
  func.func private @S80(%arg0: index, %arg1: index, %arg2: index, %arg3: index, %arg4: memref<64x240x28x28xf32>, %arg5: memref<64x240x28x28xf32>) attributes {scop.stmt} {
    %cst = arith.constant 0.000000e+00 : f32
    %0 = affine.load %arg5[symbol(%arg0), symbol(%arg1), symbol(%arg2), symbol(%arg3)] : memref<64x240x28x28xf32>
    %1 = arith.cmpf ugt, %0, %cst : f32
    %2 = arith.select %1, %0, %cst : f32
    affine.store %2, %arg4[symbol(%arg0), symbol(%arg1), symbol(%arg2), symbol(%arg3)] : memref<64x240x28x28xf32>
    return
  }
  func.func private @S81(%arg0: index, %arg1: index, %arg2: index, %arg3: index, %arg4: memref<64x240x32x32xf32>) attributes {scop.stmt} {
    %cst = arith.constant 0.000000e+00 : f32
    affine.store %cst, %arg4[symbol(%arg0), symbol(%arg1), symbol(%arg2), symbol(%arg3)] : memref<64x240x32x32xf32>
    return
  }
  func.func private @S82(%arg0: index, %arg1: index, %arg2: index, %arg3: index, %arg4: memref<64x240x14x14xf32>) attributes {scop.stmt} {
    %cst = arith.constant 0.000000e+00 : f32
    affine.store %cst, %arg4[symbol(%arg0), symbol(%arg1), symbol(%arg2), symbol(%arg3)] : memref<64x240x14x14xf32>
    return
  }
  func.func private @S83(%arg0: index, %arg1: index, %arg2: index, %arg3: index, %arg4: memref<64x240x14x14xf32>, %arg5: index, %arg6: index, %arg7: memref<240x5x5xf32>, %arg8: memref<64x240x32x32xf32>) attributes {scop.stmt} {
    %0 = affine.load %arg4[symbol(%arg0), symbol(%arg1), symbol(%arg2), symbol(%arg3)] : memref<64x240x14x14xf32>
    %1 = affine.load %arg8[symbol(%arg0), symbol(%arg1), symbol(%arg2) * 2 + symbol(%arg5), symbol(%arg3) * 2 + symbol(%arg6)] : memref<64x240x32x32xf32>
    %2 = affine.load %arg7[symbol(%arg1), symbol(%arg5), symbol(%arg6)] : memref<240x5x5xf32>
    %3 = arith.mulf %1, %2 : f32
    %4 = arith.addf %0, %3 : f32
    affine.store %4, %arg4[symbol(%arg0), symbol(%arg1), symbol(%arg2), symbol(%arg3)] : memref<64x240x14x14xf32>
    return
  }
  func.func private @S84(%arg0: index, %arg1: index, %arg2: index, %arg3: index, %arg4: memref<64x240x14x14xf32>, %arg5: memref<64x240x14x14xf32>) attributes {scop.stmt} {
    %cst = arith.constant 0.000000e+00 : f32
    %cst_0 = arith.constant 1.000000e+00 : f32
    %cst_1 = arith.constant 1.000000e-05 : f64
    %0 = affine.load %arg5[symbol(%arg0), symbol(%arg1), symbol(%arg2), symbol(%arg3)] : memref<64x240x14x14xf32>
    %1 = arith.truncf %cst_1 : f64 to f32
    %2 = arith.addf %1, %cst_0 : f32
    %3 = math.rsqrt %2 : f32
    %4 = arith.mulf %0, %3 : f32
    %5 = arith.addf %4, %cst : f32
    affine.store %5, %arg4[symbol(%arg0), symbol(%arg1), symbol(%arg2), symbol(%arg3)] : memref<64x240x14x14xf32>
    return
  }
  func.func private @S85(%arg0: index, %arg1: index, %arg2: index, %arg3: index, %arg4: memref<64x240x14x14xf32>, %arg5: memref<64x240x14x14xf32>) attributes {scop.stmt} {
    %cst = arith.constant 0.000000e+00 : f32
    %0 = affine.load %arg5[symbol(%arg0), symbol(%arg1), symbol(%arg2), symbol(%arg3)] : memref<64x240x14x14xf32>
    %1 = arith.cmpf ugt, %0, %cst : f32
    %2 = arith.select %1, %0, %cst : f32
    affine.store %2, %arg4[symbol(%arg0), symbol(%arg1), symbol(%arg2), symbol(%arg3)] : memref<64x240x14x14xf32>
    return
  }
  func.func private @S86(%arg0: index, %arg1: index, %arg2: index, %arg3: index, %arg4: memref<64x80x14x14xf32>) attributes {scop.stmt} {
    %cst = arith.constant 0.000000e+00 : f32
    affine.store %cst, %arg4[symbol(%arg0), symbol(%arg1), symbol(%arg2), symbol(%arg3)] : memref<64x80x14x14xf32>
    return
  }
  func.func private @S87(%arg0: index, %arg1: index, %arg2: index, %arg3: index, %arg4: memref<64x80x14x14xf32>, %arg5: index, %arg6: index, %arg7: index, %arg8: memref<80x240x1x1xf32>, %arg9: memref<64x240x14x14xf32>) attributes {scop.stmt} {
    %0 = affine.load %arg4[symbol(%arg0), symbol(%arg1), symbol(%arg2), symbol(%arg3)] : memref<64x80x14x14xf32>
    %1 = affine.load %arg9[symbol(%arg0), symbol(%arg5), symbol(%arg2) + symbol(%arg6), symbol(%arg3) + symbol(%arg7)] : memref<64x240x14x14xf32>
    %2 = affine.load %arg8[symbol(%arg1), symbol(%arg5), symbol(%arg6), symbol(%arg7)] : memref<80x240x1x1xf32>
    %3 = arith.mulf %1, %2 : f32
    %4 = arith.addf %0, %3 : f32
    affine.store %4, %arg4[symbol(%arg0), symbol(%arg1), symbol(%arg2), symbol(%arg3)] : memref<64x80x14x14xf32>
    return
  }
  func.func private @S88(%arg0: index, %arg1: index, %arg2: index, %arg3: index, %arg4: memref<64x80x14x14xf32>, %arg5: memref<64x80x14x14xf32>) attributes {scop.stmt} {
    %cst = arith.constant 0.000000e+00 : f32
    %cst_0 = arith.constant 1.000000e+00 : f32
    %cst_1 = arith.constant 1.000000e-05 : f64
    %0 = affine.load %arg5[symbol(%arg0), symbol(%arg1), symbol(%arg2), symbol(%arg3)] : memref<64x80x14x14xf32>
    %1 = arith.truncf %cst_1 : f64 to f32
    %2 = arith.addf %1, %cst_0 : f32
    %3 = math.rsqrt %2 : f32
    %4 = arith.mulf %0, %3 : f32
    %5 = arith.addf %4, %cst : f32
    affine.store %5, %arg4[symbol(%arg0), symbol(%arg1), symbol(%arg2), symbol(%arg3)] : memref<64x80x14x14xf32>
    return
  }
  func.func private @S89(%arg0: index, %arg1: index, %arg2: index, %arg3: index, %arg4: memref<64x480x14x14xf32>) attributes {scop.stmt} {
    %cst = arith.constant 0.000000e+00 : f32
    affine.store %cst, %arg4[symbol(%arg0), symbol(%arg1), symbol(%arg2), symbol(%arg3)] : memref<64x480x14x14xf32>
    return
  }
  func.func private @S90(%arg0: index, %arg1: index, %arg2: index, %arg3: index, %arg4: memref<64x480x14x14xf32>, %arg5: index, %arg6: index, %arg7: index, %arg8: memref<480x80x1x1xf32>, %arg9: memref<64x80x14x14xf32>) attributes {scop.stmt} {
    %0 = affine.load %arg4[symbol(%arg0), symbol(%arg1), symbol(%arg2), symbol(%arg3)] : memref<64x480x14x14xf32>
    %1 = affine.load %arg9[symbol(%arg0), symbol(%arg5), symbol(%arg2) + symbol(%arg6), symbol(%arg3) + symbol(%arg7)] : memref<64x80x14x14xf32>
    %2 = affine.load %arg8[symbol(%arg1), symbol(%arg5), symbol(%arg6), symbol(%arg7)] : memref<480x80x1x1xf32>
    %3 = arith.mulf %1, %2 : f32
    %4 = arith.addf %0, %3 : f32
    affine.store %4, %arg4[symbol(%arg0), symbol(%arg1), symbol(%arg2), symbol(%arg3)] : memref<64x480x14x14xf32>
    return
  }
  func.func private @S91(%arg0: index, %arg1: index, %arg2: index, %arg3: index, %arg4: memref<64x480x14x14xf32>, %arg5: memref<64x480x14x14xf32>) attributes {scop.stmt} {
    %cst = arith.constant 0.000000e+00 : f32
    %cst_0 = arith.constant 1.000000e+00 : f32
    %cst_1 = arith.constant 1.000000e-05 : f64
    %0 = affine.load %arg5[symbol(%arg0), symbol(%arg1), symbol(%arg2), symbol(%arg3)] : memref<64x480x14x14xf32>
    %1 = arith.truncf %cst_1 : f64 to f32
    %2 = arith.addf %1, %cst_0 : f32
    %3 = math.rsqrt %2 : f32
    %4 = arith.mulf %0, %3 : f32
    %5 = arith.addf %4, %cst : f32
    affine.store %5, %arg4[symbol(%arg0), symbol(%arg1), symbol(%arg2), symbol(%arg3)] : memref<64x480x14x14xf32>
    return
  }
  func.func private @S92(%arg0: index, %arg1: index, %arg2: index, %arg3: index, %arg4: memref<64x480x14x14xf32>, %arg5: memref<64x480x14x14xf32>) attributes {scop.stmt} {
    %cst = arith.constant 0.000000e+00 : f32
    %0 = affine.load %arg5[symbol(%arg0), symbol(%arg1), symbol(%arg2), symbol(%arg3)] : memref<64x480x14x14xf32>
    %1 = arith.cmpf ugt, %0, %cst : f32
    %2 = arith.select %1, %0, %cst : f32
    affine.store %2, %arg4[symbol(%arg0), symbol(%arg1), symbol(%arg2), symbol(%arg3)] : memref<64x480x14x14xf32>
    return
  }
  func.func private @S93(%arg0: index, %arg1: index, %arg2: index, %arg3: index, %arg4: memref<64x480x18x18xf32>) attributes {scop.stmt} {
    %cst = arith.constant 0.000000e+00 : f32
    affine.store %cst, %arg4[symbol(%arg0), symbol(%arg1), symbol(%arg2), symbol(%arg3)] : memref<64x480x18x18xf32>
    return
  }
  func.func private @S94(%arg0: index, %arg1: index, %arg2: index, %arg3: index, %arg4: memref<64x480x14x14xf32>, %arg5: index, %arg6: index, %arg7: memref<480x5x5xf32>, %arg8: memref<64x480x18x18xf32>) attributes {scop.stmt} {
    %0 = affine.load %arg4[symbol(%arg0), symbol(%arg1), symbol(%arg2), symbol(%arg3)] : memref<64x480x14x14xf32>
    %1 = affine.load %arg8[symbol(%arg0), symbol(%arg1), symbol(%arg2) + symbol(%arg5), symbol(%arg3) + symbol(%arg6)] : memref<64x480x18x18xf32>
    %2 = affine.load %arg7[symbol(%arg1), symbol(%arg5), symbol(%arg6)] : memref<480x5x5xf32>
    %3 = arith.mulf %1, %2 : f32
    %4 = arith.addf %0, %3 : f32
    affine.store %4, %arg4[symbol(%arg0), symbol(%arg1), symbol(%arg2), symbol(%arg3)] : memref<64x480x14x14xf32>
    return
  }
  func.func private @S95(%arg0: index, %arg1: index, %arg2: index, %arg3: index, %arg4: memref<64x480x14x14xf32>, %arg5: memref<64x480x14x14xf32>) attributes {scop.stmt} {
    %cst = arith.constant 0.000000e+00 : f32
    %cst_0 = arith.constant 1.000000e+00 : f32
    %cst_1 = arith.constant 1.000000e-05 : f64
    %0 = affine.load %arg5[symbol(%arg0), symbol(%arg1), symbol(%arg2), symbol(%arg3)] : memref<64x480x14x14xf32>
    %1 = arith.truncf %cst_1 : f64 to f32
    %2 = arith.addf %1, %cst_0 : f32
    %3 = math.rsqrt %2 : f32
    %4 = arith.mulf %0, %3 : f32
    %5 = arith.addf %4, %cst : f32
    affine.store %5, %arg4[symbol(%arg0), symbol(%arg1), symbol(%arg2), symbol(%arg3)] : memref<64x480x14x14xf32>
    return
  }
  func.func private @S96(%arg0: index, %arg1: index, %arg2: index, %arg3: index, %arg4: memref<64x480x14x14xf32>, %arg5: memref<64x480x14x14xf32>) attributes {scop.stmt} {
    %cst = arith.constant 0.000000e+00 : f32
    %0 = affine.load %arg5[symbol(%arg0), symbol(%arg1), symbol(%arg2), symbol(%arg3)] : memref<64x480x14x14xf32>
    %1 = arith.cmpf ugt, %0, %cst : f32
    %2 = arith.select %1, %0, %cst : f32
    affine.store %2, %arg4[symbol(%arg0), symbol(%arg1), symbol(%arg2), symbol(%arg3)] : memref<64x480x14x14xf32>
    return
  }
  func.func private @S97(%arg0: index, %arg1: index, %arg2: index, %arg3: index, %arg4: memref<64x80x14x14xf32>, %arg5: index, %arg6: index, %arg7: index, %arg8: memref<80x480x1x1xf32>, %arg9: memref<64x480x14x14xf32>) attributes {scop.stmt} {
    %0 = affine.load %arg4[symbol(%arg0), symbol(%arg1), symbol(%arg2), symbol(%arg3)] : memref<64x80x14x14xf32>
    %1 = affine.load %arg9[symbol(%arg0), symbol(%arg5), symbol(%arg2) + symbol(%arg6), symbol(%arg3) + symbol(%arg7)] : memref<64x480x14x14xf32>
    %2 = affine.load %arg8[symbol(%arg1), symbol(%arg5), symbol(%arg6), symbol(%arg7)] : memref<80x480x1x1xf32>
    %3 = arith.mulf %1, %2 : f32
    %4 = arith.addf %0, %3 : f32
    affine.store %4, %arg4[symbol(%arg0), symbol(%arg1), symbol(%arg2), symbol(%arg3)] : memref<64x80x14x14xf32>
    return
  }
  func.func private @S98(%arg0: index, %arg1: index, %arg2: index, %arg3: index, %arg4: memref<64x80x14x14xf32>, %arg5: memref<64x80x14x14xf32>) attributes {scop.stmt} {
    %cst = arith.constant 0.000000e+00 : f32
    %cst_0 = arith.constant 1.000000e+00 : f32
    %cst_1 = arith.constant 1.000000e-05 : f64
    %0 = affine.load %arg5[symbol(%arg0), symbol(%arg1), symbol(%arg2), symbol(%arg3)] : memref<64x80x14x14xf32>
    %1 = arith.truncf %cst_1 : f64 to f32
    %2 = arith.addf %1, %cst_0 : f32
    %3 = math.rsqrt %2 : f32
    %4 = arith.mulf %0, %3 : f32
    %5 = arith.addf %4, %cst : f32
    affine.store %5, %arg4[symbol(%arg0), symbol(%arg1), symbol(%arg2), symbol(%arg3)] : memref<64x80x14x14xf32>
    return
  }
  func.func private @S99(%arg0: index, %arg1: index, %arg2: index, %arg3: index, %arg4: memref<64x80x14x14xf32>, %arg5: memref<64x80x14x14xf32>, %arg6: memref<64x80x14x14xf32>) attributes {scop.stmt} {
    %0 = affine.load %arg6[symbol(%arg0), symbol(%arg1), symbol(%arg2), symbol(%arg3)] : memref<64x80x14x14xf32>
    %1 = affine.load %arg5[symbol(%arg0), symbol(%arg1), symbol(%arg2), symbol(%arg3)] : memref<64x80x14x14xf32>
    %2 = arith.addf %0, %1 : f32
    affine.store %2, %arg4[symbol(%arg0), symbol(%arg1), symbol(%arg2), symbol(%arg3)] : memref<64x80x14x14xf32>
    return
  }
  func.func private @S100(%arg0: index, %arg1: index, %arg2: index, %arg3: index, %arg4: memref<64x480x14x14xf32>, %arg5: index, %arg6: index, %arg7: index, %arg8: memref<480x80x1x1xf32>, %arg9: memref<64x80x14x14xf32>) attributes {scop.stmt} {
    %0 = affine.load %arg4[symbol(%arg0), symbol(%arg1), symbol(%arg2), symbol(%arg3)] : memref<64x480x14x14xf32>
    %1 = affine.load %arg9[symbol(%arg0), symbol(%arg5), symbol(%arg2) + symbol(%arg6), symbol(%arg3) + symbol(%arg7)] : memref<64x80x14x14xf32>
    %2 = affine.load %arg8[symbol(%arg1), symbol(%arg5), symbol(%arg6), symbol(%arg7)] : memref<480x80x1x1xf32>
    %3 = arith.mulf %1, %2 : f32
    %4 = arith.addf %0, %3 : f32
    affine.store %4, %arg4[symbol(%arg0), symbol(%arg1), symbol(%arg2), symbol(%arg3)] : memref<64x480x14x14xf32>
    return
  }
  func.func private @S101(%arg0: index, %arg1: index, %arg2: index, %arg3: index, %arg4: memref<64x480x14x14xf32>, %arg5: memref<64x480x14x14xf32>) attributes {scop.stmt} {
    %cst = arith.constant 0.000000e+00 : f32
    %cst_0 = arith.constant 1.000000e+00 : f32
    %cst_1 = arith.constant 1.000000e-05 : f64
    %0 = affine.load %arg5[symbol(%arg0), symbol(%arg1), symbol(%arg2), symbol(%arg3)] : memref<64x480x14x14xf32>
    %1 = arith.truncf %cst_1 : f64 to f32
    %2 = arith.addf %1, %cst_0 : f32
    %3 = math.rsqrt %2 : f32
    %4 = arith.mulf %0, %3 : f32
    %5 = arith.addf %4, %cst : f32
    affine.store %5, %arg4[symbol(%arg0), symbol(%arg1), symbol(%arg2), symbol(%arg3)] : memref<64x480x14x14xf32>
    return
  }
  func.func private @S102(%arg0: index, %arg1: index, %arg2: index, %arg3: index, %arg4: memref<64x480x14x14xf32>, %arg5: memref<64x480x14x14xf32>) attributes {scop.stmt} {
    %cst = arith.constant 0.000000e+00 : f32
    %0 = affine.load %arg5[symbol(%arg0), symbol(%arg1), symbol(%arg2), symbol(%arg3)] : memref<64x480x14x14xf32>
    %1 = arith.cmpf ugt, %0, %cst : f32
    %2 = arith.select %1, %0, %cst : f32
    affine.store %2, %arg4[symbol(%arg0), symbol(%arg1), symbol(%arg2), symbol(%arg3)] : memref<64x480x14x14xf32>
    return
  }
  func.func private @S103(%arg0: index, %arg1: index, %arg2: index, %arg3: index, %arg4: memref<64x480x18x18xf32>) attributes {scop.stmt} {
    %cst = arith.constant 0.000000e+00 : f32
    affine.store %cst, %arg4[symbol(%arg0), symbol(%arg1), symbol(%arg2), symbol(%arg3)] : memref<64x480x18x18xf32>
    return
  }
  func.func private @S104(%arg0: index, %arg1: index, %arg2: index, %arg3: index, %arg4: memref<64x480x14x14xf32>, %arg5: index, %arg6: index, %arg7: memref<480x5x5xf32>, %arg8: memref<64x480x18x18xf32>) attributes {scop.stmt} {
    %0 = affine.load %arg4[symbol(%arg0), symbol(%arg1), symbol(%arg2), symbol(%arg3)] : memref<64x480x14x14xf32>
    %1 = affine.load %arg8[symbol(%arg0), symbol(%arg1), symbol(%arg2) + symbol(%arg5), symbol(%arg3) + symbol(%arg6)] : memref<64x480x18x18xf32>
    %2 = affine.load %arg7[symbol(%arg1), symbol(%arg5), symbol(%arg6)] : memref<480x5x5xf32>
    %3 = arith.mulf %1, %2 : f32
    %4 = arith.addf %0, %3 : f32
    affine.store %4, %arg4[symbol(%arg0), symbol(%arg1), symbol(%arg2), symbol(%arg3)] : memref<64x480x14x14xf32>
    return
  }
  func.func private @S105(%arg0: index, %arg1: index, %arg2: index, %arg3: index, %arg4: memref<64x480x14x14xf32>, %arg5: memref<64x480x14x14xf32>) attributes {scop.stmt} {
    %cst = arith.constant 0.000000e+00 : f32
    %cst_0 = arith.constant 1.000000e+00 : f32
    %cst_1 = arith.constant 1.000000e-05 : f64
    %0 = affine.load %arg5[symbol(%arg0), symbol(%arg1), symbol(%arg2), symbol(%arg3)] : memref<64x480x14x14xf32>
    %1 = arith.truncf %cst_1 : f64 to f32
    %2 = arith.addf %1, %cst_0 : f32
    %3 = math.rsqrt %2 : f32
    %4 = arith.mulf %0, %3 : f32
    %5 = arith.addf %4, %cst : f32
    affine.store %5, %arg4[symbol(%arg0), symbol(%arg1), symbol(%arg2), symbol(%arg3)] : memref<64x480x14x14xf32>
    return
  }
  func.func private @S106(%arg0: index, %arg1: index, %arg2: index, %arg3: index, %arg4: memref<64x480x14x14xf32>, %arg5: memref<64x480x14x14xf32>) attributes {scop.stmt} {
    %cst = arith.constant 0.000000e+00 : f32
    %0 = affine.load %arg5[symbol(%arg0), symbol(%arg1), symbol(%arg2), symbol(%arg3)] : memref<64x480x14x14xf32>
    %1 = arith.cmpf ugt, %0, %cst : f32
    %2 = arith.select %1, %0, %cst : f32
    affine.store %2, %arg4[symbol(%arg0), symbol(%arg1), symbol(%arg2), symbol(%arg3)] : memref<64x480x14x14xf32>
    return
  }
  func.func private @S107(%arg0: index, %arg1: index, %arg2: index, %arg3: index, %arg4: memref<64x80x14x14xf32>, %arg5: index, %arg6: index, %arg7: index, %arg8: memref<80x480x1x1xf32>, %arg9: memref<64x480x14x14xf32>) attributes {scop.stmt} {
    %0 = affine.load %arg4[symbol(%arg0), symbol(%arg1), symbol(%arg2), symbol(%arg3)] : memref<64x80x14x14xf32>
    %1 = affine.load %arg9[symbol(%arg0), symbol(%arg5), symbol(%arg2) + symbol(%arg6), symbol(%arg3) + symbol(%arg7)] : memref<64x480x14x14xf32>
    %2 = affine.load %arg8[symbol(%arg1), symbol(%arg5), symbol(%arg6), symbol(%arg7)] : memref<80x480x1x1xf32>
    %3 = arith.mulf %1, %2 : f32
    %4 = arith.addf %0, %3 : f32
    affine.store %4, %arg4[symbol(%arg0), symbol(%arg1), symbol(%arg2), symbol(%arg3)] : memref<64x80x14x14xf32>
    return
  }
  func.func private @S108(%arg0: index, %arg1: index, %arg2: index, %arg3: index, %arg4: memref<64x80x14x14xf32>, %arg5: memref<64x80x14x14xf32>) attributes {scop.stmt} {
    %cst = arith.constant 0.000000e+00 : f32
    %cst_0 = arith.constant 1.000000e+00 : f32
    %cst_1 = arith.constant 1.000000e-05 : f64
    %0 = affine.load %arg5[symbol(%arg0), symbol(%arg1), symbol(%arg2), symbol(%arg3)] : memref<64x80x14x14xf32>
    %1 = arith.truncf %cst_1 : f64 to f32
    %2 = arith.addf %1, %cst_0 : f32
    %3 = math.rsqrt %2 : f32
    %4 = arith.mulf %0, %3 : f32
    %5 = arith.addf %4, %cst : f32
    affine.store %5, %arg4[symbol(%arg0), symbol(%arg1), symbol(%arg2), symbol(%arg3)] : memref<64x80x14x14xf32>
    return
  }
  func.func private @S109(%arg0: index, %arg1: index, %arg2: index, %arg3: index, %arg4: memref<64x80x14x14xf32>, %arg5: memref<64x80x14x14xf32>, %arg6: memref<64x80x14x14xf32>) attributes {scop.stmt} {
    %0 = affine.load %arg6[symbol(%arg0), symbol(%arg1), symbol(%arg2), symbol(%arg3)] : memref<64x80x14x14xf32>
    %1 = affine.load %arg5[symbol(%arg0), symbol(%arg1), symbol(%arg2), symbol(%arg3)] : memref<64x80x14x14xf32>
    %2 = arith.addf %0, %1 : f32
    affine.store %2, %arg4[symbol(%arg0), symbol(%arg1), symbol(%arg2), symbol(%arg3)] : memref<64x80x14x14xf32>
    return
  }
  func.func private @S110(%arg0: index, %arg1: index, %arg2: index, %arg3: index, %arg4: memref<64x480x14x14xf32>, %arg5: index, %arg6: index, %arg7: index, %arg8: memref<480x80x1x1xf32>, %arg9: memref<64x80x14x14xf32>) attributes {scop.stmt} {
    %0 = affine.load %arg4[symbol(%arg0), symbol(%arg1), symbol(%arg2), symbol(%arg3)] : memref<64x480x14x14xf32>
    %1 = affine.load %arg9[symbol(%arg0), symbol(%arg5), symbol(%arg2) + symbol(%arg6), symbol(%arg3) + symbol(%arg7)] : memref<64x80x14x14xf32>
    %2 = affine.load %arg8[symbol(%arg1), symbol(%arg5), symbol(%arg6), symbol(%arg7)] : memref<480x80x1x1xf32>
    %3 = arith.mulf %1, %2 : f32
    %4 = arith.addf %0, %3 : f32
    affine.store %4, %arg4[symbol(%arg0), symbol(%arg1), symbol(%arg2), symbol(%arg3)] : memref<64x480x14x14xf32>
    return
  }
  func.func private @S111(%arg0: index, %arg1: index, %arg2: index, %arg3: index, %arg4: memref<64x480x14x14xf32>, %arg5: memref<64x480x14x14xf32>) attributes {scop.stmt} {
    %cst = arith.constant 0.000000e+00 : f32
    %cst_0 = arith.constant 1.000000e+00 : f32
    %cst_1 = arith.constant 1.000000e-05 : f64
    %0 = affine.load %arg5[symbol(%arg0), symbol(%arg1), symbol(%arg2), symbol(%arg3)] : memref<64x480x14x14xf32>
    %1 = arith.truncf %cst_1 : f64 to f32
    %2 = arith.addf %1, %cst_0 : f32
    %3 = math.rsqrt %2 : f32
    %4 = arith.mulf %0, %3 : f32
    %5 = arith.addf %4, %cst : f32
    affine.store %5, %arg4[symbol(%arg0), symbol(%arg1), symbol(%arg2), symbol(%arg3)] : memref<64x480x14x14xf32>
    return
  }
  func.func private @S112(%arg0: index, %arg1: index, %arg2: index, %arg3: index, %arg4: memref<64x480x14x14xf32>, %arg5: memref<64x480x14x14xf32>) attributes {scop.stmt} {
    %cst = arith.constant 0.000000e+00 : f32
    %0 = affine.load %arg5[symbol(%arg0), symbol(%arg1), symbol(%arg2), symbol(%arg3)] : memref<64x480x14x14xf32>
    %1 = arith.cmpf ugt, %0, %cst : f32
    %2 = arith.select %1, %0, %cst : f32
    affine.store %2, %arg4[symbol(%arg0), symbol(%arg1), symbol(%arg2), symbol(%arg3)] : memref<64x480x14x14xf32>
    return
  }
  func.func private @S113(%arg0: index, %arg1: index, %arg2: index, %arg3: index, %arg4: memref<64x480x16x16xf32>) attributes {scop.stmt} {
    %cst = arith.constant 0.000000e+00 : f32
    affine.store %cst, %arg4[symbol(%arg0), symbol(%arg1), symbol(%arg2), symbol(%arg3)] : memref<64x480x16x16xf32>
    return
  }
  func.func private @S114(%arg0: index, %arg1: index, %arg2: index, %arg3: index, %arg4: memref<64x480x14x14xf32>, %arg5: index, %arg6: index, %arg7: memref<480x3x3xf32>, %arg8: memref<64x480x16x16xf32>) attributes {scop.stmt} {
    %0 = affine.load %arg4[symbol(%arg0), symbol(%arg1), symbol(%arg2), symbol(%arg3)] : memref<64x480x14x14xf32>
    %1 = affine.load %arg8[symbol(%arg0), symbol(%arg1), symbol(%arg2) + symbol(%arg5), symbol(%arg3) + symbol(%arg6)] : memref<64x480x16x16xf32>
    %2 = affine.load %arg7[symbol(%arg1), symbol(%arg5), symbol(%arg6)] : memref<480x3x3xf32>
    %3 = arith.mulf %1, %2 : f32
    %4 = arith.addf %0, %3 : f32
    affine.store %4, %arg4[symbol(%arg0), symbol(%arg1), symbol(%arg2), symbol(%arg3)] : memref<64x480x14x14xf32>
    return
  }
  func.func private @S115(%arg0: index, %arg1: index, %arg2: index, %arg3: index, %arg4: memref<64x480x14x14xf32>, %arg5: memref<64x480x14x14xf32>) attributes {scop.stmt} {
    %cst = arith.constant 0.000000e+00 : f32
    %cst_0 = arith.constant 1.000000e+00 : f32
    %cst_1 = arith.constant 1.000000e-05 : f64
    %0 = affine.load %arg5[symbol(%arg0), symbol(%arg1), symbol(%arg2), symbol(%arg3)] : memref<64x480x14x14xf32>
    %1 = arith.truncf %cst_1 : f64 to f32
    %2 = arith.addf %1, %cst_0 : f32
    %3 = math.rsqrt %2 : f32
    %4 = arith.mulf %0, %3 : f32
    %5 = arith.addf %4, %cst : f32
    affine.store %5, %arg4[symbol(%arg0), symbol(%arg1), symbol(%arg2), symbol(%arg3)] : memref<64x480x14x14xf32>
    return
  }
  func.func private @S116(%arg0: index, %arg1: index, %arg2: index, %arg3: index, %arg4: memref<64x480x14x14xf32>, %arg5: memref<64x480x14x14xf32>) attributes {scop.stmt} {
    %cst = arith.constant 0.000000e+00 : f32
    %0 = affine.load %arg5[symbol(%arg0), symbol(%arg1), symbol(%arg2), symbol(%arg3)] : memref<64x480x14x14xf32>
    %1 = arith.cmpf ugt, %0, %cst : f32
    %2 = arith.select %1, %0, %cst : f32
    affine.store %2, %arg4[symbol(%arg0), symbol(%arg1), symbol(%arg2), symbol(%arg3)] : memref<64x480x14x14xf32>
    return
  }
  func.func private @S117(%arg0: index, %arg1: index, %arg2: index, %arg3: index, %arg4: memref<64x96x14x14xf32>) attributes {scop.stmt} {
    %cst = arith.constant 0.000000e+00 : f32
    affine.store %cst, %arg4[symbol(%arg0), symbol(%arg1), symbol(%arg2), symbol(%arg3)] : memref<64x96x14x14xf32>
    return
  }
  func.func private @S118(%arg0: index, %arg1: index, %arg2: index, %arg3: index, %arg4: memref<64x96x14x14xf32>, %arg5: index, %arg6: index, %arg7: index, %arg8: memref<96x480x1x1xf32>, %arg9: memref<64x480x14x14xf32>) attributes {scop.stmt} {
    %0 = affine.load %arg4[symbol(%arg0), symbol(%arg1), symbol(%arg2), symbol(%arg3)] : memref<64x96x14x14xf32>
    %1 = affine.load %arg9[symbol(%arg0), symbol(%arg5), symbol(%arg2) + symbol(%arg6), symbol(%arg3) + symbol(%arg7)] : memref<64x480x14x14xf32>
    %2 = affine.load %arg8[symbol(%arg1), symbol(%arg5), symbol(%arg6), symbol(%arg7)] : memref<96x480x1x1xf32>
    %3 = arith.mulf %1, %2 : f32
    %4 = arith.addf %0, %3 : f32
    affine.store %4, %arg4[symbol(%arg0), symbol(%arg1), symbol(%arg2), symbol(%arg3)] : memref<64x96x14x14xf32>
    return
  }
  func.func private @S119(%arg0: index, %arg1: index, %arg2: index, %arg3: index, %arg4: memref<64x96x14x14xf32>, %arg5: memref<64x96x14x14xf32>) attributes {scop.stmt} {
    %cst = arith.constant 0.000000e+00 : f32
    %cst_0 = arith.constant 1.000000e+00 : f32
    %cst_1 = arith.constant 1.000000e-05 : f64
    %0 = affine.load %arg5[symbol(%arg0), symbol(%arg1), symbol(%arg2), symbol(%arg3)] : memref<64x96x14x14xf32>
    %1 = arith.truncf %cst_1 : f64 to f32
    %2 = arith.addf %1, %cst_0 : f32
    %3 = math.rsqrt %2 : f32
    %4 = arith.mulf %0, %3 : f32
    %5 = arith.addf %4, %cst : f32
    affine.store %5, %arg4[symbol(%arg0), symbol(%arg1), symbol(%arg2), symbol(%arg3)] : memref<64x96x14x14xf32>
    return
  }
  func.func private @S120(%arg0: index, %arg1: index, %arg2: index, %arg3: index, %arg4: memref<64x576x14x14xf32>) attributes {scop.stmt} {
    %cst = arith.constant 0.000000e+00 : f32
    affine.store %cst, %arg4[symbol(%arg0), symbol(%arg1), symbol(%arg2), symbol(%arg3)] : memref<64x576x14x14xf32>
    return
  }
  func.func private @S121(%arg0: index, %arg1: index, %arg2: index, %arg3: index, %arg4: memref<64x576x14x14xf32>, %arg5: index, %arg6: index, %arg7: index, %arg8: memref<576x96x1x1xf32>, %arg9: memref<64x96x14x14xf32>) attributes {scop.stmt} {
    %0 = affine.load %arg4[symbol(%arg0), symbol(%arg1), symbol(%arg2), symbol(%arg3)] : memref<64x576x14x14xf32>
    %1 = affine.load %arg9[symbol(%arg0), symbol(%arg5), symbol(%arg2) + symbol(%arg6), symbol(%arg3) + symbol(%arg7)] : memref<64x96x14x14xf32>
    %2 = affine.load %arg8[symbol(%arg1), symbol(%arg5), symbol(%arg6), symbol(%arg7)] : memref<576x96x1x1xf32>
    %3 = arith.mulf %1, %2 : f32
    %4 = arith.addf %0, %3 : f32
    affine.store %4, %arg4[symbol(%arg0), symbol(%arg1), symbol(%arg2), symbol(%arg3)] : memref<64x576x14x14xf32>
    return
  }
  func.func private @S122(%arg0: index, %arg1: index, %arg2: index, %arg3: index, %arg4: memref<64x576x14x14xf32>, %arg5: memref<64x576x14x14xf32>) attributes {scop.stmt} {
    %cst = arith.constant 0.000000e+00 : f32
    %cst_0 = arith.constant 1.000000e+00 : f32
    %cst_1 = arith.constant 1.000000e-05 : f64
    %0 = affine.load %arg5[symbol(%arg0), symbol(%arg1), symbol(%arg2), symbol(%arg3)] : memref<64x576x14x14xf32>
    %1 = arith.truncf %cst_1 : f64 to f32
    %2 = arith.addf %1, %cst_0 : f32
    %3 = math.rsqrt %2 : f32
    %4 = arith.mulf %0, %3 : f32
    %5 = arith.addf %4, %cst : f32
    affine.store %5, %arg4[symbol(%arg0), symbol(%arg1), symbol(%arg2), symbol(%arg3)] : memref<64x576x14x14xf32>
    return
  }
  func.func private @S123(%arg0: index, %arg1: index, %arg2: index, %arg3: index, %arg4: memref<64x576x14x14xf32>, %arg5: memref<64x576x14x14xf32>) attributes {scop.stmt} {
    %cst = arith.constant 0.000000e+00 : f32
    %0 = affine.load %arg5[symbol(%arg0), symbol(%arg1), symbol(%arg2), symbol(%arg3)] : memref<64x576x14x14xf32>
    %1 = arith.cmpf ugt, %0, %cst : f32
    %2 = arith.select %1, %0, %cst : f32
    affine.store %2, %arg4[symbol(%arg0), symbol(%arg1), symbol(%arg2), symbol(%arg3)] : memref<64x576x14x14xf32>
    return
  }
  func.func private @S124(%arg0: index, %arg1: index, %arg2: index, %arg3: index, %arg4: memref<64x576x16x16xf32>) attributes {scop.stmt} {
    %cst = arith.constant 0.000000e+00 : f32
    affine.store %cst, %arg4[symbol(%arg0), symbol(%arg1), symbol(%arg2), symbol(%arg3)] : memref<64x576x16x16xf32>
    return
  }
  func.func private @S125(%arg0: index, %arg1: index, %arg2: index, %arg3: index, %arg4: memref<64x576x14x14xf32>, %arg5: index, %arg6: index, %arg7: memref<576x3x3xf32>, %arg8: memref<64x576x16x16xf32>) attributes {scop.stmt} {
    %0 = affine.load %arg4[symbol(%arg0), symbol(%arg1), symbol(%arg2), symbol(%arg3)] : memref<64x576x14x14xf32>
    %1 = affine.load %arg8[symbol(%arg0), symbol(%arg1), symbol(%arg2) + symbol(%arg5), symbol(%arg3) + symbol(%arg6)] : memref<64x576x16x16xf32>
    %2 = affine.load %arg7[symbol(%arg1), symbol(%arg5), symbol(%arg6)] : memref<576x3x3xf32>
    %3 = arith.mulf %1, %2 : f32
    %4 = arith.addf %0, %3 : f32
    affine.store %4, %arg4[symbol(%arg0), symbol(%arg1), symbol(%arg2), symbol(%arg3)] : memref<64x576x14x14xf32>
    return
  }
  func.func private @S126(%arg0: index, %arg1: index, %arg2: index, %arg3: index, %arg4: memref<64x576x14x14xf32>, %arg5: memref<64x576x14x14xf32>) attributes {scop.stmt} {
    %cst = arith.constant 0.000000e+00 : f32
    %cst_0 = arith.constant 1.000000e+00 : f32
    %cst_1 = arith.constant 1.000000e-05 : f64
    %0 = affine.load %arg5[symbol(%arg0), symbol(%arg1), symbol(%arg2), symbol(%arg3)] : memref<64x576x14x14xf32>
    %1 = arith.truncf %cst_1 : f64 to f32
    %2 = arith.addf %1, %cst_0 : f32
    %3 = math.rsqrt %2 : f32
    %4 = arith.mulf %0, %3 : f32
    %5 = arith.addf %4, %cst : f32
    affine.store %5, %arg4[symbol(%arg0), symbol(%arg1), symbol(%arg2), symbol(%arg3)] : memref<64x576x14x14xf32>
    return
  }
  func.func private @S127(%arg0: index, %arg1: index, %arg2: index, %arg3: index, %arg4: memref<64x576x14x14xf32>, %arg5: memref<64x576x14x14xf32>) attributes {scop.stmt} {
    %cst = arith.constant 0.000000e+00 : f32
    %0 = affine.load %arg5[symbol(%arg0), symbol(%arg1), symbol(%arg2), symbol(%arg3)] : memref<64x576x14x14xf32>
    %1 = arith.cmpf ugt, %0, %cst : f32
    %2 = arith.select %1, %0, %cst : f32
    affine.store %2, %arg4[symbol(%arg0), symbol(%arg1), symbol(%arg2), symbol(%arg3)] : memref<64x576x14x14xf32>
    return
  }
  func.func private @S128(%arg0: index, %arg1: index, %arg2: index, %arg3: index, %arg4: memref<64x96x14x14xf32>, %arg5: index, %arg6: index, %arg7: index, %arg8: memref<96x576x1x1xf32>, %arg9: memref<64x576x14x14xf32>) attributes {scop.stmt} {
    %0 = affine.load %arg4[symbol(%arg0), symbol(%arg1), symbol(%arg2), symbol(%arg3)] : memref<64x96x14x14xf32>
    %1 = affine.load %arg9[symbol(%arg0), symbol(%arg5), symbol(%arg2) + symbol(%arg6), symbol(%arg3) + symbol(%arg7)] : memref<64x576x14x14xf32>
    %2 = affine.load %arg8[symbol(%arg1), symbol(%arg5), symbol(%arg6), symbol(%arg7)] : memref<96x576x1x1xf32>
    %3 = arith.mulf %1, %2 : f32
    %4 = arith.addf %0, %3 : f32
    affine.store %4, %arg4[symbol(%arg0), symbol(%arg1), symbol(%arg2), symbol(%arg3)] : memref<64x96x14x14xf32>
    return
  }
  func.func private @S129(%arg0: index, %arg1: index, %arg2: index, %arg3: index, %arg4: memref<64x96x14x14xf32>, %arg5: memref<64x96x14x14xf32>) attributes {scop.stmt} {
    %cst = arith.constant 0.000000e+00 : f32
    %cst_0 = arith.constant 1.000000e+00 : f32
    %cst_1 = arith.constant 1.000000e-05 : f64
    %0 = affine.load %arg5[symbol(%arg0), symbol(%arg1), symbol(%arg2), symbol(%arg3)] : memref<64x96x14x14xf32>
    %1 = arith.truncf %cst_1 : f64 to f32
    %2 = arith.addf %1, %cst_0 : f32
    %3 = math.rsqrt %2 : f32
    %4 = arith.mulf %0, %3 : f32
    %5 = arith.addf %4, %cst : f32
    affine.store %5, %arg4[symbol(%arg0), symbol(%arg1), symbol(%arg2), symbol(%arg3)] : memref<64x96x14x14xf32>
    return
  }
  func.func private @S130(%arg0: index, %arg1: index, %arg2: index, %arg3: index, %arg4: memref<64x96x14x14xf32>, %arg5: memref<64x96x14x14xf32>, %arg6: memref<64x96x14x14xf32>) attributes {scop.stmt} {
    %0 = affine.load %arg6[symbol(%arg0), symbol(%arg1), symbol(%arg2), symbol(%arg3)] : memref<64x96x14x14xf32>
    %1 = affine.load %arg5[symbol(%arg0), symbol(%arg1), symbol(%arg2), symbol(%arg3)] : memref<64x96x14x14xf32>
    %2 = arith.addf %0, %1 : f32
    affine.store %2, %arg4[symbol(%arg0), symbol(%arg1), symbol(%arg2), symbol(%arg3)] : memref<64x96x14x14xf32>
    return
  }
  func.func private @S131(%arg0: index, %arg1: index, %arg2: index, %arg3: index, %arg4: memref<64x576x14x14xf32>, %arg5: index, %arg6: index, %arg7: index, %arg8: memref<576x96x1x1xf32>, %arg9: memref<64x96x14x14xf32>) attributes {scop.stmt} {
    %0 = affine.load %arg4[symbol(%arg0), symbol(%arg1), symbol(%arg2), symbol(%arg3)] : memref<64x576x14x14xf32>
    %1 = affine.load %arg9[symbol(%arg0), symbol(%arg5), symbol(%arg2) + symbol(%arg6), symbol(%arg3) + symbol(%arg7)] : memref<64x96x14x14xf32>
    %2 = affine.load %arg8[symbol(%arg1), symbol(%arg5), symbol(%arg6), symbol(%arg7)] : memref<576x96x1x1xf32>
    %3 = arith.mulf %1, %2 : f32
    %4 = arith.addf %0, %3 : f32
    affine.store %4, %arg4[symbol(%arg0), symbol(%arg1), symbol(%arg2), symbol(%arg3)] : memref<64x576x14x14xf32>
    return
  }
  func.func private @S132(%arg0: index, %arg1: index, %arg2: index, %arg3: index, %arg4: memref<64x576x14x14xf32>, %arg5: memref<64x576x14x14xf32>) attributes {scop.stmt} {
    %cst = arith.constant 0.000000e+00 : f32
    %cst_0 = arith.constant 1.000000e+00 : f32
    %cst_1 = arith.constant 1.000000e-05 : f64
    %0 = affine.load %arg5[symbol(%arg0), symbol(%arg1), symbol(%arg2), symbol(%arg3)] : memref<64x576x14x14xf32>
    %1 = arith.truncf %cst_1 : f64 to f32
    %2 = arith.addf %1, %cst_0 : f32
    %3 = math.rsqrt %2 : f32
    %4 = arith.mulf %0, %3 : f32
    %5 = arith.addf %4, %cst : f32
    affine.store %5, %arg4[symbol(%arg0), symbol(%arg1), symbol(%arg2), symbol(%arg3)] : memref<64x576x14x14xf32>
    return
  }
  func.func private @S133(%arg0: index, %arg1: index, %arg2: index, %arg3: index, %arg4: memref<64x576x14x14xf32>, %arg5: memref<64x576x14x14xf32>) attributes {scop.stmt} {
    %cst = arith.constant 0.000000e+00 : f32
    %0 = affine.load %arg5[symbol(%arg0), symbol(%arg1), symbol(%arg2), symbol(%arg3)] : memref<64x576x14x14xf32>
    %1 = arith.cmpf ugt, %0, %cst : f32
    %2 = arith.select %1, %0, %cst : f32
    affine.store %2, %arg4[symbol(%arg0), symbol(%arg1), symbol(%arg2), symbol(%arg3)] : memref<64x576x14x14xf32>
    return
  }
  func.func private @S134(%arg0: index, %arg1: index, %arg2: index, %arg3: index, %arg4: memref<64x576x18x18xf32>) attributes {scop.stmt} {
    %cst = arith.constant 0.000000e+00 : f32
    affine.store %cst, %arg4[symbol(%arg0), symbol(%arg1), symbol(%arg2), symbol(%arg3)] : memref<64x576x18x18xf32>
    return
  }
  func.func private @S135(%arg0: index, %arg1: index, %arg2: index, %arg3: index, %arg4: memref<64x576x7x7xf32>) attributes {scop.stmt} {
    %cst = arith.constant 0.000000e+00 : f32
    affine.store %cst, %arg4[symbol(%arg0), symbol(%arg1), symbol(%arg2), symbol(%arg3)] : memref<64x576x7x7xf32>
    return
  }
  func.func private @S136(%arg0: index, %arg1: index, %arg2: index, %arg3: index, %arg4: memref<64x576x7x7xf32>, %arg5: index, %arg6: index, %arg7: memref<576x5x5xf32>, %arg8: memref<64x576x18x18xf32>) attributes {scop.stmt} {
    %0 = affine.load %arg4[symbol(%arg0), symbol(%arg1), symbol(%arg2), symbol(%arg3)] : memref<64x576x7x7xf32>
    %1 = affine.load %arg8[symbol(%arg0), symbol(%arg1), symbol(%arg2) * 2 + symbol(%arg5), symbol(%arg3) * 2 + symbol(%arg6)] : memref<64x576x18x18xf32>
    %2 = affine.load %arg7[symbol(%arg1), symbol(%arg5), symbol(%arg6)] : memref<576x5x5xf32>
    %3 = arith.mulf %1, %2 : f32
    %4 = arith.addf %0, %3 : f32
    affine.store %4, %arg4[symbol(%arg0), symbol(%arg1), symbol(%arg2), symbol(%arg3)] : memref<64x576x7x7xf32>
    return
  }
  func.func private @S137(%arg0: index, %arg1: index, %arg2: index, %arg3: index, %arg4: memref<64x576x7x7xf32>, %arg5: memref<64x576x7x7xf32>) attributes {scop.stmt} {
    %cst = arith.constant 0.000000e+00 : f32
    %cst_0 = arith.constant 1.000000e+00 : f32
    %cst_1 = arith.constant 1.000000e-05 : f64
    %0 = affine.load %arg5[symbol(%arg0), symbol(%arg1), symbol(%arg2), symbol(%arg3)] : memref<64x576x7x7xf32>
    %1 = arith.truncf %cst_1 : f64 to f32
    %2 = arith.addf %1, %cst_0 : f32
    %3 = math.rsqrt %2 : f32
    %4 = arith.mulf %0, %3 : f32
    %5 = arith.addf %4, %cst : f32
    affine.store %5, %arg4[symbol(%arg0), symbol(%arg1), symbol(%arg2), symbol(%arg3)] : memref<64x576x7x7xf32>
    return
  }
  func.func private @S138(%arg0: index, %arg1: index, %arg2: index, %arg3: index, %arg4: memref<64x576x7x7xf32>, %arg5: memref<64x576x7x7xf32>) attributes {scop.stmt} {
    %cst = arith.constant 0.000000e+00 : f32
    %0 = affine.load %arg5[symbol(%arg0), symbol(%arg1), symbol(%arg2), symbol(%arg3)] : memref<64x576x7x7xf32>
    %1 = arith.cmpf ugt, %0, %cst : f32
    %2 = arith.select %1, %0, %cst : f32
    affine.store %2, %arg4[symbol(%arg0), symbol(%arg1), symbol(%arg2), symbol(%arg3)] : memref<64x576x7x7xf32>
    return
  }
  func.func private @S139(%arg0: index, %arg1: index, %arg2: index, %arg3: index, %arg4: memref<64x192x7x7xf32>) attributes {scop.stmt} {
    %cst = arith.constant 0.000000e+00 : f32
    affine.store %cst, %arg4[symbol(%arg0), symbol(%arg1), symbol(%arg2), symbol(%arg3)] : memref<64x192x7x7xf32>
    return
  }
  func.func private @S140(%arg0: index, %arg1: index, %arg2: index, %arg3: index, %arg4: memref<64x192x7x7xf32>, %arg5: index, %arg6: index, %arg7: index, %arg8: memref<192x576x1x1xf32>, %arg9: memref<64x576x7x7xf32>) attributes {scop.stmt} {
    %0 = affine.load %arg4[symbol(%arg0), symbol(%arg1), symbol(%arg2), symbol(%arg3)] : memref<64x192x7x7xf32>
    %1 = affine.load %arg9[symbol(%arg0), symbol(%arg5), symbol(%arg2) + symbol(%arg6), symbol(%arg3) + symbol(%arg7)] : memref<64x576x7x7xf32>
    %2 = affine.load %arg8[symbol(%arg1), symbol(%arg5), symbol(%arg6), symbol(%arg7)] : memref<192x576x1x1xf32>
    %3 = arith.mulf %1, %2 : f32
    %4 = arith.addf %0, %3 : f32
    affine.store %4, %arg4[symbol(%arg0), symbol(%arg1), symbol(%arg2), symbol(%arg3)] : memref<64x192x7x7xf32>
    return
  }
  func.func private @S141(%arg0: index, %arg1: index, %arg2: index, %arg3: index, %arg4: memref<64x192x7x7xf32>, %arg5: memref<64x192x7x7xf32>) attributes {scop.stmt} {
    %cst = arith.constant 0.000000e+00 : f32
    %cst_0 = arith.constant 1.000000e+00 : f32
    %cst_1 = arith.constant 1.000000e-05 : f64
    %0 = affine.load %arg5[symbol(%arg0), symbol(%arg1), symbol(%arg2), symbol(%arg3)] : memref<64x192x7x7xf32>
    %1 = arith.truncf %cst_1 : f64 to f32
    %2 = arith.addf %1, %cst_0 : f32
    %3 = math.rsqrt %2 : f32
    %4 = arith.mulf %0, %3 : f32
    %5 = arith.addf %4, %cst : f32
    affine.store %5, %arg4[symbol(%arg0), symbol(%arg1), symbol(%arg2), symbol(%arg3)] : memref<64x192x7x7xf32>
    return
  }
  func.func private @S142(%arg0: index, %arg1: index, %arg2: index, %arg3: index, %arg4: memref<64x1152x7x7xf32>) attributes {scop.stmt} {
    %cst = arith.constant 0.000000e+00 : f32
    affine.store %cst, %arg4[symbol(%arg0), symbol(%arg1), symbol(%arg2), symbol(%arg3)] : memref<64x1152x7x7xf32>
    return
  }
  func.func private @S143(%arg0: index, %arg1: index, %arg2: index, %arg3: index, %arg4: memref<64x1152x7x7xf32>, %arg5: index, %arg6: index, %arg7: index, %arg8: memref<1152x192x1x1xf32>, %arg9: memref<64x192x7x7xf32>) attributes {scop.stmt} {
    %0 = affine.load %arg4[symbol(%arg0), symbol(%arg1), symbol(%arg2), symbol(%arg3)] : memref<64x1152x7x7xf32>
    %1 = affine.load %arg9[symbol(%arg0), symbol(%arg5), symbol(%arg2) + symbol(%arg6), symbol(%arg3) + symbol(%arg7)] : memref<64x192x7x7xf32>
    %2 = affine.load %arg8[symbol(%arg1), symbol(%arg5), symbol(%arg6), symbol(%arg7)] : memref<1152x192x1x1xf32>
    %3 = arith.mulf %1, %2 : f32
    %4 = arith.addf %0, %3 : f32
    affine.store %4, %arg4[symbol(%arg0), symbol(%arg1), symbol(%arg2), symbol(%arg3)] : memref<64x1152x7x7xf32>
    return
  }
  func.func private @S144(%arg0: index, %arg1: index, %arg2: index, %arg3: index, %arg4: memref<64x1152x7x7xf32>, %arg5: memref<64x1152x7x7xf32>) attributes {scop.stmt} {
    %cst = arith.constant 0.000000e+00 : f32
    %cst_0 = arith.constant 1.000000e+00 : f32
    %cst_1 = arith.constant 1.000000e-05 : f64
    %0 = affine.load %arg5[symbol(%arg0), symbol(%arg1), symbol(%arg2), symbol(%arg3)] : memref<64x1152x7x7xf32>
    %1 = arith.truncf %cst_1 : f64 to f32
    %2 = arith.addf %1, %cst_0 : f32
    %3 = math.rsqrt %2 : f32
    %4 = arith.mulf %0, %3 : f32
    %5 = arith.addf %4, %cst : f32
    affine.store %5, %arg4[symbol(%arg0), symbol(%arg1), symbol(%arg2), symbol(%arg3)] : memref<64x1152x7x7xf32>
    return
  }
  func.func private @S145(%arg0: index, %arg1: index, %arg2: index, %arg3: index, %arg4: memref<64x1152x7x7xf32>, %arg5: memref<64x1152x7x7xf32>) attributes {scop.stmt} {
    %cst = arith.constant 0.000000e+00 : f32
    %0 = affine.load %arg5[symbol(%arg0), symbol(%arg1), symbol(%arg2), symbol(%arg3)] : memref<64x1152x7x7xf32>
    %1 = arith.cmpf ugt, %0, %cst : f32
    %2 = arith.select %1, %0, %cst : f32
    affine.store %2, %arg4[symbol(%arg0), symbol(%arg1), symbol(%arg2), symbol(%arg3)] : memref<64x1152x7x7xf32>
    return
  }
  func.func private @S146(%arg0: index, %arg1: index, %arg2: index, %arg3: index, %arg4: memref<64x1152x11x11xf32>) attributes {scop.stmt} {
    %cst = arith.constant 0.000000e+00 : f32
    affine.store %cst, %arg4[symbol(%arg0), symbol(%arg1), symbol(%arg2), symbol(%arg3)] : memref<64x1152x11x11xf32>
    return
  }
  func.func private @S147(%arg0: index, %arg1: index, %arg2: index, %arg3: index, %arg4: memref<64x1152x7x7xf32>, %arg5: index, %arg6: index, %arg7: memref<1152x5x5xf32>, %arg8: memref<64x1152x11x11xf32>) attributes {scop.stmt} {
    %0 = affine.load %arg4[symbol(%arg0), symbol(%arg1), symbol(%arg2), symbol(%arg3)] : memref<64x1152x7x7xf32>
    %1 = affine.load %arg8[symbol(%arg0), symbol(%arg1), symbol(%arg2) + symbol(%arg5), symbol(%arg3) + symbol(%arg6)] : memref<64x1152x11x11xf32>
    %2 = affine.load %arg7[symbol(%arg1), symbol(%arg5), symbol(%arg6)] : memref<1152x5x5xf32>
    %3 = arith.mulf %1, %2 : f32
    %4 = arith.addf %0, %3 : f32
    affine.store %4, %arg4[symbol(%arg0), symbol(%arg1), symbol(%arg2), symbol(%arg3)] : memref<64x1152x7x7xf32>
    return
  }
  func.func private @S148(%arg0: index, %arg1: index, %arg2: index, %arg3: index, %arg4: memref<64x1152x7x7xf32>, %arg5: memref<64x1152x7x7xf32>) attributes {scop.stmt} {
    %cst = arith.constant 0.000000e+00 : f32
    %cst_0 = arith.constant 1.000000e+00 : f32
    %cst_1 = arith.constant 1.000000e-05 : f64
    %0 = affine.load %arg5[symbol(%arg0), symbol(%arg1), symbol(%arg2), symbol(%arg3)] : memref<64x1152x7x7xf32>
    %1 = arith.truncf %cst_1 : f64 to f32
    %2 = arith.addf %1, %cst_0 : f32
    %3 = math.rsqrt %2 : f32
    %4 = arith.mulf %0, %3 : f32
    %5 = arith.addf %4, %cst : f32
    affine.store %5, %arg4[symbol(%arg0), symbol(%arg1), symbol(%arg2), symbol(%arg3)] : memref<64x1152x7x7xf32>
    return
  }
  func.func private @S149(%arg0: index, %arg1: index, %arg2: index, %arg3: index, %arg4: memref<64x1152x7x7xf32>, %arg5: memref<64x1152x7x7xf32>) attributes {scop.stmt} {
    %cst = arith.constant 0.000000e+00 : f32
    %0 = affine.load %arg5[symbol(%arg0), symbol(%arg1), symbol(%arg2), symbol(%arg3)] : memref<64x1152x7x7xf32>
    %1 = arith.cmpf ugt, %0, %cst : f32
    %2 = arith.select %1, %0, %cst : f32
    affine.store %2, %arg4[symbol(%arg0), symbol(%arg1), symbol(%arg2), symbol(%arg3)] : memref<64x1152x7x7xf32>
    return
  }
  func.func private @S150(%arg0: index, %arg1: index, %arg2: index, %arg3: index, %arg4: memref<64x192x7x7xf32>, %arg5: index, %arg6: index, %arg7: index, %arg8: memref<192x1152x1x1xf32>, %arg9: memref<64x1152x7x7xf32>) attributes {scop.stmt} {
    %0 = affine.load %arg4[symbol(%arg0), symbol(%arg1), symbol(%arg2), symbol(%arg3)] : memref<64x192x7x7xf32>
    %1 = affine.load %arg9[symbol(%arg0), symbol(%arg5), symbol(%arg2) + symbol(%arg6), symbol(%arg3) + symbol(%arg7)] : memref<64x1152x7x7xf32>
    %2 = affine.load %arg8[symbol(%arg1), symbol(%arg5), symbol(%arg6), symbol(%arg7)] : memref<192x1152x1x1xf32>
    %3 = arith.mulf %1, %2 : f32
    %4 = arith.addf %0, %3 : f32
    affine.store %4, %arg4[symbol(%arg0), symbol(%arg1), symbol(%arg2), symbol(%arg3)] : memref<64x192x7x7xf32>
    return
  }
  func.func private @S151(%arg0: index, %arg1: index, %arg2: index, %arg3: index, %arg4: memref<64x192x7x7xf32>, %arg5: memref<64x192x7x7xf32>) attributes {scop.stmt} {
    %cst = arith.constant 0.000000e+00 : f32
    %cst_0 = arith.constant 1.000000e+00 : f32
    %cst_1 = arith.constant 1.000000e-05 : f64
    %0 = affine.load %arg5[symbol(%arg0), symbol(%arg1), symbol(%arg2), symbol(%arg3)] : memref<64x192x7x7xf32>
    %1 = arith.truncf %cst_1 : f64 to f32
    %2 = arith.addf %1, %cst_0 : f32
    %3 = math.rsqrt %2 : f32
    %4 = arith.mulf %0, %3 : f32
    %5 = arith.addf %4, %cst : f32
    affine.store %5, %arg4[symbol(%arg0), symbol(%arg1), symbol(%arg2), symbol(%arg3)] : memref<64x192x7x7xf32>
    return
  }
  func.func private @S152(%arg0: index, %arg1: index, %arg2: index, %arg3: index, %arg4: memref<64x192x7x7xf32>, %arg5: memref<64x192x7x7xf32>, %arg6: memref<64x192x7x7xf32>) attributes {scop.stmt} {
    %0 = affine.load %arg6[symbol(%arg0), symbol(%arg1), symbol(%arg2), symbol(%arg3)] : memref<64x192x7x7xf32>
    %1 = affine.load %arg5[symbol(%arg0), symbol(%arg1), symbol(%arg2), symbol(%arg3)] : memref<64x192x7x7xf32>
    %2 = arith.addf %0, %1 : f32
    affine.store %2, %arg4[symbol(%arg0), symbol(%arg1), symbol(%arg2), symbol(%arg3)] : memref<64x192x7x7xf32>
    return
  }
  func.func private @S153(%arg0: index, %arg1: index, %arg2: index, %arg3: index, %arg4: memref<64x1152x7x7xf32>, %arg5: index, %arg6: index, %arg7: index, %arg8: memref<1152x192x1x1xf32>, %arg9: memref<64x192x7x7xf32>) attributes {scop.stmt} {
    %0 = affine.load %arg4[symbol(%arg0), symbol(%arg1), symbol(%arg2), symbol(%arg3)] : memref<64x1152x7x7xf32>
    %1 = affine.load %arg9[symbol(%arg0), symbol(%arg5), symbol(%arg2) + symbol(%arg6), symbol(%arg3) + symbol(%arg7)] : memref<64x192x7x7xf32>
    %2 = affine.load %arg8[symbol(%arg1), symbol(%arg5), symbol(%arg6), symbol(%arg7)] : memref<1152x192x1x1xf32>
    %3 = arith.mulf %1, %2 : f32
    %4 = arith.addf %0, %3 : f32
    affine.store %4, %arg4[symbol(%arg0), symbol(%arg1), symbol(%arg2), symbol(%arg3)] : memref<64x1152x7x7xf32>
    return
  }
  func.func private @S154(%arg0: index, %arg1: index, %arg2: index, %arg3: index, %arg4: memref<64x1152x7x7xf32>, %arg5: memref<64x1152x7x7xf32>) attributes {scop.stmt} {
    %cst = arith.constant 0.000000e+00 : f32
    %cst_0 = arith.constant 1.000000e+00 : f32
    %cst_1 = arith.constant 1.000000e-05 : f64
    %0 = affine.load %arg5[symbol(%arg0), symbol(%arg1), symbol(%arg2), symbol(%arg3)] : memref<64x1152x7x7xf32>
    %1 = arith.truncf %cst_1 : f64 to f32
    %2 = arith.addf %1, %cst_0 : f32
    %3 = math.rsqrt %2 : f32
    %4 = arith.mulf %0, %3 : f32
    %5 = arith.addf %4, %cst : f32
    affine.store %5, %arg4[symbol(%arg0), symbol(%arg1), symbol(%arg2), symbol(%arg3)] : memref<64x1152x7x7xf32>
    return
  }
  func.func private @S155(%arg0: index, %arg1: index, %arg2: index, %arg3: index, %arg4: memref<64x1152x7x7xf32>, %arg5: memref<64x1152x7x7xf32>) attributes {scop.stmt} {
    %cst = arith.constant 0.000000e+00 : f32
    %0 = affine.load %arg5[symbol(%arg0), symbol(%arg1), symbol(%arg2), symbol(%arg3)] : memref<64x1152x7x7xf32>
    %1 = arith.cmpf ugt, %0, %cst : f32
    %2 = arith.select %1, %0, %cst : f32
    affine.store %2, %arg4[symbol(%arg0), symbol(%arg1), symbol(%arg2), symbol(%arg3)] : memref<64x1152x7x7xf32>
    return
  }
  func.func private @S156(%arg0: index, %arg1: index, %arg2: index, %arg3: index, %arg4: memref<64x1152x11x11xf32>) attributes {scop.stmt} {
    %cst = arith.constant 0.000000e+00 : f32
    affine.store %cst, %arg4[symbol(%arg0), symbol(%arg1), symbol(%arg2), symbol(%arg3)] : memref<64x1152x11x11xf32>
    return
  }
  func.func private @S157(%arg0: index, %arg1: index, %arg2: index, %arg3: index, %arg4: memref<64x1152x7x7xf32>, %arg5: index, %arg6: index, %arg7: memref<1152x5x5xf32>, %arg8: memref<64x1152x11x11xf32>) attributes {scop.stmt} {
    %0 = affine.load %arg4[symbol(%arg0), symbol(%arg1), symbol(%arg2), symbol(%arg3)] : memref<64x1152x7x7xf32>
    %1 = affine.load %arg8[symbol(%arg0), symbol(%arg1), symbol(%arg2) + symbol(%arg5), symbol(%arg3) + symbol(%arg6)] : memref<64x1152x11x11xf32>
    %2 = affine.load %arg7[symbol(%arg1), symbol(%arg5), symbol(%arg6)] : memref<1152x5x5xf32>
    %3 = arith.mulf %1, %2 : f32
    %4 = arith.addf %0, %3 : f32
    affine.store %4, %arg4[symbol(%arg0), symbol(%arg1), symbol(%arg2), symbol(%arg3)] : memref<64x1152x7x7xf32>
    return
  }
  func.func private @S158(%arg0: index, %arg1: index, %arg2: index, %arg3: index, %arg4: memref<64x1152x7x7xf32>, %arg5: memref<64x1152x7x7xf32>) attributes {scop.stmt} {
    %cst = arith.constant 0.000000e+00 : f32
    %cst_0 = arith.constant 1.000000e+00 : f32
    %cst_1 = arith.constant 1.000000e-05 : f64
    %0 = affine.load %arg5[symbol(%arg0), symbol(%arg1), symbol(%arg2), symbol(%arg3)] : memref<64x1152x7x7xf32>
    %1 = arith.truncf %cst_1 : f64 to f32
    %2 = arith.addf %1, %cst_0 : f32
    %3 = math.rsqrt %2 : f32
    %4 = arith.mulf %0, %3 : f32
    %5 = arith.addf %4, %cst : f32
    affine.store %5, %arg4[symbol(%arg0), symbol(%arg1), symbol(%arg2), symbol(%arg3)] : memref<64x1152x7x7xf32>
    return
  }
  func.func private @S159(%arg0: index, %arg1: index, %arg2: index, %arg3: index, %arg4: memref<64x1152x7x7xf32>, %arg5: memref<64x1152x7x7xf32>) attributes {scop.stmt} {
    %cst = arith.constant 0.000000e+00 : f32
    %0 = affine.load %arg5[symbol(%arg0), symbol(%arg1), symbol(%arg2), symbol(%arg3)] : memref<64x1152x7x7xf32>
    %1 = arith.cmpf ugt, %0, %cst : f32
    %2 = arith.select %1, %0, %cst : f32
    affine.store %2, %arg4[symbol(%arg0), symbol(%arg1), symbol(%arg2), symbol(%arg3)] : memref<64x1152x7x7xf32>
    return
  }
  func.func private @S160(%arg0: index, %arg1: index, %arg2: index, %arg3: index, %arg4: memref<64x192x7x7xf32>, %arg5: index, %arg6: index, %arg7: index, %arg8: memref<192x1152x1x1xf32>, %arg9: memref<64x1152x7x7xf32>) attributes {scop.stmt} {
    %0 = affine.load %arg4[symbol(%arg0), symbol(%arg1), symbol(%arg2), symbol(%arg3)] : memref<64x192x7x7xf32>
    %1 = affine.load %arg9[symbol(%arg0), symbol(%arg5), symbol(%arg2) + symbol(%arg6), symbol(%arg3) + symbol(%arg7)] : memref<64x1152x7x7xf32>
    %2 = affine.load %arg8[symbol(%arg1), symbol(%arg5), symbol(%arg6), symbol(%arg7)] : memref<192x1152x1x1xf32>
    %3 = arith.mulf %1, %2 : f32
    %4 = arith.addf %0, %3 : f32
    affine.store %4, %arg4[symbol(%arg0), symbol(%arg1), symbol(%arg2), symbol(%arg3)] : memref<64x192x7x7xf32>
    return
  }
  func.func private @S161(%arg0: index, %arg1: index, %arg2: index, %arg3: index, %arg4: memref<64x192x7x7xf32>, %arg5: memref<64x192x7x7xf32>) attributes {scop.stmt} {
    %cst = arith.constant 0.000000e+00 : f32
    %cst_0 = arith.constant 1.000000e+00 : f32
    %cst_1 = arith.constant 1.000000e-05 : f64
    %0 = affine.load %arg5[symbol(%arg0), symbol(%arg1), symbol(%arg2), symbol(%arg3)] : memref<64x192x7x7xf32>
    %1 = arith.truncf %cst_1 : f64 to f32
    %2 = arith.addf %1, %cst_0 : f32
    %3 = math.rsqrt %2 : f32
    %4 = arith.mulf %0, %3 : f32
    %5 = arith.addf %4, %cst : f32
    affine.store %5, %arg4[symbol(%arg0), symbol(%arg1), symbol(%arg2), symbol(%arg3)] : memref<64x192x7x7xf32>
    return
  }
  func.func private @S162(%arg0: index, %arg1: index, %arg2: index, %arg3: index, %arg4: memref<64x192x7x7xf32>, %arg5: memref<64x192x7x7xf32>, %arg6: memref<64x192x7x7xf32>) attributes {scop.stmt} {
    %0 = affine.load %arg6[symbol(%arg0), symbol(%arg1), symbol(%arg2), symbol(%arg3)] : memref<64x192x7x7xf32>
    %1 = affine.load %arg5[symbol(%arg0), symbol(%arg1), symbol(%arg2), symbol(%arg3)] : memref<64x192x7x7xf32>
    %2 = arith.addf %0, %1 : f32
    affine.store %2, %arg4[symbol(%arg0), symbol(%arg1), symbol(%arg2), symbol(%arg3)] : memref<64x192x7x7xf32>
    return
  }
  func.func private @S163(%arg0: index, %arg1: index, %arg2: index, %arg3: index, %arg4: memref<64x1152x7x7xf32>, %arg5: index, %arg6: index, %arg7: index, %arg8: memref<1152x192x1x1xf32>, %arg9: memref<64x192x7x7xf32>) attributes {scop.stmt} {
    %0 = affine.load %arg4[symbol(%arg0), symbol(%arg1), symbol(%arg2), symbol(%arg3)] : memref<64x1152x7x7xf32>
    %1 = affine.load %arg9[symbol(%arg0), symbol(%arg5), symbol(%arg2) + symbol(%arg6), symbol(%arg3) + symbol(%arg7)] : memref<64x192x7x7xf32>
    %2 = affine.load %arg8[symbol(%arg1), symbol(%arg5), symbol(%arg6), symbol(%arg7)] : memref<1152x192x1x1xf32>
    %3 = arith.mulf %1, %2 : f32
    %4 = arith.addf %0, %3 : f32
    affine.store %4, %arg4[symbol(%arg0), symbol(%arg1), symbol(%arg2), symbol(%arg3)] : memref<64x1152x7x7xf32>
    return
  }
  func.func private @S164(%arg0: index, %arg1: index, %arg2: index, %arg3: index, %arg4: memref<64x1152x7x7xf32>, %arg5: memref<64x1152x7x7xf32>) attributes {scop.stmt} {
    %cst = arith.constant 0.000000e+00 : f32
    %cst_0 = arith.constant 1.000000e+00 : f32
    %cst_1 = arith.constant 1.000000e-05 : f64
    %0 = affine.load %arg5[symbol(%arg0), symbol(%arg1), symbol(%arg2), symbol(%arg3)] : memref<64x1152x7x7xf32>
    %1 = arith.truncf %cst_1 : f64 to f32
    %2 = arith.addf %1, %cst_0 : f32
    %3 = math.rsqrt %2 : f32
    %4 = arith.mulf %0, %3 : f32
    %5 = arith.addf %4, %cst : f32
    affine.store %5, %arg4[symbol(%arg0), symbol(%arg1), symbol(%arg2), symbol(%arg3)] : memref<64x1152x7x7xf32>
    return
  }
  func.func private @S165(%arg0: index, %arg1: index, %arg2: index, %arg3: index, %arg4: memref<64x1152x7x7xf32>, %arg5: memref<64x1152x7x7xf32>) attributes {scop.stmt} {
    %cst = arith.constant 0.000000e+00 : f32
    %0 = affine.load %arg5[symbol(%arg0), symbol(%arg1), symbol(%arg2), symbol(%arg3)] : memref<64x1152x7x7xf32>
    %1 = arith.cmpf ugt, %0, %cst : f32
    %2 = arith.select %1, %0, %cst : f32
    affine.store %2, %arg4[symbol(%arg0), symbol(%arg1), symbol(%arg2), symbol(%arg3)] : memref<64x1152x7x7xf32>
    return
  }
  func.func private @S166(%arg0: index, %arg1: index, %arg2: index, %arg3: index, %arg4: memref<64x1152x11x11xf32>) attributes {scop.stmt} {
    %cst = arith.constant 0.000000e+00 : f32
    affine.store %cst, %arg4[symbol(%arg0), symbol(%arg1), symbol(%arg2), symbol(%arg3)] : memref<64x1152x11x11xf32>
    return
  }
  func.func private @S167(%arg0: index, %arg1: index, %arg2: index, %arg3: index, %arg4: memref<64x1152x7x7xf32>, %arg5: index, %arg6: index, %arg7: memref<1152x5x5xf32>, %arg8: memref<64x1152x11x11xf32>) attributes {scop.stmt} {
    %0 = affine.load %arg4[symbol(%arg0), symbol(%arg1), symbol(%arg2), symbol(%arg3)] : memref<64x1152x7x7xf32>
    %1 = affine.load %arg8[symbol(%arg0), symbol(%arg1), symbol(%arg2) + symbol(%arg5), symbol(%arg3) + symbol(%arg6)] : memref<64x1152x11x11xf32>
    %2 = affine.load %arg7[symbol(%arg1), symbol(%arg5), symbol(%arg6)] : memref<1152x5x5xf32>
    %3 = arith.mulf %1, %2 : f32
    %4 = arith.addf %0, %3 : f32
    affine.store %4, %arg4[symbol(%arg0), symbol(%arg1), symbol(%arg2), symbol(%arg3)] : memref<64x1152x7x7xf32>
    return
  }
  func.func private @S168(%arg0: index, %arg1: index, %arg2: index, %arg3: index, %arg4: memref<64x1152x7x7xf32>, %arg5: memref<64x1152x7x7xf32>) attributes {scop.stmt} {
    %cst = arith.constant 0.000000e+00 : f32
    %cst_0 = arith.constant 1.000000e+00 : f32
    %cst_1 = arith.constant 1.000000e-05 : f64
    %0 = affine.load %arg5[symbol(%arg0), symbol(%arg1), symbol(%arg2), symbol(%arg3)] : memref<64x1152x7x7xf32>
    %1 = arith.truncf %cst_1 : f64 to f32
    %2 = arith.addf %1, %cst_0 : f32
    %3 = math.rsqrt %2 : f32
    %4 = arith.mulf %0, %3 : f32
    %5 = arith.addf %4, %cst : f32
    affine.store %5, %arg4[symbol(%arg0), symbol(%arg1), symbol(%arg2), symbol(%arg3)] : memref<64x1152x7x7xf32>
    return
  }
  func.func private @S169(%arg0: index, %arg1: index, %arg2: index, %arg3: index, %arg4: memref<64x1152x7x7xf32>, %arg5: memref<64x1152x7x7xf32>) attributes {scop.stmt} {
    %cst = arith.constant 0.000000e+00 : f32
    %0 = affine.load %arg5[symbol(%arg0), symbol(%arg1), symbol(%arg2), symbol(%arg3)] : memref<64x1152x7x7xf32>
    %1 = arith.cmpf ugt, %0, %cst : f32
    %2 = arith.select %1, %0, %cst : f32
    affine.store %2, %arg4[symbol(%arg0), symbol(%arg1), symbol(%arg2), symbol(%arg3)] : memref<64x1152x7x7xf32>
    return
  }
  func.func private @S170(%arg0: index, %arg1: index, %arg2: index, %arg3: index, %arg4: memref<64x192x7x7xf32>, %arg5: index, %arg6: index, %arg7: index, %arg8: memref<192x1152x1x1xf32>, %arg9: memref<64x1152x7x7xf32>) attributes {scop.stmt} {
    %0 = affine.load %arg4[symbol(%arg0), symbol(%arg1), symbol(%arg2), symbol(%arg3)] : memref<64x192x7x7xf32>
    %1 = affine.load %arg9[symbol(%arg0), symbol(%arg5), symbol(%arg2) + symbol(%arg6), symbol(%arg3) + symbol(%arg7)] : memref<64x1152x7x7xf32>
    %2 = affine.load %arg8[symbol(%arg1), symbol(%arg5), symbol(%arg6), symbol(%arg7)] : memref<192x1152x1x1xf32>
    %3 = arith.mulf %1, %2 : f32
    %4 = arith.addf %0, %3 : f32
    affine.store %4, %arg4[symbol(%arg0), symbol(%arg1), symbol(%arg2), symbol(%arg3)] : memref<64x192x7x7xf32>
    return
  }
  func.func private @S171(%arg0: index, %arg1: index, %arg2: index, %arg3: index, %arg4: memref<64x192x7x7xf32>, %arg5: memref<64x192x7x7xf32>) attributes {scop.stmt} {
    %cst = arith.constant 0.000000e+00 : f32
    %cst_0 = arith.constant 1.000000e+00 : f32
    %cst_1 = arith.constant 1.000000e-05 : f64
    %0 = affine.load %arg5[symbol(%arg0), symbol(%arg1), symbol(%arg2), symbol(%arg3)] : memref<64x192x7x7xf32>
    %1 = arith.truncf %cst_1 : f64 to f32
    %2 = arith.addf %1, %cst_0 : f32
    %3 = math.rsqrt %2 : f32
    %4 = arith.mulf %0, %3 : f32
    %5 = arith.addf %4, %cst : f32
    affine.store %5, %arg4[symbol(%arg0), symbol(%arg1), symbol(%arg2), symbol(%arg3)] : memref<64x192x7x7xf32>
    return
  }
  func.func private @S172(%arg0: index, %arg1: index, %arg2: index, %arg3: index, %arg4: memref<64x192x7x7xf32>, %arg5: memref<64x192x7x7xf32>, %arg6: memref<64x192x7x7xf32>) attributes {scop.stmt} {
    %0 = affine.load %arg6[symbol(%arg0), symbol(%arg1), symbol(%arg2), symbol(%arg3)] : memref<64x192x7x7xf32>
    %1 = affine.load %arg5[symbol(%arg0), symbol(%arg1), symbol(%arg2), symbol(%arg3)] : memref<64x192x7x7xf32>
    %2 = arith.addf %0, %1 : f32
    affine.store %2, %arg4[symbol(%arg0), symbol(%arg1), symbol(%arg2), symbol(%arg3)] : memref<64x192x7x7xf32>
    return
  }
  func.func private @S173(%arg0: index, %arg1: index, %arg2: index, %arg3: index, %arg4: memref<64x1152x7x7xf32>, %arg5: index, %arg6: index, %arg7: index, %arg8: memref<1152x192x1x1xf32>, %arg9: memref<64x192x7x7xf32>) attributes {scop.stmt} {
    %0 = affine.load %arg4[symbol(%arg0), symbol(%arg1), symbol(%arg2), symbol(%arg3)] : memref<64x1152x7x7xf32>
    %1 = affine.load %arg9[symbol(%arg0), symbol(%arg5), symbol(%arg2) + symbol(%arg6), symbol(%arg3) + symbol(%arg7)] : memref<64x192x7x7xf32>
    %2 = affine.load %arg8[symbol(%arg1), symbol(%arg5), symbol(%arg6), symbol(%arg7)] : memref<1152x192x1x1xf32>
    %3 = arith.mulf %1, %2 : f32
    %4 = arith.addf %0, %3 : f32
    affine.store %4, %arg4[symbol(%arg0), symbol(%arg1), symbol(%arg2), symbol(%arg3)] : memref<64x1152x7x7xf32>
    return
  }
  func.func private @S174(%arg0: index, %arg1: index, %arg2: index, %arg3: index, %arg4: memref<64x1152x7x7xf32>, %arg5: memref<64x1152x7x7xf32>) attributes {scop.stmt} {
    %cst = arith.constant 0.000000e+00 : f32
    %cst_0 = arith.constant 1.000000e+00 : f32
    %cst_1 = arith.constant 1.000000e-05 : f64
    %0 = affine.load %arg5[symbol(%arg0), symbol(%arg1), symbol(%arg2), symbol(%arg3)] : memref<64x1152x7x7xf32>
    %1 = arith.truncf %cst_1 : f64 to f32
    %2 = arith.addf %1, %cst_0 : f32
    %3 = math.rsqrt %2 : f32
    %4 = arith.mulf %0, %3 : f32
    %5 = arith.addf %4, %cst : f32
    affine.store %5, %arg4[symbol(%arg0), symbol(%arg1), symbol(%arg2), symbol(%arg3)] : memref<64x1152x7x7xf32>
    return
  }
  func.func private @S175(%arg0: index, %arg1: index, %arg2: index, %arg3: index, %arg4: memref<64x1152x7x7xf32>, %arg5: memref<64x1152x7x7xf32>) attributes {scop.stmt} {
    %cst = arith.constant 0.000000e+00 : f32
    %0 = affine.load %arg5[symbol(%arg0), symbol(%arg1), symbol(%arg2), symbol(%arg3)] : memref<64x1152x7x7xf32>
    %1 = arith.cmpf ugt, %0, %cst : f32
    %2 = arith.select %1, %0, %cst : f32
    affine.store %2, %arg4[symbol(%arg0), symbol(%arg1), symbol(%arg2), symbol(%arg3)] : memref<64x1152x7x7xf32>
    return
  }
  func.func private @S176(%arg0: index, %arg1: index, %arg2: index, %arg3: index, %arg4: memref<64x1152x9x9xf32>) attributes {scop.stmt} {
    %cst = arith.constant 0.000000e+00 : f32
    affine.store %cst, %arg4[symbol(%arg0), symbol(%arg1), symbol(%arg2), symbol(%arg3)] : memref<64x1152x9x9xf32>
    return
  }
  func.func private @S177(%arg0: index, %arg1: index, %arg2: index, %arg3: index, %arg4: memref<64x1152x7x7xf32>, %arg5: index, %arg6: index, %arg7: memref<1152x3x3xf32>, %arg8: memref<64x1152x9x9xf32>) attributes {scop.stmt} {
    %0 = affine.load %arg4[symbol(%arg0), symbol(%arg1), symbol(%arg2), symbol(%arg3)] : memref<64x1152x7x7xf32>
    %1 = affine.load %arg8[symbol(%arg0), symbol(%arg1), symbol(%arg2) + symbol(%arg5), symbol(%arg3) + symbol(%arg6)] : memref<64x1152x9x9xf32>
    %2 = affine.load %arg7[symbol(%arg1), symbol(%arg5), symbol(%arg6)] : memref<1152x3x3xf32>
    %3 = arith.mulf %1, %2 : f32
    %4 = arith.addf %0, %3 : f32
    affine.store %4, %arg4[symbol(%arg0), symbol(%arg1), symbol(%arg2), symbol(%arg3)] : memref<64x1152x7x7xf32>
    return
  }
  func.func private @S178(%arg0: index, %arg1: index, %arg2: index, %arg3: index, %arg4: memref<64x1152x7x7xf32>, %arg5: memref<64x1152x7x7xf32>) attributes {scop.stmt} {
    %cst = arith.constant 0.000000e+00 : f32
    %cst_0 = arith.constant 1.000000e+00 : f32
    %cst_1 = arith.constant 1.000000e-05 : f64
    %0 = affine.load %arg5[symbol(%arg0), symbol(%arg1), symbol(%arg2), symbol(%arg3)] : memref<64x1152x7x7xf32>
    %1 = arith.truncf %cst_1 : f64 to f32
    %2 = arith.addf %1, %cst_0 : f32
    %3 = math.rsqrt %2 : f32
    %4 = arith.mulf %0, %3 : f32
    %5 = arith.addf %4, %cst : f32
    affine.store %5, %arg4[symbol(%arg0), symbol(%arg1), symbol(%arg2), symbol(%arg3)] : memref<64x1152x7x7xf32>
    return
  }
  func.func private @S179(%arg0: index, %arg1: index, %arg2: index, %arg3: index, %arg4: memref<64x1152x7x7xf32>, %arg5: memref<64x1152x7x7xf32>) attributes {scop.stmt} {
    %cst = arith.constant 0.000000e+00 : f32
    %0 = affine.load %arg5[symbol(%arg0), symbol(%arg1), symbol(%arg2), symbol(%arg3)] : memref<64x1152x7x7xf32>
    %1 = arith.cmpf ugt, %0, %cst : f32
    %2 = arith.select %1, %0, %cst : f32
    affine.store %2, %arg4[symbol(%arg0), symbol(%arg1), symbol(%arg2), symbol(%arg3)] : memref<64x1152x7x7xf32>
    return
  }
  func.func private @S180(%arg0: index, %arg1: index, %arg2: index, %arg3: index, %arg4: memref<64x320x7x7xf32>) attributes {scop.stmt} {
    %cst = arith.constant 0.000000e+00 : f32
    affine.store %cst, %arg4[symbol(%arg0), symbol(%arg1), symbol(%arg2), symbol(%arg3)] : memref<64x320x7x7xf32>
    return
  }
  func.func private @S181(%arg0: index, %arg1: index, %arg2: index, %arg3: index, %arg4: memref<64x320x7x7xf32>, %arg5: index, %arg6: index, %arg7: index, %arg8: memref<320x1152x1x1xf32>, %arg9: memref<64x1152x7x7xf32>) attributes {scop.stmt} {
    %0 = affine.load %arg4[symbol(%arg0), symbol(%arg1), symbol(%arg2), symbol(%arg3)] : memref<64x320x7x7xf32>
    %1 = affine.load %arg9[symbol(%arg0), symbol(%arg5), symbol(%arg2) + symbol(%arg6), symbol(%arg3) + symbol(%arg7)] : memref<64x1152x7x7xf32>
    %2 = affine.load %arg8[symbol(%arg1), symbol(%arg5), symbol(%arg6), symbol(%arg7)] : memref<320x1152x1x1xf32>
    %3 = arith.mulf %1, %2 : f32
    %4 = arith.addf %0, %3 : f32
    affine.store %4, %arg4[symbol(%arg0), symbol(%arg1), symbol(%arg2), symbol(%arg3)] : memref<64x320x7x7xf32>
    return
  }
  func.func private @S182(%arg0: index, %arg1: index, %arg2: index, %arg3: index, %arg4: memref<64x320x7x7xf32>, %arg5: memref<64x320x7x7xf32>) attributes {scop.stmt} {
    %cst = arith.constant 0.000000e+00 : f32
    %cst_0 = arith.constant 1.000000e+00 : f32
    %cst_1 = arith.constant 1.000000e-05 : f64
    %0 = affine.load %arg5[symbol(%arg0), symbol(%arg1), symbol(%arg2), symbol(%arg3)] : memref<64x320x7x7xf32>
    %1 = arith.truncf %cst_1 : f64 to f32
    %2 = arith.addf %1, %cst_0 : f32
    %3 = math.rsqrt %2 : f32
    %4 = arith.mulf %0, %3 : f32
    %5 = arith.addf %4, %cst : f32
    affine.store %5, %arg4[symbol(%arg0), symbol(%arg1), symbol(%arg2), symbol(%arg3)] : memref<64x320x7x7xf32>
    return
  }
  func.func private @S183(%arg0: index, %arg1: index, %arg2: index, %arg3: index, %arg4: memref<64x1280x7x7xf32>) attributes {scop.stmt} {
    %cst = arith.constant 0.000000e+00 : f32
    affine.store %cst, %arg4[symbol(%arg0), symbol(%arg1), symbol(%arg2), symbol(%arg3)] : memref<64x1280x7x7xf32>
    return
  }
  func.func private @S184(%arg0: index, %arg1: index, %arg2: index, %arg3: index, %arg4: memref<64x1280x7x7xf32>, %arg5: index, %arg6: index, %arg7: index, %arg8: memref<1280x320x1x1xf32>, %arg9: memref<64x320x7x7xf32>) attributes {scop.stmt} {
    %0 = affine.load %arg4[symbol(%arg0), symbol(%arg1), symbol(%arg2), symbol(%arg3)] : memref<64x1280x7x7xf32>
    %1 = affine.load %arg9[symbol(%arg0), symbol(%arg5), symbol(%arg2) + symbol(%arg6), symbol(%arg3) + symbol(%arg7)] : memref<64x320x7x7xf32>
    %2 = affine.load %arg8[symbol(%arg1), symbol(%arg5), symbol(%arg6), symbol(%arg7)] : memref<1280x320x1x1xf32>
    %3 = arith.mulf %1, %2 : f32
    %4 = arith.addf %0, %3 : f32
    affine.store %4, %arg4[symbol(%arg0), symbol(%arg1), symbol(%arg2), symbol(%arg3)] : memref<64x1280x7x7xf32>
    return
  }
  func.func private @S185(%arg0: index, %arg1: index, %arg2: index, %arg3: index, %arg4: memref<64x1280x7x7xf32>, %arg5: memref<64x1280x7x7xf32>) attributes {scop.stmt} {
    %cst = arith.constant 0.000000e+00 : f32
    %cst_0 = arith.constant 1.000000e+00 : f32
    %cst_1 = arith.constant 1.000000e-05 : f64
    %0 = affine.load %arg5[symbol(%arg0), symbol(%arg1), symbol(%arg2), symbol(%arg3)] : memref<64x1280x7x7xf32>
    %1 = arith.truncf %cst_1 : f64 to f32
    %2 = arith.addf %1, %cst_0 : f32
    %3 = math.rsqrt %2 : f32
    %4 = arith.mulf %0, %3 : f32
    %5 = arith.addf %4, %cst : f32
    affine.store %5, %arg4[symbol(%arg0), symbol(%arg1), symbol(%arg2), symbol(%arg3)] : memref<64x1280x7x7xf32>
    return
  }
  func.func private @S186(%arg0: index, %arg1: index, %arg2: index, %arg3: index, %arg4: memref<64x1280x7x7xf32>, %arg5: memref<64x1280x7x7xf32>) attributes {scop.stmt} {
    %cst = arith.constant 0.000000e+00 : f32
    %0 = affine.load %arg5[symbol(%arg0), symbol(%arg1), symbol(%arg2), symbol(%arg3)] : memref<64x1280x7x7xf32>
    %1 = arith.cmpf ugt, %0, %cst : f32
    %2 = arith.select %1, %0, %cst : f32
    affine.store %2, %arg4[symbol(%arg0), symbol(%arg1), symbol(%arg2), symbol(%arg3)] : memref<64x1280x7x7xf32>
    return
  }
  func.func private @S187(%arg0: index, %arg1: index, %arg2: memref<64x1280xf32>) attributes {scop.stmt} {
    %cst = arith.constant 0.000000e+00 : f32
    affine.store %cst, %arg2[symbol(%arg0), symbol(%arg1)] : memref<64x1280xf32>
    return
  }
  func.func private @S188(%arg0: index, %arg1: index, %arg2: memref<64x1280xf32>, %arg3: index, %arg4: index, %arg5: memref<64x1280x7x7xf32>) attributes {scop.stmt} {
    %0 = affine.load %arg5[symbol(%arg0), symbol(%arg1), symbol(%arg3), symbol(%arg4)] : memref<64x1280x7x7xf32>
    %1 = affine.load %arg2[symbol(%arg0), symbol(%arg1)] : memref<64x1280xf32>
    %2 = arith.addf %0, %1 : f32
    affine.store %2, %arg2[symbol(%arg0), symbol(%arg1)] : memref<64x1280xf32>
    return
  }
  func.func private @S189(%arg0: index, %arg1: index, %arg2: memref<64x1280xf32>, %arg3: memref<64x1280xf32>) attributes {scop.stmt} {
    %cst = arith.constant 4.900000e+01 : f32
    %0 = affine.load %arg3[symbol(%arg0), symbol(%arg1)] : memref<64x1280xf32>
    %1 = arith.divf %0, %cst : f32
    affine.store %1, %arg2[symbol(%arg0), symbol(%arg1)] : memref<64x1280xf32>
    return
  }
  func.func private @S190(%arg0: index, %arg1: index, %arg2: memref<1280x1000xf32>, %arg3: memref<1000x1280xf32>) attributes {scop.stmt} {
    %0 = affine.load %arg3[symbol(%arg1), symbol(%arg0)] : memref<1000x1280xf32>
    affine.store %0, %arg2[symbol(%arg0), symbol(%arg1)] : memref<1280x1000xf32>
    return
  }
  func.func private @S191(%arg0: index, %arg1: index, %arg2: memref<64x1000xf32>) attributes {scop.stmt} {
    %cst = arith.constant 0.000000e+00 : f32
    affine.store %cst, %arg2[symbol(%arg0), symbol(%arg1)] : memref<64x1000xf32>
    return
  }
  func.func private @S192(%arg0: index, %arg1: index, %arg2: memref<64x1000xf32>, %arg3: index, %arg4: memref<1280x1000xf32>, %arg5: memref<64x1280xf32>) attributes {scop.stmt} {
    %0 = affine.load %arg2[symbol(%arg0), symbol(%arg1)] : memref<64x1000xf32>
    %1 = affine.load %arg5[symbol(%arg0), symbol(%arg3)] : memref<64x1280xf32>
    %2 = affine.load %arg4[symbol(%arg3), symbol(%arg1)] : memref<1280x1000xf32>
    %3 = arith.mulf %1, %2 : f32
    %4 = arith.addf %0, %3 : f32
    affine.store %4, %arg2[symbol(%arg0), symbol(%arg1)] : memref<64x1000xf32>
    return
  }
  func.func private @S193(%arg0: index, %arg1: index, %arg2: memref<64x1000xf32>, %arg3: memref<64x1000xf32>) attributes {scop.stmt} {
    %cst = arith.constant 0.000000e+00 : f32
    %0 = affine.load %arg3[symbol(%arg0), symbol(%arg1)] : memref<64x1000xf32>
    %1 = arith.addf %0, %cst : f32
    affine.store %1, %arg2[symbol(%arg0), symbol(%arg1)] : memref<64x1000xf32>
    return
  }
  func.func @forward(%arg0: memref<64x3x224x224xf32>) -> memref<64x1000xf32> attributes {L1 = 13585476664 : i64, L2 = 284096834 : i64, L3 = 97606924 : i64, bytes = 5.26531481E+12 : f32, compulsory = 0x4C98D4ED : f32, flops = 40267911168 : i64} {
    %c800000_i64 = arith.constant 800000 : i64
    %c899999_i64 = arith.constant 899999 : i64
    %c799999_i64 = arith.constant 799999 : i64
    %c4600000_i64 = arith.constant 4600000 : i64
    %c5000000_i64 = arith.constant 5000000 : i64
    %alloc = memref.alloc() {alignment = 64 : i64} : memref<32x3x3xf32>
    %alloc_0 = memref.alloc() {alignment = 64 : i64} : memref<48x3x3xf32>
    %alloc_1 = memref.alloc() {alignment = 64 : i64} : memref<72x3x3xf32>
    %alloc_2 = memref.alloc() {alignment = 64 : i64} : memref<72x3x3xf32>
    %alloc_3 = memref.alloc() {alignment = 64 : i64} : memref<72x5x5xf32>
    %alloc_4 = memref.alloc() {alignment = 64 : i64} : memref<120x5x5xf32>
    %alloc_5 = memref.alloc() {alignment = 64 : i64} : memref<120x5x5xf32>
    %alloc_6 = memref.alloc() {alignment = 64 : i64} : memref<240x5x5xf32>
    %alloc_7 = memref.alloc() {alignment = 64 : i64} : memref<480x5x5xf32>
    %alloc_8 = memref.alloc() {alignment = 64 : i64} : memref<480x5x5xf32>
    %alloc_9 = memref.alloc() {alignment = 64 : i64} : memref<480x3x3xf32>
    %alloc_10 = memref.alloc() {alignment = 64 : i64} : memref<576x3x3xf32>
    %alloc_11 = memref.alloc() {alignment = 64 : i64} : memref<576x5x5xf32>
    %alloc_12 = memref.alloc() {alignment = 64 : i64} : memref<1152x5x5xf32>
    %alloc_13 = memref.alloc() {alignment = 64 : i64} : memref<1152x5x5xf32>
    %alloc_14 = memref.alloc() {alignment = 64 : i64} : memref<1152x5x5xf32>
    %alloc_15 = memref.alloc() {alignment = 64 : i64} : memref<1152x3x3xf32>
    %alloc_16 = memref.alloc() {alignment = 64 : i64} : memref<1000x1280xf32>
    %alloc_17 = memref.alloc() {alignment = 64 : i64} : memref<1280x320x1x1xf32>
    %alloc_18 = memref.alloc() {alignment = 64 : i64} : memref<320x1152x1x1xf32>
    %alloc_19 = memref.alloc() {alignment = 64 : i64} : memref<1152x192x1x1xf32>
    %alloc_20 = memref.alloc() {alignment = 64 : i64} : memref<192x1152x1x1xf32>
    %alloc_21 = memref.alloc() {alignment = 64 : i64} : memref<1152x192x1x1xf32>
    %alloc_22 = memref.alloc() {alignment = 64 : i64} : memref<192x1152x1x1xf32>
    %alloc_23 = memref.alloc() {alignment = 64 : i64} : memref<1152x192x1x1xf32>
    %alloc_24 = memref.alloc() {alignment = 64 : i64} : memref<192x1152x1x1xf32>
    %alloc_25 = memref.alloc() {alignment = 64 : i64} : memref<1152x192x1x1xf32>
    %alloc_26 = memref.alloc() {alignment = 64 : i64} : memref<192x576x1x1xf32>
    %alloc_27 = memref.alloc() {alignment = 64 : i64} : memref<576x96x1x1xf32>
    %alloc_28 = memref.alloc() {alignment = 64 : i64} : memref<96x576x1x1xf32>
    %alloc_29 = memref.alloc() {alignment = 64 : i64} : memref<576x96x1x1xf32>
    %alloc_30 = memref.alloc() {alignment = 64 : i64} : memref<96x480x1x1xf32>
    %alloc_31 = memref.alloc() {alignment = 64 : i64} : memref<480x80x1x1xf32>
    %alloc_32 = memref.alloc() {alignment = 64 : i64} : memref<80x480x1x1xf32>
    %alloc_33 = memref.alloc() {alignment = 64 : i64} : memref<480x80x1x1xf32>
    %alloc_34 = memref.alloc() {alignment = 64 : i64} : memref<80x480x1x1xf32>
    %alloc_35 = memref.alloc() {alignment = 64 : i64} : memref<480x80x1x1xf32>
    %alloc_36 = memref.alloc() {alignment = 64 : i64} : memref<80x240x1x1xf32>
    %alloc_37 = memref.alloc() {alignment = 64 : i64} : memref<240x40x1x1xf32>
    %alloc_38 = memref.alloc() {alignment = 64 : i64} : memref<40x120x1x1xf32>
    %alloc_39 = memref.alloc() {alignment = 64 : i64} : memref<120x40x1x1xf32>
    %alloc_40 = memref.alloc() {alignment = 64 : i64} : memref<40x120x1x1xf32>
    %alloc_41 = memref.alloc() {alignment = 64 : i64} : memref<120x40x1x1xf32>
    %alloc_42 = memref.alloc() {alignment = 64 : i64} : memref<40x72x1x1xf32>
    %alloc_43 = memref.alloc() {alignment = 64 : i64} : memref<72x24x1x1xf32>
    %alloc_44 = memref.alloc() {alignment = 64 : i64} : memref<24x72x1x1xf32>
    %alloc_45 = memref.alloc() {alignment = 64 : i64} : memref<72x24x1x1xf32>
    %alloc_46 = memref.alloc() {alignment = 64 : i64} : memref<24x72x1x1xf32>
    %alloc_47 = memref.alloc() {alignment = 64 : i64} : memref<72x24x1x1xf32>
    %alloc_48 = memref.alloc() {alignment = 64 : i64} : memref<24x48x1x1xf32>
    %alloc_49 = memref.alloc() {alignment = 64 : i64} : memref<48x16x1x1xf32>
    %alloc_50 = memref.alloc() {alignment = 64 : i64} : memref<16x32x1x1xf32>
    %alloc_51 = memref.alloc() {alignment = 64 : i64} : memref<32x3x3x3xf32>
    %alloc_52 = memref.alloc() {alignment = 64 : i64} : memref<64x3x226x226xf32>
    call @set_frequency_caps(%c5000000_i64, %c4600000_i64) : (i64, i64) -> ()
    affine.for %arg1 = 0 to 64 {
      affine.for %arg2 = 0 to 3 {
        affine.for %arg3 = 0 to 226 {
          affine.for %arg4 = 0 to 226 {
            func.call @S0(%arg1, %arg2, %arg3, %arg4, %alloc_52) : (index, index, index, index, memref<64x3x226x226xf32>) -> ()
          }
        }
      }
    }
    %subview = memref.subview %alloc_52[0, 0, 1, 1] [64, 3, 224, 224] [1, 1, 1, 1] : memref<64x3x226x226xf32> to memref<64x3x224x224xf32, strided<[153228, 51076, 226, 1], offset: 227>>
    memref.copy %arg0, %subview : memref<64x3x224x224xf32> to memref<64x3x224x224xf32, strided<[153228, 51076, 226, 1], offset: 227>>
    %alloc_53 = memref.alloc() {alignment = 64 : i64} : memref<64x32x112x112xf32>
    %alloc_54 = memref.alloc() {alignment = 64 : i64} : memref<64x32x112x112xf32>
    call @set_frequency_caps(%c5000000_i64, %c4600000_i64) : (i64, i64) -> ()
    affine.for %arg1 = 0 to 64 {
      affine.for %arg2 = 0 to 32 {
        affine.for %arg3 = 0 to 112 {
          affine.for %arg4 = 0 to 112 {
            func.call @S1(%arg1, %arg2, %arg3, %arg4, %alloc_54) : (index, index, index, index, memref<64x32x112x112xf32>) -> ()
          }
        }
      }
    }
    %alloc_55 = memref.alloc() {alignment = 64 : i64} : memref<64x32x112x112xf32>
    memref.copy %alloc_54, %alloc_55 : memref<64x32x112x112xf32> to memref<64x32x112x112xf32>
    call @set_frequency_caps(%c5000000_i64, %c799999_i64) : (i64, i64) -> ()
    affine.for %arg1 = 0 to 64 {
      affine.for %arg2 = 0 to 32 {
        affine.for %arg3 = 0 to 112 {
          affine.for %arg4 = 0 to 112 {
            affine.for %arg5 = 0 to 3 {
              affine.for %arg6 = 0 to 3 {
                affine.for %arg7 = 0 to 3 {
                  func.call @S2(%arg1, %arg2, %arg3, %arg4, %alloc_55, %arg5, %arg6, %arg7, %alloc_51, %alloc_52) : (index, index, index, index, memref<64x32x112x112xf32>, index, index, index, memref<32x3x3x3xf32>, memref<64x3x226x226xf32>) -> ()
                }
              }
            }
          }
        }
      }
    }
    %alloc_56 = memref.alloc() {alignment = 64 : i64} : memref<64x32x112x112xf32>
    call @set_frequency_caps(%c5000000_i64, %c4600000_i64) : (i64, i64) -> ()
    affine.for %arg1 = 0 to 64 {
      affine.for %arg2 = 0 to 32 {
        affine.for %arg3 = 0 to 112 {
          affine.for %arg4 = 0 to 112 {
            func.call @S3(%arg1, %arg2, %arg3, %arg4, %alloc_56, %alloc_55) : (index, index, index, index, memref<64x32x112x112xf32>, memref<64x32x112x112xf32>) -> ()
          }
        }
      }
    }
    call @set_frequency_caps(%c5000000_i64, %c4600000_i64) : (i64, i64) -> ()
    affine.for %arg1 = 0 to 64 {
      affine.for %arg2 = 0 to 32 {
        affine.for %arg3 = 0 to 112 {
          affine.for %arg4 = 0 to 112 {
            func.call @S4(%arg1, %arg2, %arg3, %arg4, %alloc_53, %alloc_56) : (index, index, index, index, memref<64x32x112x112xf32>, memref<64x32x112x112xf32>) -> ()
          }
        }
      }
    }
    %alloc_57 = memref.alloc() {alignment = 64 : i64} : memref<64x32x114x114xf32>
    call @set_frequency_caps(%c5000000_i64, %c4600000_i64) : (i64, i64) -> ()
    affine.for %arg1 = 0 to 64 {
      affine.for %arg2 = 0 to 32 {
        affine.for %arg3 = 0 to 114 {
          affine.for %arg4 = 0 to 114 {
            func.call @S5(%arg1, %arg2, %arg3, %arg4, %alloc_57) : (index, index, index, index, memref<64x32x114x114xf32>) -> ()
          }
        }
      }
    }
    %subview_58 = memref.subview %alloc_57[0, 0, 1, 1] [64, 32, 112, 112] [1, 1, 1, 1] : memref<64x32x114x114xf32> to memref<64x32x112x112xf32, strided<[415872, 12996, 114, 1], offset: 115>>
    memref.copy %alloc_53, %subview_58 : memref<64x32x112x112xf32> to memref<64x32x112x112xf32, strided<[415872, 12996, 114, 1], offset: 115>>
    call @set_frequency_caps(%c5000000_i64, %c799999_i64) : (i64, i64) -> ()
    affine.for %arg1 = 0 to 64 {
      affine.for %arg2 = 0 to 112 {
        affine.for %arg3 = 0 to 112 {
          affine.for %arg4 = 0 to 32 {
            affine.for %arg5 = 0 to 3 {
              affine.for %arg6 = 0 to 3 {
                func.call @S6(%arg1, %arg4, %arg2, %arg3, %alloc_54, %arg5, %arg6, %alloc, %alloc_57) : (index, index, index, index, memref<64x32x112x112xf32>, index, index, memref<32x3x3xf32>, memref<64x32x114x114xf32>) -> ()
              }
            }
          }
        }
      }
    }
    %alloc_59 = memref.alloc() {alignment = 64 : i64} : memref<64x32x112x112xf32>
    call @set_frequency_caps(%c5000000_i64, %c4600000_i64) : (i64, i64) -> ()
    affine.for %arg1 = 0 to 64 {
      affine.for %arg2 = 0 to 32 {
        affine.for %arg3 = 0 to 112 {
          affine.for %arg4 = 0 to 112 {
            func.call @S7(%arg1, %arg2, %arg3, %arg4, %alloc_59, %alloc_54) : (index, index, index, index, memref<64x32x112x112xf32>, memref<64x32x112x112xf32>) -> ()
          }
        }
      }
    }
    call @set_frequency_caps(%c5000000_i64, %c4600000_i64) : (i64, i64) -> ()
    affine.for %arg1 = 0 to 64 {
      affine.for %arg2 = 0 to 32 {
        affine.for %arg3 = 0 to 112 {
          affine.for %arg4 = 0 to 112 {
            func.call @S8(%arg1, %arg2, %arg3, %arg4, %alloc_53, %alloc_59) : (index, index, index, index, memref<64x32x112x112xf32>, memref<64x32x112x112xf32>) -> ()
          }
        }
      }
    }
    %alloc_60 = memref.alloc() {alignment = 64 : i64} : memref<64x16x112x112xf32>
    call @set_frequency_caps(%c5000000_i64, %c4600000_i64) : (i64, i64) -> ()
    affine.for %arg1 = 0 to 64 {
      affine.for %arg2 = 0 to 16 {
        affine.for %arg3 = 0 to 112 {
          affine.for %arg4 = 0 to 112 {
            func.call @S9(%arg1, %arg2, %arg3, %arg4, %alloc_60) : (index, index, index, index, memref<64x16x112x112xf32>) -> ()
          }
        }
      }
    }
    call @set_frequency_caps(%c5000000_i64, %c799999_i64) : (i64, i64) -> ()
    affine.for %arg1 = 0 to 64 {
      affine.for %arg2 = 0 to 16 {
        affine.for %arg3 = 0 to 112 {
          affine.for %arg4 = 0 to 112 {
            affine.for %arg5 = 0 to 32 {
              affine.for %arg6 = 0 to 1 {
                affine.for %arg7 = 0 to 1 {
                  func.call @S10(%arg1, %arg2, %arg3, %arg4, %alloc_60, %arg5, %arg6, %arg7, %alloc_50, %alloc_53) : (index, index, index, index, memref<64x16x112x112xf32>, index, index, index, memref<16x32x1x1xf32>, memref<64x32x112x112xf32>) -> ()
                }
              }
            }
          }
        }
      }
    }
    %alloc_61 = memref.alloc() {alignment = 64 : i64} : memref<64x16x112x112xf32>
    call @set_frequency_caps(%c5000000_i64, %c4600000_i64) : (i64, i64) -> ()
    affine.for %arg1 = 0 to 64 {
      affine.for %arg2 = 0 to 16 {
        affine.for %arg3 = 0 to 112 {
          affine.for %arg4 = 0 to 112 {
            func.call @S11(%arg1, %arg2, %arg3, %arg4, %alloc_61, %alloc_60) : (index, index, index, index, memref<64x16x112x112xf32>, memref<64x16x112x112xf32>) -> ()
          }
        }
      }
    }
    %alloc_62 = memref.alloc() {alignment = 64 : i64} : memref<64x48x112x112xf32>
    call @set_frequency_caps(%c5000000_i64, %c4600000_i64) : (i64, i64) -> ()
    affine.for %arg1 = 0 to 64 {
      affine.for %arg2 = 0 to 48 {
        affine.for %arg3 = 0 to 112 {
          affine.for %arg4 = 0 to 112 {
            func.call @S12(%arg1, %arg2, %arg3, %arg4, %alloc_62) : (index, index, index, index, memref<64x48x112x112xf32>) -> ()
          }
        }
      }
    }
    call @set_frequency_caps(%c899999_i64, %c799999_i64) : (i64, i64) -> ()
    affine.for %arg1 = 0 to 64 {
      affine.for %arg2 = 0 to 48 {
        affine.for %arg3 = 0 to 112 {
          affine.for %arg4 = 0 to 112 {
            affine.for %arg5 = 0 to 16 {
              affine.for %arg6 = 0 to 1 {
                affine.for %arg7 = 0 to 1 {
                  func.call @S13(%arg1, %arg2, %arg3, %arg4, %alloc_62, %arg5, %arg6, %arg7, %alloc_49, %alloc_61) : (index, index, index, index, memref<64x48x112x112xf32>, index, index, index, memref<48x16x1x1xf32>, memref<64x16x112x112xf32>) -> ()
                }
              }
            }
          }
        }
      }
    }
    %alloc_63 = memref.alloc() {alignment = 64 : i64} : memref<64x48x112x112xf32>
    call @set_frequency_caps(%c5000000_i64, %c4600000_i64) : (i64, i64) -> ()
    affine.for %arg1 = 0 to 64 {
      affine.for %arg2 = 0 to 48 {
        affine.for %arg3 = 0 to 112 {
          affine.for %arg4 = 0 to 112 {
            func.call @S14(%arg1, %arg2, %arg3, %arg4, %alloc_63, %alloc_62) : (index, index, index, index, memref<64x48x112x112xf32>, memref<64x48x112x112xf32>) -> ()
          }
        }
      }
    }
    call @set_frequency_caps(%c5000000_i64, %c4600000_i64) : (i64, i64) -> ()
    affine.for %arg1 = 0 to 64 {
      affine.for %arg2 = 0 to 48 {
        affine.for %arg3 = 0 to 112 {
          affine.for %arg4 = 0 to 112 {
            func.call @S15(%arg1, %arg2, %arg3, %arg4, %alloc_62, %alloc_63) : (index, index, index, index, memref<64x48x112x112xf32>, memref<64x48x112x112xf32>) -> ()
          }
        }
      }
    }
    %alloc_64 = memref.alloc() {alignment = 64 : i64} : memref<64x48x114x114xf32>
    call @set_frequency_caps(%c5000000_i64, %c4600000_i64) : (i64, i64) -> ()
    affine.for %arg1 = 0 to 64 {
      affine.for %arg2 = 0 to 48 {
        affine.for %arg3 = 0 to 114 {
          affine.for %arg4 = 0 to 114 {
            func.call @S16(%arg1, %arg2, %arg3, %arg4, %alloc_64) : (index, index, index, index, memref<64x48x114x114xf32>) -> ()
          }
        }
      }
    }
    %subview_65 = memref.subview %alloc_64[0, 0, 1, 1] [64, 48, 112, 112] [1, 1, 1, 1] : memref<64x48x114x114xf32> to memref<64x48x112x112xf32, strided<[623808, 12996, 114, 1], offset: 115>>
    memref.copy %alloc_62, %subview_65 : memref<64x48x112x112xf32> to memref<64x48x112x112xf32, strided<[623808, 12996, 114, 1], offset: 115>>
    %alloc_66 = memref.alloc() {alignment = 64 : i64} : memref<64x48x56x56xf32>
    call @set_frequency_caps(%c899999_i64, %c4600000_i64) : (i64, i64) -> ()
    affine.for %arg1 = 0 to 64 {
      affine.for %arg2 = 0 to 48 {
        affine.for %arg3 = 0 to 56 {
          affine.for %arg4 = 0 to 56 {
            func.call @S17(%arg1, %arg2, %arg3, %arg4, %alloc_66) : (index, index, index, index, memref<64x48x56x56xf32>) -> ()
          }
        }
      }
    }
    call @set_frequency_caps(%c5000000_i64, %c799999_i64) : (i64, i64) -> ()
    affine.for %arg1 = 0 to 64 {
      affine.for %arg2 = 0 to 56 {
        affine.for %arg3 = 0 to 56 {
          affine.for %arg4 = 0 to 48 {
            affine.for %arg5 = 0 to 3 {
              affine.for %arg6 = 0 to 3 {
                func.call @S18(%arg1, %arg4, %arg2, %arg3, %alloc_66, %arg5, %arg6, %alloc_0, %alloc_64) : (index, index, index, index, memref<64x48x56x56xf32>, index, index, memref<48x3x3xf32>, memref<64x48x114x114xf32>) -> ()
              }
            }
          }
        }
      }
    }
    %alloc_67 = memref.alloc() {alignment = 64 : i64} : memref<64x48x56x56xf32>
    call @set_frequency_caps(%c5000000_i64, %c4600000_i64) : (i64, i64) -> ()
    affine.for %arg1 = 0 to 64 {
      affine.for %arg2 = 0 to 48 {
        affine.for %arg3 = 0 to 56 {
          affine.for %arg4 = 0 to 56 {
            func.call @S19(%arg1, %arg2, %arg3, %arg4, %alloc_67, %alloc_66) : (index, index, index, index, memref<64x48x56x56xf32>, memref<64x48x56x56xf32>) -> ()
          }
        }
      }
    }
    call @set_frequency_caps(%c5000000_i64, %c4600000_i64) : (i64, i64) -> ()
    affine.for %arg1 = 0 to 64 {
      affine.for %arg2 = 0 to 48 {
        affine.for %arg3 = 0 to 56 {
          affine.for %arg4 = 0 to 56 {
            func.call @S20(%arg1, %arg2, %arg3, %arg4, %alloc_66, %alloc_67) : (index, index, index, index, memref<64x48x56x56xf32>, memref<64x48x56x56xf32>) -> ()
          }
        }
      }
    }
    %alloc_68 = memref.alloc() {alignment = 64 : i64} : memref<64x24x56x56xf32>
    call @set_frequency_caps(%c5000000_i64, %c4600000_i64) : (i64, i64) -> ()
    affine.for %arg1 = 0 to 64 {
      affine.for %arg2 = 0 to 24 {
        affine.for %arg3 = 0 to 56 {
          affine.for %arg4 = 0 to 56 {
            func.call @S21(%arg1, %arg2, %arg3, %arg4, %alloc_68) : (index, index, index, index, memref<64x24x56x56xf32>) -> ()
          }
        }
      }
    }
    %alloc_69 = memref.alloc() {alignment = 64 : i64} : memref<64x24x56x56xf32>
    memref.copy %alloc_68, %alloc_69 : memref<64x24x56x56xf32> to memref<64x24x56x56xf32>
    call @set_frequency_caps(%c5000000_i64, %c799999_i64) : (i64, i64) -> ()
    affine.for %arg1 = 0 to 64 {
      affine.for %arg2 = 0 to 24 {
        affine.for %arg3 = 0 to 56 {
          affine.for %arg4 = 0 to 56 {
            affine.for %arg5 = 0 to 48 {
              affine.for %arg6 = 0 to 1 {
                affine.for %arg7 = 0 to 1 {
                  func.call @S22(%arg1, %arg2, %arg3, %arg4, %alloc_69, %arg5, %arg6, %arg7, %alloc_48, %alloc_66) : (index, index, index, index, memref<64x24x56x56xf32>, index, index, index, memref<24x48x1x1xf32>, memref<64x48x56x56xf32>) -> ()
                }
              }
            }
          }
        }
      }
    }
    %alloc_70 = memref.alloc() {alignment = 64 : i64} : memref<64x24x56x56xf32>
    call @set_frequency_caps(%c5000000_i64, %c4600000_i64) : (i64, i64) -> ()
    affine.for %arg1 = 0 to 64 {
      affine.for %arg2 = 0 to 24 {
        affine.for %arg3 = 0 to 56 {
          affine.for %arg4 = 0 to 56 {
            func.call @S23(%arg1, %arg2, %arg3, %arg4, %alloc_70, %alloc_69) : (index, index, index, index, memref<64x24x56x56xf32>, memref<64x24x56x56xf32>) -> ()
          }
        }
      }
    }
    %alloc_71 = memref.alloc() {alignment = 64 : i64} : memref<64x72x56x56xf32>
    %alloc_72 = memref.alloc() {alignment = 64 : i64} : memref<64x72x56x56xf32>
    call @set_frequency_caps(%c5000000_i64, %c4600000_i64) : (i64, i64) -> ()
    affine.for %arg1 = 0 to 64 {
      affine.for %arg2 = 0 to 72 {
        affine.for %arg3 = 0 to 56 {
          affine.for %arg4 = 0 to 56 {
            func.call @S24(%arg1, %arg2, %arg3, %arg4, %alloc_72) : (index, index, index, index, memref<64x72x56x56xf32>) -> ()
          }
        }
      }
    }
    %alloc_73 = memref.alloc() {alignment = 64 : i64} : memref<64x72x56x56xf32>
    memref.copy %alloc_72, %alloc_73 : memref<64x72x56x56xf32> to memref<64x72x56x56xf32>
    call @set_frequency_caps(%c899999_i64, %c799999_i64) : (i64, i64) -> ()
    affine.for %arg1 = 0 to 64 {
      affine.for %arg2 = 0 to 72 {
        affine.for %arg3 = 0 to 56 {
          affine.for %arg4 = 0 to 56 {
            affine.for %arg5 = 0 to 24 {
              affine.for %arg6 = 0 to 1 {
                affine.for %arg7 = 0 to 1 {
                  func.call @S25(%arg1, %arg2, %arg3, %arg4, %alloc_73, %arg5, %arg6, %arg7, %alloc_47, %alloc_70) : (index, index, index, index, memref<64x72x56x56xf32>, index, index, index, memref<72x24x1x1xf32>, memref<64x24x56x56xf32>) -> ()
                }
              }
            }
          }
        }
      }
    }
    %alloc_74 = memref.alloc() {alignment = 64 : i64} : memref<64x72x56x56xf32>
    call @set_frequency_caps(%c5000000_i64, %c4600000_i64) : (i64, i64) -> ()
    affine.for %arg1 = 0 to 64 {
      affine.for %arg2 = 0 to 72 {
        affine.for %arg3 = 0 to 56 {
          affine.for %arg4 = 0 to 56 {
            func.call @S26(%arg1, %arg2, %arg3, %arg4, %alloc_74, %alloc_73) : (index, index, index, index, memref<64x72x56x56xf32>, memref<64x72x56x56xf32>) -> ()
          }
        }
      }
    }
    call @set_frequency_caps(%c5000000_i64, %c4600000_i64) : (i64, i64) -> ()
    affine.for %arg1 = 0 to 64 {
      affine.for %arg2 = 0 to 72 {
        affine.for %arg3 = 0 to 56 {
          affine.for %arg4 = 0 to 56 {
            func.call @S27(%arg1, %arg2, %arg3, %arg4, %alloc_71, %alloc_74) : (index, index, index, index, memref<64x72x56x56xf32>, memref<64x72x56x56xf32>) -> ()
          }
        }
      }
    }
    %alloc_75 = memref.alloc() {alignment = 64 : i64} : memref<64x72x58x58xf32>
    call @set_frequency_caps(%c5000000_i64, %c4600000_i64) : (i64, i64) -> ()
    affine.for %arg1 = 0 to 64 {
      affine.for %arg2 = 0 to 72 {
        affine.for %arg3 = 0 to 58 {
          affine.for %arg4 = 0 to 58 {
            func.call @S28(%arg1, %arg2, %arg3, %arg4, %alloc_75) : (index, index, index, index, memref<64x72x58x58xf32>) -> ()
          }
        }
      }
    }
    %subview_76 = memref.subview %alloc_75[0, 0, 1, 1] [64, 72, 56, 56] [1, 1, 1, 1] : memref<64x72x58x58xf32> to memref<64x72x56x56xf32, strided<[242208, 3364, 58, 1], offset: 59>>
    memref.copy %alloc_71, %subview_76 : memref<64x72x56x56xf32> to memref<64x72x56x56xf32, strided<[242208, 3364, 58, 1], offset: 59>>
    %alloc_77 = memref.alloc() {alignment = 64 : i64} : memref<64x72x56x56xf32>
    memref.copy %alloc_72, %alloc_77 : memref<64x72x56x56xf32> to memref<64x72x56x56xf32>
    call @set_frequency_caps(%c5000000_i64, %c4600000_i64) : (i64, i64) -> ()
    affine.for %arg1 = 0 to 64 {
      affine.for %arg2 = 0 to 56 {
        affine.for %arg3 = 0 to 56 {
          affine.for %arg4 = 0 to 72 {
            affine.for %arg5 = 0 to 3 {
              affine.for %arg6 = 0 to 3 {
                func.call @S29(%arg1, %arg4, %arg2, %arg3, %alloc_77, %arg5, %arg6, %alloc_1, %alloc_75) : (index, index, index, index, memref<64x72x56x56xf32>, index, index, memref<72x3x3xf32>, memref<64x72x58x58xf32>) -> ()
              }
            }
          }
        }
      }
    }
    %alloc_78 = memref.alloc() {alignment = 64 : i64} : memref<64x72x56x56xf32>
    call @set_frequency_caps(%c5000000_i64, %c4600000_i64) : (i64, i64) -> ()
    affine.for %arg1 = 0 to 64 {
      affine.for %arg2 = 0 to 72 {
        affine.for %arg3 = 0 to 56 {
          affine.for %arg4 = 0 to 56 {
            func.call @S30(%arg1, %arg2, %arg3, %arg4, %alloc_78, %alloc_77) : (index, index, index, index, memref<64x72x56x56xf32>, memref<64x72x56x56xf32>) -> ()
          }
        }
      }
    }
    call @set_frequency_caps(%c5000000_i64, %c4600000_i64) : (i64, i64) -> ()
    affine.for %arg1 = 0 to 64 {
      affine.for %arg2 = 0 to 72 {
        affine.for %arg3 = 0 to 56 {
          affine.for %arg4 = 0 to 56 {
            func.call @S31(%arg1, %arg2, %arg3, %arg4, %alloc_71, %alloc_78) : (index, index, index, index, memref<64x72x56x56xf32>, memref<64x72x56x56xf32>) -> ()
          }
        }
      }
    }
    %alloc_79 = memref.alloc() {alignment = 64 : i64} : memref<64x24x56x56xf32>
    memref.copy %alloc_68, %alloc_79 : memref<64x24x56x56xf32> to memref<64x24x56x56xf32>
    call @set_frequency_caps(%c5000000_i64, %c799999_i64) : (i64, i64) -> ()
    affine.for %arg1 = 0 to 64 {
      affine.for %arg2 = 0 to 24 {
        affine.for %arg3 = 0 to 56 {
          affine.for %arg4 = 0 to 56 {
            affine.for %arg5 = 0 to 72 {
              affine.for %arg6 = 0 to 1 {
                affine.for %arg7 = 0 to 1 {
                  func.call @S32(%arg1, %arg2, %arg3, %arg4, %alloc_79, %arg5, %arg6, %arg7, %alloc_46, %alloc_71) : (index, index, index, index, memref<64x24x56x56xf32>, index, index, index, memref<24x72x1x1xf32>, memref<64x72x56x56xf32>) -> ()
                }
              }
            }
          }
        }
      }
    }
    %alloc_80 = memref.alloc() {alignment = 64 : i64} : memref<64x24x56x56xf32>
    call @set_frequency_caps(%c899999_i64, %c4600000_i64) : (i64, i64) -> ()
    affine.for %arg1 = 0 to 64 {
      affine.for %arg2 = 0 to 24 {
        affine.for %arg3 = 0 to 56 {
          affine.for %arg4 = 0 to 56 {
            func.call @S33(%arg1, %arg2, %arg3, %arg4, %alloc_80, %alloc_79) : (index, index, index, index, memref<64x24x56x56xf32>, memref<64x24x56x56xf32>) -> ()
          }
        }
      }
    }
    %alloc_81 = memref.alloc() {alignment = 64 : i64} : memref<64x24x56x56xf32>
    call @set_frequency_caps(%c5000000_i64, %c4600000_i64) : (i64, i64) -> ()
    affine.for %arg1 = 0 to 64 {
      affine.for %arg2 = 0 to 24 {
        affine.for %arg3 = 0 to 56 {
          affine.for %arg4 = 0 to 56 {
            func.call @S34(%arg1, %arg2, %arg3, %arg4, %alloc_81, %alloc_70, %alloc_80) : (index, index, index, index, memref<64x24x56x56xf32>, memref<64x24x56x56xf32>, memref<64x24x56x56xf32>) -> ()
          }
        }
      }
    }
    %alloc_82 = memref.alloc() {alignment = 64 : i64} : memref<64x72x56x56xf32>
    memref.copy %alloc_72, %alloc_82 : memref<64x72x56x56xf32> to memref<64x72x56x56xf32>
    call @set_frequency_caps(%c5000000_i64, %c800000_i64) : (i64, i64) -> ()
    affine.for %arg1 = 0 to 64 {
      affine.for %arg2 = 0 to 72 {
        affine.for %arg3 = 0 to 56 {
          affine.for %arg4 = 0 to 56 {
            affine.for %arg5 = 0 to 24 {
              affine.for %arg6 = 0 to 1 {
                affine.for %arg7 = 0 to 1 {
                  func.call @S35(%arg1, %arg2, %arg3, %arg4, %alloc_82, %arg5, %arg6, %arg7, %alloc_45, %alloc_81) : (index, index, index, index, memref<64x72x56x56xf32>, index, index, index, memref<72x24x1x1xf32>, memref<64x24x56x56xf32>) -> ()
                }
              }
            }
          }
        }
      }
    }
    %alloc_83 = memref.alloc() {alignment = 64 : i64} : memref<64x72x56x56xf32>
    call @set_frequency_caps(%c5000000_i64, %c4600000_i64) : (i64, i64) -> ()
    affine.for %arg1 = 0 to 64 {
      affine.for %arg2 = 0 to 72 {
        affine.for %arg3 = 0 to 56 {
          affine.for %arg4 = 0 to 56 {
            func.call @S36(%arg1, %arg2, %arg3, %arg4, %alloc_83, %alloc_82) : (index, index, index, index, memref<64x72x56x56xf32>, memref<64x72x56x56xf32>) -> ()
          }
        }
      }
    }
    call @set_frequency_caps(%c5000000_i64, %c4600000_i64) : (i64, i64) -> ()
    affine.for %arg1 = 0 to 64 {
      affine.for %arg2 = 0 to 72 {
        affine.for %arg3 = 0 to 56 {
          affine.for %arg4 = 0 to 56 {
            func.call @S37(%arg1, %arg2, %arg3, %arg4, %alloc_71, %alloc_83) : (index, index, index, index, memref<64x72x56x56xf32>, memref<64x72x56x56xf32>) -> ()
          }
        }
      }
    }
    %alloc_84 = memref.alloc() {alignment = 64 : i64} : memref<64x72x58x58xf32>
    call @set_frequency_caps(%c5000000_i64, %c4600000_i64) : (i64, i64) -> ()
    affine.for %arg1 = 0 to 64 {
      affine.for %arg2 = 0 to 72 {
        affine.for %arg3 = 0 to 58 {
          affine.for %arg4 = 0 to 58 {
            func.call @S38(%arg1, %arg2, %arg3, %arg4, %alloc_84) : (index, index, index, index, memref<64x72x58x58xf32>) -> ()
          }
        }
      }
    }
    %subview_85 = memref.subview %alloc_84[0, 0, 1, 1] [64, 72, 56, 56] [1, 1, 1, 1] : memref<64x72x58x58xf32> to memref<64x72x56x56xf32, strided<[242208, 3364, 58, 1], offset: 59>>
    memref.copy %alloc_71, %subview_85 : memref<64x72x56x56xf32> to memref<64x72x56x56xf32, strided<[242208, 3364, 58, 1], offset: 59>>
    %alloc_86 = memref.alloc() {alignment = 64 : i64} : memref<64x72x56x56xf32>
    memref.copy %alloc_72, %alloc_86 : memref<64x72x56x56xf32> to memref<64x72x56x56xf32>
    call @set_frequency_caps(%c5000000_i64, %c800000_i64) : (i64, i64) -> ()
    affine.for %arg1 = 0 to 64 {
      affine.for %arg2 = 0 to 56 {
        affine.for %arg3 = 0 to 56 {
          affine.for %arg4 = 0 to 72 {
            affine.for %arg5 = 0 to 3 {
              affine.for %arg6 = 0 to 3 {
                func.call @S39(%arg1, %arg4, %arg2, %arg3, %alloc_86, %arg5, %arg6, %alloc_2, %alloc_84) : (index, index, index, index, memref<64x72x56x56xf32>, index, index, memref<72x3x3xf32>, memref<64x72x58x58xf32>) -> ()
              }
            }
          }
        }
      }
    }
    %alloc_87 = memref.alloc() {alignment = 64 : i64} : memref<64x72x56x56xf32>
    call @set_frequency_caps(%c5000000_i64, %c4600000_i64) : (i64, i64) -> ()
    affine.for %arg1 = 0 to 64 {
      affine.for %arg2 = 0 to 72 {
        affine.for %arg3 = 0 to 56 {
          affine.for %arg4 = 0 to 56 {
            func.call @S40(%arg1, %arg2, %arg3, %arg4, %alloc_87, %alloc_86) : (index, index, index, index, memref<64x72x56x56xf32>, memref<64x72x56x56xf32>) -> ()
          }
        }
      }
    }
    call @set_frequency_caps(%c5000000_i64, %c4600000_i64) : (i64, i64) -> ()
    affine.for %arg1 = 0 to 64 {
      affine.for %arg2 = 0 to 72 {
        affine.for %arg3 = 0 to 56 {
          affine.for %arg4 = 0 to 56 {
            func.call @S41(%arg1, %arg2, %arg3, %arg4, %alloc_71, %alloc_87) : (index, index, index, index, memref<64x72x56x56xf32>, memref<64x72x56x56xf32>) -> ()
          }
        }
      }
    }
    call @set_frequency_caps(%c5000000_i64, %c799999_i64) : (i64, i64) -> ()
    affine.for %arg1 = 0 to 64 {
      affine.for %arg2 = 0 to 24 {
        affine.for %arg3 = 0 to 56 {
          affine.for %arg4 = 0 to 56 {
            affine.for %arg5 = 0 to 72 {
              affine.for %arg6 = 0 to 1 {
                affine.for %arg7 = 0 to 1 {
                  func.call @S42(%arg1, %arg2, %arg3, %arg4, %alloc_68, %arg5, %arg6, %arg7, %alloc_44, %alloc_71) : (index, index, index, index, memref<64x24x56x56xf32>, index, index, index, memref<24x72x1x1xf32>, memref<64x72x56x56xf32>) -> ()
                }
              }
            }
          }
        }
      }
    }
    %alloc_88 = memref.alloc() {alignment = 64 : i64} : memref<64x24x56x56xf32>
    call @set_frequency_caps(%c5000000_i64, %c4600000_i64) : (i64, i64) -> ()
    affine.for %arg1 = 0 to 64 {
      affine.for %arg2 = 0 to 24 {
        affine.for %arg3 = 0 to 56 {
          affine.for %arg4 = 0 to 56 {
            func.call @S43(%arg1, %arg2, %arg3, %arg4, %alloc_88, %alloc_68) : (index, index, index, index, memref<64x24x56x56xf32>, memref<64x24x56x56xf32>) -> ()
          }
        }
      }
    }
    call @set_frequency_caps(%c5000000_i64, %c4600000_i64) : (i64, i64) -> ()
    affine.for %arg1 = 0 to 64 {
      affine.for %arg2 = 0 to 24 {
        affine.for %arg3 = 0 to 56 {
          affine.for %arg4 = 0 to 56 {
            func.call @S44(%arg1, %arg2, %arg3, %arg4, %alloc_68, %alloc_81, %alloc_88) : (index, index, index, index, memref<64x24x56x56xf32>, memref<64x24x56x56xf32>, memref<64x24x56x56xf32>) -> ()
          }
        }
      }
    }
    call @set_frequency_caps(%c5000000_i64, %c800000_i64) : (i64, i64) -> ()
    affine.for %arg1 = 0 to 64 {
…
          affine.for %arg4 = 0 to 14 {
            func.call @S119(%arg1, %arg2, %arg3, %arg4, %alloc_148, %alloc_147) : (index, index, index, index, memref<64x96x14x14xf32>, memref<64x96x14x14xf32>) -> ()
          }
        }
      }
    }
    %alloc_149 = memref.alloc() {alignment = 64 : i64} : memref<64x576x14x14xf32>
    %alloc_150 = memref.alloc() {alignment = 64 : i64} : memref<64x576x14x14xf32>
    call @set_frequency_caps(%c5000000_i64, %c4600000_i64) : (i64, i64) -> ()
    affine.for %arg1 = 0 to 64 {
      affine.for %arg2 = 0 to 576 {
        affine.for %arg3 = 0 to 14 {
          affine.for %arg4 = 0 to 14 {
            func.call @S120(%arg1, %arg2, %arg3, %arg4, %alloc_150) : (index, index, index, index, memref<64x576x14x14xf32>) -> ()
          }
        }
      }
    }
    %alloc_151 = memref.alloc() {alignment = 64 : i64} : memref<64x576x14x14xf32>
    memref.copy %alloc_150, %alloc_151 : memref<64x576x14x14xf32> to memref<64x576x14x14xf32>
    call @set_frequency_caps(%c5000000_i64, %c799999_i64) : (i64, i64) -> ()
    affine.for %arg1 = 0 to 64 {
      affine.for %arg2 = 0 to 576 {
        affine.for %arg3 = 0 to 14 {
          affine.for %arg4 = 0 to 14 {
            affine.for %arg5 = 0 to 96 {
              affine.for %arg6 = 0 to 1 {
                affine.for %arg7 = 0 to 1 {
                  func.call @S121(%arg1, %arg2, %arg3, %arg4, %alloc_151, %arg5, %arg6, %arg7, %alloc_29, %alloc_148) : (index, index, index, index, memref<64x576x14x14xf32>, index, index, index, memref<576x96x1x1xf32>, memref<64x96x14x14xf32>) -> ()
                }
              }
            }
          }
        }
      }
    }
    %alloc_152 = memref.alloc() {alignment = 64 : i64} : memref<64x576x14x14xf32>
    call @set_frequency_caps(%c5000000_i64, %c4600000_i64) : (i64, i64) -> ()
    affine.for %arg1 = 0 to 64 {
      affine.for %arg2 = 0 to 576 {
        affine.for %arg3 = 0 to 14 {
          affine.for %arg4 = 0 to 14 {
            func.call @S122(%arg1, %arg2, %arg3, %arg4, %alloc_152, %alloc_151) : (index, index, index, index, memref<64x576x14x14xf32>, memref<64x576x14x14xf32>) -> ()
          }
        }
      }
    }
    call @set_frequency_caps(%c5000000_i64, %c4600000_i64) : (i64, i64) -> ()
    affine.for %arg1 = 0 to 64 {
      affine.for %arg2 = 0 to 576 {
        affine.for %arg3 = 0 to 14 {
          affine.for %arg4 = 0 to 14 {
            func.call @S123(%arg1, %arg2, %arg3, %arg4, %alloc_149, %alloc_152) : (index, index, index, index, memref<64x576x14x14xf32>, memref<64x576x14x14xf32>) -> ()
          }
        }
      }
    }
    %alloc_153 = memref.alloc() {alignment = 64 : i64} : memref<64x576x16x16xf32>
    call @set_frequency_caps(%c5000000_i64, %c4600000_i64) : (i64, i64) -> ()
    affine.for %arg1 = 0 to 64 {
      affine.for %arg2 = 0 to 576 {
        affine.for %arg3 = 0 to 16 {
          affine.for %arg4 = 0 to 16 {
            func.call @S124(%arg1, %arg2, %arg3, %arg4, %alloc_153) : (index, index, index, index, memref<64x576x16x16xf32>) -> ()
          }
        }
      }
    }
    %subview_154 = memref.subview %alloc_153[0, 0, 1, 1] [64, 576, 14, 14] [1, 1, 1, 1] : memref<64x576x16x16xf32> to memref<64x576x14x14xf32, strided<[147456, 256, 16, 1], offset: 17>>
    memref.copy %alloc_149, %subview_154 : memref<64x576x14x14xf32> to memref<64x576x14x14xf32, strided<[147456, 256, 16, 1], offset: 17>>
    %alloc_155 = memref.alloc() {alignment = 64 : i64} : memref<64x576x14x14xf32>
    memref.copy %alloc_150, %alloc_155 : memref<64x576x14x14xf32> to memref<64x576x14x14xf32>
    call @set_frequency_caps(%c5000000_i64, %c799999_i64) : (i64, i64) -> ()
    affine.for %arg1 = 0 to 64 {
      affine.for %arg2 = 0 to 14 {
        affine.for %arg3 = 0 to 14 {
          affine.for %arg4 = 0 to 576 {
            affine.for %arg5 = 0 to 3 {
              affine.for %arg6 = 0 to 3 {
                func.call @S125(%arg1, %arg4, %arg2, %arg3, %alloc_155, %arg5, %arg6, %alloc_10, %alloc_153) : (index, index, index, index, memref<64x576x14x14xf32>, index, index, memref<576x3x3xf32>, memref<64x576x16x16xf32>) -> ()
              }
            }
          }
        }
      }
    }
    %alloc_156 = memref.alloc() {alignment = 64 : i64} : memref<64x576x14x14xf32>
    call @set_frequency_caps(%c5000000_i64, %c4600000_i64) : (i64, i64) -> ()
    affine.for %arg1 = 0 to 64 {
      affine.for %arg2 = 0 to 576 {
        affine.for %arg3 = 0 to 14 {
          affine.for %arg4 = 0 to 14 {
            func.call @S126(%arg1, %arg2, %arg3, %arg4, %alloc_156, %alloc_155) : (index, index, index, index, memref<64x576x14x14xf32>, memref<64x576x14x14xf32>) -> ()
          }
        }
      }
    }
    call @set_frequency_caps(%c5000000_i64, %c4600000_i64) : (i64, i64) -> ()
    affine.for %arg1 = 0 to 64 {
      affine.for %arg2 = 0 to 576 {
        affine.for %arg3 = 0 to 14 {
          affine.for %arg4 = 0 to 14 {
            func.call @S127(%arg1, %arg2, %arg3, %arg4, %alloc_149, %alloc_156) : (index, index, index, index, memref<64x576x14x14xf32>, memref<64x576x14x14xf32>) -> ()
          }
        }
      }
    }
    call @set_frequency_caps(%c899999_i64, %c799999_i64) : (i64, i64) -> ()
    affine.for %arg1 = 0 to 64 {
      affine.for %arg2 = 0 to 96 {
        affine.for %arg3 = 0 to 14 {
          affine.for %arg4 = 0 to 14 {
            affine.for %arg5 = 0 to 576 {
              affine.for %arg6 = 0 to 1 {
                affine.for %arg7 = 0 to 1 {
                  func.call @S128(%arg1, %arg2, %arg3, %arg4, %alloc_146, %arg5, %arg6, %arg7, %alloc_28, %alloc_149) : (index, index, index, index, memref<64x96x14x14xf32>, index, index, index, memref<96x576x1x1xf32>, memref<64x576x14x14xf32>) -> ()
                }
              }
            }
          }
        }
      }
    }
    %alloc_157 = memref.alloc() {alignment = 64 : i64} : memref<64x96x14x14xf32>
    call @set_frequency_caps(%c5000000_i64, %c4600000_i64) : (i64, i64) -> ()
    affine.for %arg1 = 0 to 64 {
      affine.for %arg2 = 0 to 96 {
        affine.for %arg3 = 0 to 14 {
          affine.for %arg4 = 0 to 14 {
            func.call @S129(%arg1, %arg2, %arg3, %arg4, %alloc_157, %alloc_146) : (index, index, index, index, memref<64x96x14x14xf32>, memref<64x96x14x14xf32>) -> ()
          }
        }
      }
    }
    call @set_frequency_caps(%c5000000_i64, %c799999_i64) : (i64, i64) -> ()
    affine.for %arg1 = 0 to 64 {
      affine.for %arg2 = 0 to 96 {
        affine.for %arg3 = 0 to 14 {
          affine.for %arg4 = 0 to 14 {
            func.call @S130(%arg1, %arg2, %arg3, %arg4, %alloc_146, %alloc_148, %alloc_157) : (index, index, index, index, memref<64x96x14x14xf32>, memref<64x96x14x14xf32>, memref<64x96x14x14xf32>) -> ()
          }
        }
      }
    }
    call @set_frequency_caps(%c5000000_i64, %c799999_i64) : (i64, i64) -> ()
    affine.for %arg1 = 0 to 64 {
      affine.for %arg2 = 0 to 576 {
        affine.for %arg3 = 0 to 14 {
          affine.for %arg4 = 0 to 14 {
            affine.for %arg5 = 0 to 96 {
              affine.for %arg6 = 0 to 1 {
                affine.for %arg7 = 0 to 1 {
                  func.call @S131(%arg1, %arg2, %arg3, %arg4, %alloc_150, %arg5, %arg6, %arg7, %alloc_27, %alloc_146) : (index, index, index, index, memref<64x576x14x14xf32>, index, index, index, memref<576x96x1x1xf32>, memref<64x96x14x14xf32>) -> ()
                }
              }
            }
          }
        }
      }
    }
    %alloc_158 = memref.alloc() {alignment = 64 : i64} : memref<64x576x14x14xf32>
    call @set_frequency_caps(%c5000000_i64, %c4600000_i64) : (i64, i64) -> ()
    affine.for %arg1 = 0 to 64 {
      affine.for %arg2 = 0 to 576 {
        affine.for %arg3 = 0 to 14 {
          affine.for %arg4 = 0 to 14 {
            func.call @S132(%arg1, %arg2, %arg3, %arg4, %alloc_158, %alloc_150) : (index, index, index, index, memref<64x576x14x14xf32>, memref<64x576x14x14xf32>) -> ()
          }
        }
      }
    }
    call @set_frequency_caps(%c5000000_i64, %c4600000_i64) : (i64, i64) -> ()
    affine.for %arg1 = 0 to 64 {
      affine.for %arg2 = 0 to 576 {
        affine.for %arg3 = 0 to 14 {
          affine.for %arg4 = 0 to 14 {
            func.call @S133(%arg1, %arg2, %arg3, %arg4, %alloc_149, %alloc_158) : (index, index, index, index, memref<64x576x14x14xf32>, memref<64x576x14x14xf32>) -> ()
          }
        }
      }
    }
    %alloc_159 = memref.alloc() {alignment = 64 : i64} : memref<64x576x18x18xf32>
    call @set_frequency_caps(%c5000000_i64, %c4600000_i64) : (i64, i64) -> ()
    affine.for %arg1 = 0 to 64 {
      affine.for %arg2 = 0 to 576 {
        affine.for %arg3 = 0 to 18 {
          affine.for %arg4 = 0 to 18 {
            func.call @S134(%arg1, %arg2, %arg3, %arg4, %alloc_159) : (index, index, index, index, memref<64x576x18x18xf32>) -> ()
          }
        }
      }
    }
    %subview_160 = memref.subview %alloc_159[0, 0, 2, 2] [64, 576, 14, 14] [1, 1, 1, 1] : memref<64x576x18x18xf32> to memref<64x576x14x14xf32, strided<[186624, 324, 18, 1], offset: 38>>
    memref.copy %alloc_149, %subview_160 : memref<64x576x14x14xf32> to memref<64x576x14x14xf32, strided<[186624, 324, 18, 1], offset: 38>>
    %alloc_161 = memref.alloc() {alignment = 64 : i64} : memref<64x576x7x7xf32>
    call @set_frequency_caps(%c5000000_i64, %c4600000_i64) : (i64, i64) -> ()
    affine.for %arg1 = 0 to 64 {
      affine.for %arg2 = 0 to 576 {
        affine.for %arg3 = 0 to 7 {
          affine.for %arg4 = 0 to 7 {
            func.call @S135(%arg1, %arg2, %arg3, %arg4, %alloc_161) : (index, index, index, index, memref<64x576x7x7xf32>) -> ()
          }
        }
      }
    }
    call @set_frequency_caps(%c5000000_i64, %c800000_i64) : (i64, i64) -> ()
    affine.for %arg1 = 0 to 64 {
      affine.for %arg2 = 0 to 7 {
        affine.for %arg3 = 0 to 7 {
          affine.for %arg4 = 0 to 576 {
            affine.for %arg5 = 0 to 5 {
              affine.for %arg6 = 0 to 5 {
                func.call @S136(%arg1, %arg4, %arg2, %arg3, %alloc_161, %arg5, %arg6, %alloc_11, %alloc_159) : (index, index, index, index, memref<64x576x7x7xf32>, index, index, memref<576x5x5xf32>, memref<64x576x18x18xf32>) -> ()
              }
            }
          }
        }
      }
    }
    %alloc_162 = memref.alloc() {alignment = 64 : i64} : memref<64x576x7x7xf32>
    call @set_frequency_caps(%c5000000_i64, %c4600000_i64) : (i64, i64) -> ()
    affine.for %arg1 = 0 to 64 {
      affine.for %arg2 = 0 to 576 {
        affine.for %arg3 = 0 to 7 {
          affine.for %arg4 = 0 to 7 {
            func.call @S137(%arg1, %arg2, %arg3, %arg4, %alloc_162, %alloc_161) : (index, index, index, index, memref<64x576x7x7xf32>, memref<64x576x7x7xf32>) -> ()
          }
        }
      }
    }
    call @set_frequency_caps(%c5000000_i64, %c4600000_i64) : (i64, i64) -> ()
    affine.for %arg1 = 0 to 64 {
      affine.for %arg2 = 0 to 576 {
        affine.for %arg3 = 0 to 7 {
          affine.for %arg4 = 0 to 7 {
            func.call @S138(%arg1, %arg2, %arg3, %arg4, %alloc_161, %alloc_162) : (index, index, index, index, memref<64x576x7x7xf32>, memref<64x576x7x7xf32>) -> ()
          }
        }
      }
    }
    %alloc_163 = memref.alloc() {alignment = 64 : i64} : memref<64x192x7x7xf32>
    %alloc_164 = memref.alloc() {alignment = 64 : i64} : memref<64x192x7x7xf32>
    call @set_frequency_caps(%c5000000_i64, %c4600000_i64) : (i64, i64) -> ()
    affine.for %arg1 = 0 to 64 {
      affine.for %arg2 = 0 to 192 {
        affine.for %arg3 = 0 to 7 {
          affine.for %arg4 = 0 to 7 {
            func.call @S139(%arg1, %arg2, %arg3, %arg4, %alloc_164) : (index, index, index, index, memref<64x192x7x7xf32>) -> ()
          }
        }
      }
    }
    %alloc_165 = memref.alloc() {alignment = 64 : i64} : memref<64x192x7x7xf32>
    memref.copy %alloc_164, %alloc_165 : memref<64x192x7x7xf32> to memref<64x192x7x7xf32>
    call @set_frequency_caps(%c5000000_i64, %c799999_i64) : (i64, i64) -> ()
    affine.for %arg1 = 0 to 64 {
      affine.for %arg2 = 0 to 192 {
        affine.for %arg3 = 0 to 7 {
          affine.for %arg4 = 0 to 7 {
            affine.for %arg5 = 0 to 576 {
              affine.for %arg6 = 0 to 1 {
                affine.for %arg7 = 0 to 1 {
                  func.call @S140(%arg1, %arg2, %arg3, %arg4, %alloc_165, %arg5, %arg6, %arg7, %alloc_26, %alloc_161) : (index, index, index, index, memref<64x192x7x7xf32>, index, index, index, memref<192x576x1x1xf32>, memref<64x576x7x7xf32>) -> ()
                }
              }
            }
          }
        }
      }
    }
    %alloc_166 = memref.alloc() {alignment = 64 : i64} : memref<64x192x7x7xf32>
    call @set_frequency_caps(%c5000000_i64, %c4600000_i64) : (i64, i64) -> ()
    affine.for %arg1 = 0 to 64 {
      affine.for %arg2 = 0 to 192 {
        affine.for %arg3 = 0 to 7 {
          affine.for %arg4 = 0 to 7 {
            func.call @S141(%arg1, %arg2, %arg3, %arg4, %alloc_166, %alloc_165) : (index, index, index, index, memref<64x192x7x7xf32>, memref<64x192x7x7xf32>) -> ()
          }
        }
      }
    }
    %alloc_167 = memref.alloc() {alignment = 64 : i64} : memref<64x1152x7x7xf32>
    %alloc_168 = memref.alloc() {alignment = 64 : i64} : memref<64x1152x7x7xf32>
    call @set_frequency_caps(%c5000000_i64, %c4600000_i64) : (i64, i64) -> ()
    affine.for %arg1 = 0 to 64 {
      affine.for %arg2 = 0 to 1152 {
        affine.for %arg3 = 0 to 7 {
          affine.for %arg4 = 0 to 7 {
            func.call @S142(%arg1, %arg2, %arg3, %arg4, %alloc_168) : (index, index, index, index, memref<64x1152x7x7xf32>) -> ()
          }
        }
      }
    }
    %alloc_169 = memref.alloc() {alignment = 64 : i64} : memref<64x1152x7x7xf32>
    memref.copy %alloc_168, %alloc_169 : memref<64x1152x7x7xf32> to memref<64x1152x7x7xf32>
    call @set_frequency_caps(%c5000000_i64, %c799999_i64) : (i64, i64) -> ()
    affine.for %arg1 = 0 to 64 {
      affine.for %arg2 = 0 to 1152 {
        affine.for %arg3 = 0 to 7 {
          affine.for %arg4 = 0 to 7 {
            affine.for %arg5 = 0 to 192 {
              affine.for %arg6 = 0 to 1 {
                affine.for %arg7 = 0 to 1 {
                  func.call @S143(%arg1, %arg2, %arg3, %arg4, %alloc_169, %arg5, %arg6, %arg7, %alloc_25, %alloc_166) : (index, index, index, index, memref<64x1152x7x7xf32>, index, index, index, memref<1152x192x1x1xf32>, memref<64x192x7x7xf32>) -> ()
                }
              }
            }
          }
        }
      }
    }
    %alloc_170 = memref.alloc() {alignment = 64 : i64} : memref<64x1152x7x7xf32>
    call @set_frequency_caps(%c5000000_i64, %c4600000_i64) : (i64, i64) -> ()
    affine.for %arg1 = 0 to 64 {
      affine.for %arg2 = 0 to 1152 {
        affine.for %arg3 = 0 to 7 {
          affine.for %arg4 = 0 to 7 {
            func.call @S144(%arg1, %arg2, %arg3, %arg4, %alloc_170, %alloc_169) : (index, index, index, index, memref<64x1152x7x7xf32>, memref<64x1152x7x7xf32>) -> ()
          }
        }
      }
    }
    call @set_frequency_caps(%c5000000_i64, %c4600000_i64) : (i64, i64) -> ()
    affine.for %arg1 = 0 to 64 {
      affine.for %arg2 = 0 to 1152 {
        affine.for %arg3 = 0 to 7 {
          affine.for %arg4 = 0 to 7 {
            func.call @S145(%arg1, %arg2, %arg3, %arg4, %alloc_167, %alloc_170) : (index, index, index, index, memref<64x1152x7x7xf32>, memref<64x1152x7x7xf32>) -> ()
          }
        }
      }
    }
    %alloc_171 = memref.alloc() {alignment = 64 : i64} : memref<64x1152x11x11xf32>
    call @set_frequency_caps(%c5000000_i64, %c4600000_i64) : (i64, i64) -> ()
    affine.for %arg1 = 0 to 64 {
      affine.for %arg2 = 0 to 1152 {
        affine.for %arg3 = 0 to 11 {
          affine.for %arg4 = 0 to 11 {
            func.call @S146(%arg1, %arg2, %arg3, %arg4, %alloc_171) : (index, index, index, index, memref<64x1152x11x11xf32>) -> ()
          }
        }
      }
    }
    %subview_172 = memref.subview %alloc_171[0, 0, 2, 2] [64, 1152, 7, 7] [1, 1, 1, 1] : memref<64x1152x11x11xf32> to memref<64x1152x7x7xf32, strided<[139392, 121, 11, 1], offset: 24>>
    memref.copy %alloc_167, %subview_172 : memref<64x1152x7x7xf32> to memref<64x1152x7x7xf32, strided<[139392, 121, 11, 1], offset: 24>>
    %alloc_173 = memref.alloc() {alignment = 64 : i64} : memref<64x1152x7x7xf32>
    memref.copy %alloc_168, %alloc_173 : memref<64x1152x7x7xf32> to memref<64x1152x7x7xf32>
    call @set_frequency_caps(%c5000000_i64, %c4600000_i64) : (i64, i64) -> ()
    affine.for %arg1 = 0 to 64 {
      affine.for %arg2 = 0 to 7 {
        affine.for %arg3 = 0 to 7 {
          affine.for %arg4 = 0 to 1152 {
            affine.for %arg5 = 0 to 5 {
              affine.for %arg6 = 0 to 5 {
                func.call @S147(%arg1, %arg4, %arg2, %arg3, %alloc_173, %arg5, %arg6, %alloc_12, %alloc_171) : (index, index, index, index, memref<64x1152x7x7xf32>, index, index, memref<1152x5x5xf32>, memref<64x1152x11x11xf32>) -> ()
              }
            }
          }
        }
      }
    }
    %alloc_174 = memref.alloc() {alignment = 64 : i64} : memref<64x1152x7x7xf32>
    call @set_frequency_caps(%c5000000_i64, %c4600000_i64) : (i64, i64) -> ()
    affine.for %arg1 = 0 to 64 {
      affine.for %arg2 = 0 to 1152 {
        affine.for %arg3 = 0 to 7 {
          affine.for %arg4 = 0 to 7 {
            func.call @S148(%arg1, %arg2, %arg3, %arg4, %alloc_174, %alloc_173) : (index, index, index, index, memref<64x1152x7x7xf32>, memref<64x1152x7x7xf32>) -> ()
          }
        }
      }
    }
    call @set_frequency_caps(%c5000000_i64, %c4600000_i64) : (i64, i64) -> ()
    affine.for %arg1 = 0 to 64 {
      affine.for %arg2 = 0 to 1152 {
        affine.for %arg3 = 0 to 7 {
          affine.for %arg4 = 0 to 7 {
            func.call @S149(%arg1, %arg2, %arg3, %arg4, %alloc_167, %alloc_174) : (index, index, index, index, memref<64x1152x7x7xf32>, memref<64x1152x7x7xf32>) -> ()
          }
        }
      }
    }
    %alloc_175 = memref.alloc() {alignment = 64 : i64} : memref<64x192x7x7xf32>
    memref.copy %alloc_164, %alloc_175 : memref<64x192x7x7xf32> to memref<64x192x7x7xf32>
    call @set_frequency_caps(%c5000000_i64, %c799999_i64) : (i64, i64) -> ()
    affine.for %arg1 = 0 to 64 {
      affine.for %arg2 = 0 to 192 {
        affine.for %arg3 = 0 to 7 {
          affine.for %arg4 = 0 to 7 {
            affine.for %arg5 = 0 to 1152 {
              affine.for %arg6 = 0 to 1 {
                affine.for %arg7 = 0 to 1 {
                  func.call @S150(%arg1, %arg2, %arg3, %arg4, %alloc_175, %arg5, %arg6, %arg7, %alloc_24, %alloc_167) : (index, index, index, index, memref<64x192x7x7xf32>, index, index, index, memref<192x1152x1x1xf32>, memref<64x1152x7x7xf32>) -> ()
                }
              }
            }
          }
        }
      }
    }
    %alloc_176 = memref.alloc() {alignment = 64 : i64} : memref<64x192x7x7xf32>
    call @set_frequency_caps(%c5000000_i64, %c4600000_i64) : (i64, i64) -> ()
    affine.for %arg1 = 0 to 64 {
      affine.for %arg2 = 0 to 192 {
        affine.for %arg3 = 0 to 7 {
          affine.for %arg4 = 0 to 7 {
            func.call @S151(%arg1, %arg2, %arg3, %arg4, %alloc_176, %alloc_175) : (index, index, index, index, memref<64x192x7x7xf32>, memref<64x192x7x7xf32>) -> ()
          }
        }
      }
    }
    call @set_frequency_caps(%c5000000_i64, %c4600000_i64) : (i64, i64) -> ()
    affine.for %arg1 = 0 to 64 {
      affine.for %arg2 = 0 to 192 {
        affine.for %arg3 = 0 to 7 {
          affine.for %arg4 = 0 to 7 {
            func.call @S152(%arg1, %arg2, %arg3, %arg4, %alloc_163, %alloc_166, %alloc_176) : (index, index, index, index, memref<64x192x7x7xf32>, memref<64x192x7x7xf32>, memref<64x192x7x7xf32>) -> ()
          }
        }
      }
    }
    %alloc_177 = memref.alloc() {alignment = 64 : i64} : memref<64x1152x7x7xf32>
    memref.copy %alloc_168, %alloc_177 : memref<64x1152x7x7xf32> to memref<64x1152x7x7xf32>
    call @set_frequency_caps(%c5000000_i64, %c799999_i64) : (i64, i64) -> ()
    affine.for %arg1 = 0 to 64 {
      affine.for %arg2 = 0 to 1152 {
        affine.for %arg3 = 0 to 7 {
          affine.for %arg4 = 0 to 7 {
            affine.for %arg5 = 0 to 192 {
              affine.for %arg6 = 0 to 1 {
                affine.for %arg7 = 0 to 1 {
                  func.call @S153(%arg1, %arg2, %arg3, %arg4, %alloc_177, %arg5, %arg6, %arg7, %alloc_23, %alloc_163) : (index, index, index, index, memref<64x1152x7x7xf32>, index, index, index, memref<1152x192x1x1xf32>, memref<64x192x7x7xf32>) -> ()
                }
              }
            }
          }
        }
      }
    }
    %alloc_178 = memref.alloc() {alignment = 64 : i64} : memref<64x1152x7x7xf32>
    call @set_frequency_caps(%c5000000_i64, %c4600000_i64) : (i64, i64) -> ()
    affine.for %arg1 = 0 to 64 {
      affine.for %arg2 = 0 to 1152 {
        affine.for %arg3 = 0 to 7 {
          affine.for %arg4 = 0 to 7 {
            func.call @S154(%arg1, %arg2, %arg3, %arg4, %alloc_178, %alloc_177) : (index, index, index, index, memref<64x1152x7x7xf32>, memref<64x1152x7x7xf32>) -> ()
          }
        }
      }
    }
    call @set_frequency_caps(%c5000000_i64, %c4600000_i64) : (i64, i64) -> ()
    affine.for %arg1 = 0 to 64 {
      affine.for %arg2 = 0 to 1152 {
        affine.for %arg3 = 0 to 7 {
          affine.for %arg4 = 0 to 7 {
            func.call @S155(%arg1, %arg2, %arg3, %arg4, %alloc_167, %alloc_178) : (index, index, index, index, memref<64x1152x7x7xf32>, memref<64x1152x7x7xf32>) -> ()
          }
        }
      }
    }
    %alloc_179 = memref.alloc() {alignment = 64 : i64} : memref<64x1152x11x11xf32>
    call @set_frequency_caps(%c5000000_i64, %c4600000_i64) : (i64, i64) -> ()
    affine.for %arg1 = 0 to 64 {
      affine.for %arg2 = 0 to 1152 {
        affine.for %arg3 = 0 to 11 {
          affine.for %arg4 = 0 to 11 {
            func.call @S156(%arg1, %arg2, %arg3, %arg4, %alloc_179) : (index, index, index, index, memref<64x1152x11x11xf32>) -> ()
          }
        }
      }
    }
    %subview_180 = memref.subview %alloc_179[0, 0, 2, 2] [64, 1152, 7, 7] [1, 1, 1, 1] : memref<64x1152x11x11xf32> to memref<64x1152x7x7xf32, strided<[139392, 121, 11, 1], offset: 24>>
    memref.copy %alloc_167, %subview_180 : memref<64x1152x7x7xf32> to memref<64x1152x7x7xf32, strided<[139392, 121, 11, 1], offset: 24>>
    %alloc_181 = memref.alloc() {alignment = 64 : i64} : memref<64x1152x7x7xf32>
    memref.copy %alloc_168, %alloc_181 : memref<64x1152x7x7xf32> to memref<64x1152x7x7xf32>
    call @set_frequency_caps(%c5000000_i64, %c799999_i64) : (i64, i64) -> ()
    affine.for %arg1 = 0 to 64 {
      affine.for %arg2 = 0 to 7 {
        affine.for %arg3 = 0 to 7 {
          affine.for %arg4 = 0 to 1152 {
            affine.for %arg5 = 0 to 5 {
              affine.for %arg6 = 0 to 5 {
                func.call @S157(%arg1, %arg4, %arg2, %arg3, %alloc_181, %arg5, %arg6, %alloc_13, %alloc_179) : (index, index, index, index, memref<64x1152x7x7xf32>, index, index, memref<1152x5x5xf32>, memref<64x1152x11x11xf32>) -> ()
              }
            }
          }
        }
      }
    }
    %alloc_182 = memref.alloc() {alignment = 64 : i64} : memref<64x1152x7x7xf32>
    call @set_frequency_caps(%c5000000_i64, %c4600000_i64) : (i64, i64) -> ()
    affine.for %arg1 = 0 to 64 {
      affine.for %arg2 = 0 to 1152 {
        affine.for %arg3 = 0 to 7 {
          affine.for %arg4 = 0 to 7 {
            func.call @S158(%arg1, %arg2, %arg3, %arg4, %alloc_182, %alloc_181) : (index, index, index, index, memref<64x1152x7x7xf32>, memref<64x1152x7x7xf32>) -> ()
          }
        }
      }
    }
    call @set_frequency_caps(%c5000000_i64, %c4600000_i64) : (i64, i64) -> ()
    affine.for %arg1 = 0 to 64 {
      affine.for %arg2 = 0 to 1152 {
        affine.for %arg3 = 0 to 7 {
          affine.for %arg4 = 0 to 7 {
            func.call @S159(%arg1, %arg2, %arg3, %arg4, %alloc_167, %alloc_182) : (index, index, index, index, memref<64x1152x7x7xf32>, memref<64x1152x7x7xf32>) -> ()
          }
        }
      }
    }
    %alloc_183 = memref.alloc() {alignment = 64 : i64} : memref<64x192x7x7xf32>
    memref.copy %alloc_164, %alloc_183 : memref<64x192x7x7xf32> to memref<64x192x7x7xf32>
    call @set_frequency_caps(%c5000000_i64, %c799999_i64) : (i64, i64) -> ()
    affine.for %arg1 = 0 to 64 {
      affine.for %arg2 = 0 to 192 {
        affine.for %arg3 = 0 to 7 {
          affine.for %arg4 = 0 to 7 {
            affine.for %arg5 = 0 to 1152 {
              affine.for %arg6 = 0 to 1 {
                affine.for %arg7 = 0 to 1 {
                  func.call @S160(%arg1, %arg2, %arg3, %arg4, %alloc_183, %arg5, %arg6, %arg7, %alloc_22, %alloc_167) : (index, index, index, index, memref<64x192x7x7xf32>, index, index, index, memref<192x1152x1x1xf32>, memref<64x1152x7x7xf32>) -> ()
                }
              }
            }
          }
        }
      }
    }
    %alloc_184 = memref.alloc() {alignment = 64 : i64} : memref<64x192x7x7xf32>
    call @set_frequency_caps(%c5000000_i64, %c4600000_i64) : (i64, i64) -> ()
    affine.for %arg1 = 0 to 64 {
      affine.for %arg2 = 0 to 192 {
        affine.for %arg3 = 0 to 7 {
          affine.for %arg4 = 0 to 7 {
            func.call @S161(%arg1, %arg2, %arg3, %arg4, %alloc_184, %alloc_183) : (index, index, index, index, memref<64x192x7x7xf32>, memref<64x192x7x7xf32>) -> ()
          }
        }
      }
    }
    %alloc_185 = memref.alloc() {alignment = 64 : i64} : memref<64x192x7x7xf32>
    call @set_frequency_caps(%c5000000_i64, %c4600000_i64) : (i64, i64) -> ()
    affine.for %arg1 = 0 to 64 {
      affine.for %arg2 = 0 to 192 {
        affine.for %arg3 = 0 to 7 {
          affine.for %arg4 = 0 to 7 {
            func.call @S162(%arg1, %arg2, %arg3, %arg4, %alloc_185, %alloc_163, %alloc_184) : (index, index, index, index, memref<64x192x7x7xf32>, memref<64x192x7x7xf32>, memref<64x192x7x7xf32>) -> ()
          }
        }
      }
    }
    %alloc_186 = memref.alloc() {alignment = 64 : i64} : memref<64x1152x7x7xf32>
    memref.copy %alloc_168, %alloc_186 : memref<64x1152x7x7xf32> to memref<64x1152x7x7xf32>
    call @set_frequency_caps(%c5000000_i64, %c799999_i64) : (i64, i64) -> ()
    affine.for %arg1 = 0 to 64 {
      affine.for %arg2 = 0 to 1152 {
        affine.for %arg3 = 0 to 7 {
          affine.for %arg4 = 0 to 7 {
            affine.for %arg5 = 0 to 192 {
              affine.for %arg6 = 0 to 1 {
                affine.for %arg7 = 0 to 1 {
                  func.call @S163(%arg1, %arg2, %arg3, %arg4, %alloc_186, %arg5, %arg6, %arg7, %alloc_21, %alloc_185) : (index, index, index, index, memref<64x1152x7x7xf32>, index, index, index, memref<1152x192x1x1xf32>, memref<64x192x7x7xf32>) -> ()
                }
              }
            }
          }
        }
      }
    }
    %alloc_187 = memref.alloc() {alignment = 64 : i64} : memref<64x1152x7x7xf32>
    call @set_frequency_caps(%c5000000_i64, %c4600000_i64) : (i64, i64) -> ()
    affine.for %arg1 = 0 to 64 {
      affine.for %arg2 = 0 to 1152 {
        affine.for %arg3 = 0 to 7 {
          affine.for %arg4 = 0 to 7 {
            func.call @S164(%arg1, %arg2, %arg3, %arg4, %alloc_187, %alloc_186) : (index, index, index, index, memref<64x1152x7x7xf32>, memref<64x1152x7x7xf32>) -> ()
          }
        }
      }
    }
    call @set_frequency_caps(%c5000000_i64, %c4600000_i64) : (i64, i64) -> ()
    affine.for %arg1 = 0 to 64 {
      affine.for %arg2 = 0 to 1152 {
        affine.for %arg3 = 0 to 7 {
          affine.for %arg4 = 0 to 7 {
            func.call @S165(%arg1, %arg2, %arg3, %arg4, %alloc_167, %alloc_187) : (index, index, index, index, memref<64x1152x7x7xf32>, memref<64x1152x7x7xf32>) -> ()
          }
        }
      }
    }
    %alloc_188 = memref.alloc() {alignment = 64 : i64} : memref<64x1152x11x11xf32>
    call @set_frequency_caps(%c5000000_i64, %c4600000_i64) : (i64, i64) -> ()
    affine.for %arg1 = 0 to 64 {
      affine.for %arg2 = 0 to 1152 {
        affine.for %arg3 = 0 to 11 {
          affine.for %arg4 = 0 to 11 {
            func.call @S166(%arg1, %arg2, %arg3, %arg4, %alloc_188) : (index, index, index, index, memref<64x1152x11x11xf32>) -> ()
          }
        }
      }
    }
    %subview_189 = memref.subview %alloc_188[0, 0, 2, 2] [64, 1152, 7, 7] [1, 1, 1, 1] : memref<64x1152x11x11xf32> to memref<64x1152x7x7xf32, strided<[139392, 121, 11, 1], offset: 24>>
    memref.copy %alloc_167, %subview_189 : memref<64x1152x7x7xf32> to memref<64x1152x7x7xf32, strided<[139392, 121, 11, 1], offset: 24>>
    %alloc_190 = memref.alloc() {alignment = 64 : i64} : memref<64x1152x7x7xf32>
    memref.copy %alloc_168, %alloc_190 : memref<64x1152x7x7xf32> to memref<64x1152x7x7xf32>
    call @set_frequency_caps(%c5000000_i64, %c799999_i64) : (i64, i64) -> ()
    affine.for %arg1 = 0 to 64 {
      affine.for %arg2 = 0 to 7 {
        affine.for %arg3 = 0 to 7 {
          affine.for %arg4 = 0 to 1152 {
            affine.for %arg5 = 0 to 5 {
              affine.for %arg6 = 0 to 5 {
                func.call @S167(%arg1, %arg4, %arg2, %arg3, %alloc_190, %arg5, %arg6, %alloc_14, %alloc_188) : (index, index, index, index, memref<64x1152x7x7xf32>, index, index, memref<1152x5x5xf32>, memref<64x1152x11x11xf32>) -> ()
              }
            }
          }
        }
      }
    }
    %alloc_191 = memref.alloc() {alignment = 64 : i64} : memref<64x1152x7x7xf32>
    call @set_frequency_caps(%c5000000_i64, %c4600000_i64) : (i64, i64) -> ()
    affine.for %arg1 = 0 to 64 {
      affine.for %arg2 = 0 to 1152 {
        affine.for %arg3 = 0 to 7 {
          affine.for %arg4 = 0 to 7 {
            func.call @S168(%arg1, %arg2, %arg3, %arg4, %alloc_191, %alloc_190) : (index, index, index, index, memref<64x1152x7x7xf32>, memref<64x1152x7x7xf32>) -> ()
          }
        }
      }
    }
    call @set_frequency_caps(%c5000000_i64, %c4600000_i64) : (i64, i64) -> ()
    affine.for %arg1 = 0 to 64 {
      affine.for %arg2 = 0 to 1152 {
        affine.for %arg3 = 0 to 7 {
          affine.for %arg4 = 0 to 7 {
            func.call @S169(%arg1, %arg2, %arg3, %arg4, %alloc_167, %alloc_191) : (index, index, index, index, memref<64x1152x7x7xf32>, memref<64x1152x7x7xf32>) -> ()
          }
        }
      }
    }
    call @set_frequency_caps(%c5000000_i64, %c799999_i64) : (i64, i64) -> ()
    affine.for %arg1 = 0 to 64 {
      affine.for %arg2 = 0 to 192 {
        affine.for %arg3 = 0 to 7 {
          affine.for %arg4 = 0 to 7 {
            affine.for %arg5 = 0 to 1152 {
              affine.for %arg6 = 0 to 1 {
                affine.for %arg7 = 0 to 1 {
                  func.call @S170(%arg1, %arg2, %arg3, %arg4, %alloc_164, %arg5, %arg6, %arg7, %alloc_20, %alloc_167) : (index, index, index, index, memref<64x192x7x7xf32>, index, index, index, memref<192x1152x1x1xf32>, memref<64x1152x7x7xf32>) -> ()
                }
              }
            }
          }
        }
      }
    }
    %alloc_192 = memref.alloc() {alignment = 64 : i64} : memref<64x192x7x7xf32>
    call @set_frequency_caps(%c5000000_i64, %c4600000_i64) : (i64, i64) -> ()
    affine.for %arg1 = 0 to 64 {
      affine.for %arg2 = 0 to 192 {
        affine.for %arg3 = 0 to 7 {
          affine.for %arg4 = 0 to 7 {
            func.call @S171(%arg1, %arg2, %arg3, %arg4, %alloc_192, %alloc_164) : (index, index, index, index, memref<64x192x7x7xf32>, memref<64x192x7x7xf32>) -> ()
          }
        }
      }
    }
    call @set_frequency_caps(%c5000000_i64, %c4600000_i64) : (i64, i64) -> ()
    affine.for %arg1 = 0 to 64 {
      affine.for %arg2 = 0 to 192 {
        affine.for %arg3 = 0 to 7 {
          affine.for %arg4 = 0 to 7 {
            func.call @S172(%arg1, %arg2, %arg3, %arg4, %alloc_163, %alloc_185, %alloc_192) : (index, index, index, index, memref<64x192x7x7xf32>, memref<64x192x7x7xf32>, memref<64x192x7x7xf32>) -> ()
          }
        }
      }
    }
    %alloc_193 = memref.alloc() {alignment = 64 : i64} : memref<64x1152x7x7xf32>
    memref.copy %alloc_168, %alloc_193 : memref<64x1152x7x7xf32> to memref<64x1152x7x7xf32>
    call @set_frequency_caps(%c5000000_i64, %c799999_i64) : (i64, i64) -> ()
    affine.for %arg1 = 0 to 64 {
      affine.for %arg2 = 0 to 1152 {
        affine.for %arg3 = 0 to 7 {
          affine.for %arg4 = 0 to 7 {
            affine.for %arg5 = 0 to 192 {
              affine.for %arg6 = 0 to 1 {
                affine.for %arg7 = 0 to 1 {
                  func.call @S173(%arg1, %arg2, %arg3, %arg4, %alloc_193, %arg5, %arg6, %arg7, %alloc_19, %alloc_163) : (index, index, index, index, memref<64x1152x7x7xf32>, index, index, index, memref<1152x192x1x1xf32>, memref<64x192x7x7xf32>) -> ()
                }
              }
            }
          }
        }
      }
    }
    %alloc_194 = memref.alloc() {alignment = 64 : i64} : memref<64x1152x7x7xf32>
    call @set_frequency_caps(%c5000000_i64, %c4600000_i64) : (i64, i64) -> ()
    affine.for %arg1 = 0 to 64 {
      affine.for %arg2 = 0 to 1152 {
        affine.for %arg3 = 0 to 7 {
          affine.for %arg4 = 0 to 7 {
            func.call @S174(%arg1, %arg2, %arg3, %arg4, %alloc_194, %alloc_193) : (index, index, index, index, memref<64x1152x7x7xf32>, memref<64x1152x7x7xf32>) -> ()
          }
        }
      }
    }
    call @set_frequency_caps(%c5000000_i64, %c4600000_i64) : (i64, i64) -> ()
    affine.for %arg1 = 0 to 64 {
      affine.for %arg2 = 0 to 1152 {
        affine.for %arg3 = 0 to 7 {
          affine.for %arg4 = 0 to 7 {
            func.call @S175(%arg1, %arg2, %arg3, %arg4, %alloc_167, %alloc_194) : (index, index, index, index, memref<64x1152x7x7xf32>, memref<64x1152x7x7xf32>) -> ()
          }
        }
      }
    }
    %alloc_195 = memref.alloc() {alignment = 64 : i64} : memref<64x1152x9x9xf32>
    call @set_frequency_caps(%c5000000_i64, %c4600000_i64) : (i64, i64) -> ()
    affine.for %arg1 = 0 to 64 {
      affine.for %arg2 = 0 to 1152 {
        affine.for %arg3 = 0 to 9 {
          affine.for %arg4 = 0 to 9 {
            func.call @S176(%arg1, %arg2, %arg3, %arg4, %alloc_195) : (index, index, index, index, memref<64x1152x9x9xf32>) -> ()
          }
        }
      }
    }
    %subview_196 = memref.subview %alloc_195[0, 0, 1, 1] [64, 1152, 7, 7] [1, 1, 1, 1] : memref<64x1152x9x9xf32> to memref<64x1152x7x7xf32, strided<[93312, 81, 9, 1], offset: 10>>
    memref.copy %alloc_167, %subview_196 : memref<64x1152x7x7xf32> to memref<64x1152x7x7xf32, strided<[93312, 81, 9, 1], offset: 10>>
    call @set_frequency_caps(%c5000000_i64, %c799999_i64) : (i64, i64) -> ()
    affine.for %arg1 = 0 to 64 {
      affine.for %arg2 = 0 to 7 {
        affine.for %arg3 = 0 to 7 {
          affine.for %arg4 = 0 to 1152 {
            affine.for %arg5 = 0 to 3 {
              affine.for %arg6 = 0 to 3 {
                func.call @S177(%arg1, %arg4, %arg2, %arg3, %alloc_168, %arg5, %arg6, %alloc_15, %alloc_195) : (index, index, index, index, memref<64x1152x7x7xf32>, index, index, memref<1152x3x3xf32>, memref<64x1152x9x9xf32>) -> ()
              }
            }
          }
        }
      }
    }
    %alloc_197 = memref.alloc() {alignment = 64 : i64} : memref<64x1152x7x7xf32>
    call @set_frequency_caps(%c5000000_i64, %c4600000_i64) : (i64, i64) -> ()
    affine.for %arg1 = 0 to 64 {
      affine.for %arg2 = 0 to 1152 {
        affine.for %arg3 = 0 to 7 {
          affine.for %arg4 = 0 to 7 {
            func.call @S178(%arg1, %arg2, %arg3, %arg4, %alloc_197, %alloc_168) : (index, index, index, index, memref<64x1152x7x7xf32>, memref<64x1152x7x7xf32>) -> ()
          }
        }
      }
    }
    call @set_frequency_caps(%c899999_i64, %c4600000_i64) : (i64, i64) -> ()
    affine.for %arg1 = 0 to 64 {
      affine.for %arg2 = 0 to 1152 {
        affine.for %arg3 = 0 to 7 {
          affine.for %arg4 = 0 to 7 {
            func.call @S179(%arg1, %arg2, %arg3, %arg4, %alloc_167, %alloc_197) : (index, index, index, index, memref<64x1152x7x7xf32>, memref<64x1152x7x7xf32>) -> ()
          }
        }
      }
    }
    %alloc_198 = memref.alloc() {alignment = 64 : i64} : memref<64x320x7x7xf32>
    call @set_frequency_caps(%c5000000_i64, %c4600000_i64) : (i64, i64) -> ()
    affine.for %arg1 = 0 to 64 {
      affine.for %arg2 = 0 to 320 {
        affine.for %arg3 = 0 to 7 {
          affine.for %arg4 = 0 to 7 {
            func.call @S180(%arg1, %arg2, %arg3, %arg4, %alloc_198) : (index, index, index, index, memref<64x320x7x7xf32>) -> ()
          }
        }
      }
    }
    call @set_frequency_caps(%c5000000_i64, %c799999_i64) : (i64, i64) -> ()
    affine.for %arg1 = 0 to 64 {
      affine.for %arg2 = 0 to 320 {
        affine.for %arg3 = 0 to 7 {
          affine.for %arg4 = 0 to 7 {
            affine.for %arg5 = 0 to 1152 {
              affine.for %arg6 = 0 to 1 {
                affine.for %arg7 = 0 to 1 {
                  func.call @S181(%arg1, %arg2, %arg3, %arg4, %alloc_198, %arg5, %arg6, %arg7, %alloc_18, %alloc_167) : (index, index, index, index, memref<64x320x7x7xf32>, index, index, index, memref<320x1152x1x1xf32>, memref<64x1152x7x7xf32>) -> ()
                }
              }
            }
          }
        }
      }
    }
    %alloc_199 = memref.alloc() {alignment = 64 : i64} : memref<64x320x7x7xf32>
    call @set_frequency_caps(%c5000000_i64, %c4600000_i64) : (i64, i64) -> ()
    affine.for %arg1 = 0 to 64 {
      affine.for %arg2 = 0 to 320 {
        affine.for %arg3 = 0 to 7 {
          affine.for %arg4 = 0 to 7 {
            func.call @S182(%arg1, %arg2, %arg3, %arg4, %alloc_199, %alloc_198) : (index, index, index, index, memref<64x320x7x7xf32>, memref<64x320x7x7xf32>) -> ()
          }
        }
      }
    }
    %alloc_200 = memref.alloc() {alignment = 64 : i64} : memref<64x1280x7x7xf32>
    call @set_frequency_caps(%c5000000_i64, %c4600000_i64) : (i64, i64) -> ()
    affine.for %arg1 = 0 to 64 {
      affine.for %arg2 = 0 to 1280 {
        affine.for %arg3 = 0 to 7 {
          affine.for %arg4 = 0 to 7 {
            func.call @S183(%arg1, %arg2, %arg3, %arg4, %alloc_200) : (index, index, index, index, memref<64x1280x7x7xf32>) -> ()
          }
        }
      }
    }
    call @set_frequency_caps(%c5000000_i64, %c799999_i64) : (i64, i64) -> ()
    affine.for %arg1 = 0 to 64 {
      affine.for %arg2 = 0 to 1280 {
        affine.for %arg3 = 0 to 7 {
          affine.for %arg4 = 0 to 7 {
            affine.for %arg5 = 0 to 320 {
              affine.for %arg6 = 0 to 1 {
                affine.for %arg7 = 0 to 1 {
                  func.call @S184(%arg1, %arg2, %arg3, %arg4, %alloc_200, %arg5, %arg6, %arg7, %alloc_17, %alloc_199) : (index, index, index, index, memref<64x1280x7x7xf32>, index, index, index, memref<1280x320x1x1xf32>, memref<64x320x7x7xf32>) -> ()
                }
              }
            }
          }
        }
      }
    }
    %alloc_201 = memref.alloc() {alignment = 64 : i64} : memref<64x1280x7x7xf32>
    call @set_frequency_caps(%c5000000_i64, %c4600000_i64) : (i64, i64) -> ()
    affine.for %arg1 = 0 to 64 {
      affine.for %arg2 = 0 to 1280 {
        affine.for %arg3 = 0 to 7 {
          affine.for %arg4 = 0 to 7 {
            func.call @S185(%arg1, %arg2, %arg3, %arg4, %alloc_201, %alloc_200) : (index, index, index, index, memref<64x1280x7x7xf32>, memref<64x1280x7x7xf32>) -> ()
          }
        }
      }
    }
    call @set_frequency_caps(%c5000000_i64, %c4600000_i64) : (i64, i64) -> ()
    affine.for %arg1 = 0 to 64 {
      affine.for %arg2 = 0 to 1280 {
        affine.for %arg3 = 0 to 7 {
          affine.for %arg4 = 0 to 7 {
            func.call @S186(%arg1, %arg2, %arg3, %arg4, %alloc_200, %alloc_201) : (index, index, index, index, memref<64x1280x7x7xf32>, memref<64x1280x7x7xf32>) -> ()
          }
        }
      }
    }
    %alloc_202 = memref.alloc() {alignment = 64 : i64} : memref<64x1280xf32>
    %alloc_203 = memref.alloc() {alignment = 64 : i64} : memref<64x1280xf32>
    call @set_frequency_caps(%c5000000_i64, %c4600000_i64) : (i64, i64) -> ()
    affine.for %arg1 = 0 to 64 {
      affine.for %arg2 = 0 to 1280 {
        func.call @S187(%arg1, %arg2, %alloc_203) : (index, index, memref<64x1280xf32>) -> ()
      }
    }
    call @set_frequency_caps(%c5000000_i64, %c4600000_i64) : (i64, i64) -> ()
    affine.for %arg1 = 0 to 64 {
      affine.for %arg2 = 0 to 1280 {
        affine.for %arg3 = 0 to 7 {
          affine.for %arg4 = 0 to 7 {
            func.call @S188(%arg1, %arg2, %alloc_203, %arg3, %arg4, %alloc_200) : (index, index, memref<64x1280xf32>, index, index, memref<64x1280x7x7xf32>) -> ()
          }
        }
      }
    }
    call @set_frequency_caps(%c5000000_i64, %c4600000_i64) : (i64, i64) -> ()
    affine.for %arg1 = 0 to 64 {
      affine.for %arg2 = 0 to 1280 {
        func.call @S189(%arg1, %arg2, %alloc_202, %alloc_203) : (index, index, memref<64x1280xf32>, memref<64x1280xf32>) -> ()
      }
    }
    %alloc_204 = memref.alloc() {alignment = 64 : i64} : memref<1280x1000xf32>
    call @set_frequency_caps(%c5000000_i64, %c4600000_i64) : (i64, i64) -> ()
    affine.for %arg1 = 0 to 1000 {
      affine.for %arg2 = 0 to 1280 {
        func.call @S190(%arg2, %arg1, %alloc_204, %alloc_16) : (index, index, memref<1280x1000xf32>, memref<1000x1280xf32>) -> ()
      }
    }
    %alloc_205 = memref.alloc() {alignment = 64 : i64} : memref<64x1000xf32>
    %alloc_206 = memref.alloc() {alignment = 64 : i64} : memref<64x1000xf32>
    call @set_frequency_caps(%c5000000_i64, %c4600000_i64) : (i64, i64) -> ()
    affine.for %arg1 = 0 to 64 {
      affine.for %arg2 = 0 to 1000 {
        func.call @S191(%arg1, %arg2, %alloc_206) : (index, index, memref<64x1000xf32>) -> ()
      }
    }
    call @set_frequency_caps(%c5000000_i64, %c799999_i64) : (i64, i64) -> ()
    affine.for %arg1 = 0 to 64 {
      affine.for %arg2 = 0 to 1000 {
        affine.for %arg3 = 0 to 1280 {
          func.call @S192(%arg1, %arg2, %alloc_206, %arg3, %alloc_204, %alloc_202) : (index, index, memref<64x1000xf32>, index, memref<1280x1000xf32>, memref<64x1280xf32>) -> ()
        }
      }
    }
    call @set_frequency_caps(%c5000000_i64, %c4600000_i64) : (i64, i64) -> ()
    affine.for %arg1 = 0 to 64 {
      affine.for %arg2 = 0 to 1000 {
        func.call @S193(%arg1, %arg2, %alloc_205, %alloc_206) : (index, index, memref<64x1000xf32>, memref<64x1000xf32>) -> ()
      }
    }
    memref.dealloc %alloc_53 : memref<64x32x112x112xf32>
    memref.dealloc %alloc_54 : memref<64x32x112x112xf32>
    memref.dealloc %alloc_55 : memref<64x32x112x112xf32>
    memref.dealloc %alloc_56 : memref<64x32x112x112xf32>
    memref.dealloc %alloc_59 : memref<64x32x112x112xf32>
    memref.dealloc %alloc_60 : memref<64x16x112x112xf32>
    memref.dealloc %alloc_61 : memref<64x16x112x112xf32>
    memref.dealloc %alloc_62 : memref<64x48x112x112xf32>
    memref.dealloc %alloc_63 : memref<64x48x112x112xf32>
    memref.dealloc %alloc_66 : memref<64x48x56x56xf32>
    memref.dealloc %alloc_67 : memref<64x48x56x56xf32>
    memref.dealloc %alloc_68 : memref<64x24x56x56xf32>
    memref.dealloc %alloc_69 : memref<64x24x56x56xf32>
    memref.dealloc %alloc_70 : memref<64x24x56x56xf32>
    memref.dealloc %alloc_71 : memref<64x72x56x56xf32>
    memref.dealloc %alloc_72 : memref<64x72x56x56xf32>
    memref.dealloc %alloc_73 : memref<64x72x56x56xf32>
    memref.dealloc %alloc_74 : memref<64x72x56x56xf32>
    memref.dealloc %alloc_77 : memref<64x72x56x56xf32>
    memref.dealloc %alloc_78 : memref<64x72x56x56xf32>
    memref.dealloc %alloc_79 : memref<64x24x56x56xf32>
    memref.dealloc %alloc_80 : memref<64x24x56x56xf32>
    memref.dealloc %alloc_81 : memref<64x24x56x56xf32>
    memref.dealloc %alloc_82 : memref<64x72x56x56xf32>
    memref.dealloc %alloc_83 : memref<64x72x56x56xf32>
    memref.dealloc %alloc_86 : memref<64x72x56x56xf32>
    memref.dealloc %alloc_87 : memref<64x72x56x56xf32>
    memref.dealloc %alloc_88 : memref<64x24x56x56xf32>
    memref.dealloc %alloc_89 : memref<64x72x56x56xf32>
    memref.dealloc %alloc_92 : memref<64x72x28x28xf32>
    memref.dealloc %alloc_93 : memref<64x72x28x28xf32>
    memref.dealloc %alloc_94 : memref<64x40x28x28xf32>
    memref.dealloc %alloc_95 : memref<64x40x28x28xf32>
    memref.dealloc %alloc_96 : memref<64x40x28x28xf32>
    memref.dealloc %alloc_97 : memref<64x120x28x28xf32>
    memref.dealloc %alloc_98 : memref<64x120x28x28xf32>
    memref.dealloc %alloc_99 : memref<64x120x28x28xf32>
    memref.dealloc %alloc_100 : memref<64x120x28x28xf32>
    memref.dealloc %alloc_103 : memref<64x120x28x28xf32>
    memref.dealloc %alloc_104 : memref<64x120x28x28xf32>
    memref.dealloc %alloc_105 : memref<64x40x28x28xf32>
    memref.dealloc %alloc_106 : memref<64x40x28x28xf32>
    memref.dealloc %alloc_107 : memref<64x40x28x28xf32>
    memref.dealloc %alloc_108 : memref<64x120x28x28xf32>
    memref.dealloc %alloc_109 : memref<64x120x28x28xf32>
    memref.dealloc %alloc_112 : memref<64x120x28x28xf32>
    memref.dealloc %alloc_113 : memref<64x40x28x28xf32>
    memref.dealloc %alloc_114 : memref<64x240x28x28xf32>
    memref.dealloc %alloc_115 : memref<64x240x28x28xf32>
    memref.dealloc %alloc_118 : memref<64x240x14x14xf32>
    memref.dealloc %alloc_119 : memref<64x240x14x14xf32>
    memref.dealloc %alloc_120 : memref<64x80x14x14xf32>
    memref.dealloc %alloc_121 : memref<64x80x14x14xf32>
    memref.dealloc %alloc_122 : memref<64x80x14x14xf32>
    memref.dealloc %alloc_123 : memref<64x480x14x14xf32>
    memref.dealloc %alloc_124 : memref<64x480x14x14xf32>
    memref.dealloc %alloc_125 : memref<64x480x14x14xf32>
    memref.dealloc %alloc_126 : memref<64x480x14x14xf32>
    memref.dealloc %alloc_129 : memref<64x480x14x14xf32>
    memref.dealloc %alloc_130 : memref<64x480x14x14xf32>
    memref.dealloc %alloc_131 : memref<64x80x14x14xf32>
    memref.dealloc %alloc_132 : memref<64x80x14x14xf32>
    memref.dealloc %alloc_133 : memref<64x80x14x14xf32>
    memref.dealloc %alloc_134 : memref<64x480x14x14xf32>
    memref.dealloc %alloc_135 : memref<64x480x14x14xf32>
    memref.dealloc %alloc_138 : memref<64x480x14x14xf32>
    memref.dealloc %alloc_139 : memref<64x480x14x14xf32>
    memref.dealloc %alloc_140 : memref<64x80x14x14xf32>
    memref.dealloc %alloc_141 : memref<64x480x14x14xf32>
    memref.dealloc %alloc_142 : memref<64x480x14x14xf32>
    memref.dealloc %alloc_145 : memref<64x480x14x14xf32>
    memref.dealloc %alloc_146 : memref<64x96x14x14xf32>
    memref.dealloc %alloc_147 : memref<64x96x14x14xf32>
    memref.dealloc %alloc_148 : memref<64x96x14x14xf32>
    memref.dealloc %alloc_149 : memref<64x576x14x14xf32>
    memref.dealloc %alloc_150 : memref<64x576x14x14xf32>
    memref.dealloc %alloc_151 : memref<64x576x14x14xf32>
    memref.dealloc %alloc_152 : memref<64x576x14x14xf32>
    memref.dealloc %alloc_155 : memref<64x576x14x14xf32>
    memref.dealloc %alloc_156 : memref<64x576x14x14xf32>
    memref.dealloc %alloc_157 : memref<64x96x14x14xf32>
    memref.dealloc %alloc_158 : memref<64x576x14x14xf32>
    memref.dealloc %alloc_161 : memref<64x576x7x7xf32>
    memref.dealloc %alloc_162 : memref<64x576x7x7xf32>
    memref.dealloc %alloc_163 : memref<64x192x7x7xf32>
    memref.dealloc %alloc_164 : memref<64x192x7x7xf32>
    memref.dealloc %alloc_165 : memref<64x192x7x7xf32>
    memref.dealloc %alloc_166 : memref<64x192x7x7xf32>
    memref.dealloc %alloc_167 : memref<64x1152x7x7xf32>
    memref.dealloc %alloc_168 : memref<64x1152x7x7xf32>
    memref.dealloc %alloc_169 : memref<64x1152x7x7xf32>
    memref.dealloc %alloc_170 : memref<64x1152x7x7xf32>
    memref.dealloc %alloc_173 : memref<64x1152x7x7xf32>
    memref.dealloc %alloc_174 : memref<64x1152x7x7xf32>
    memref.dealloc %alloc_175 : memref<64x192x7x7xf32>
    memref.dealloc %alloc_176 : memref<64x192x7x7xf32>
    memref.dealloc %alloc_177 : memref<64x1152x7x7xf32>
    memref.dealloc %alloc_178 : memref<64x1152x7x7xf32>
    memref.dealloc %alloc_181 : memref<64x1152x7x7xf32>
    memref.dealloc %alloc_182 : memref<64x1152x7x7xf32>
    memref.dealloc %alloc_183 : memref<64x192x7x7xf32>
    memref.dealloc %alloc_184 : memref<64x192x7x7xf32>
    memref.dealloc %alloc_185 : memref<64x192x7x7xf32>
    memref.dealloc %alloc_186 : memref<64x1152x7x7xf32>
    memref.dealloc %alloc_187 : memref<64x1152x7x7xf32>
    memref.dealloc %alloc_190 : memref<64x1152x7x7xf32>
    memref.dealloc %alloc_191 : memref<64x1152x7x7xf32>
    memref.dealloc %alloc_192 : memref<64x192x7x7xf32>
    memref.dealloc %alloc_193 : memref<64x1152x7x7xf32>
    memref.dealloc %alloc_194 : memref<64x1152x7x7xf32>
    memref.dealloc %alloc_197 : memref<64x1152x7x7xf32>
    memref.dealloc %alloc_198 : memref<64x320x7x7xf32>
    memref.dealloc %alloc_199 : memref<64x320x7x7xf32>
    memref.dealloc %alloc_200 : memref<64x1280x7x7xf32>
    memref.dealloc %alloc_201 : memref<64x1280x7x7xf32>
    memref.dealloc %alloc_202 : memref<64x1280xf32>
    memref.dealloc %alloc_203 : memref<64x1280xf32>
    memref.dealloc %alloc_204 : memref<1280x1000xf32>
    memref.dealloc %alloc_205 : memref<64x1000xf32>
    memref.dealloc %alloc_206 : memref<64x1000xf32>
    memref.dealloc %alloc_52 : memref<64x3x226x226xf32>
    memref.dealloc %alloc_57 : memref<64x32x114x114xf32>
    memref.dealloc %alloc_64 : memref<64x48x114x114xf32>
    memref.dealloc %alloc_75 : memref<64x72x58x58xf32>
    memref.dealloc %alloc_84 : memref<64x72x58x58xf32>
    memref.dealloc %alloc_90 : memref<64x72x60x60xf32>
    memref.dealloc %alloc_101 : memref<64x120x32x32xf32>
    memref.dealloc %alloc_110 : memref<64x120x32x32xf32>
    memref.dealloc %alloc_116 : memref<64x240x32x32xf32>
    memref.dealloc %alloc_127 : memref<64x480x18x18xf32>
    memref.dealloc %alloc_136 : memref<64x480x18x18xf32>
    memref.dealloc %alloc_143 : memref<64x480x16x16xf32>
    memref.dealloc %alloc_153 : memref<64x576x16x16xf32>
    memref.dealloc %alloc_159 : memref<64x576x18x18xf32>
    memref.dealloc %alloc_171 : memref<64x1152x11x11xf32>
    memref.dealloc %alloc_179 : memref<64x1152x11x11xf32>
    memref.dealloc %alloc_188 : memref<64x1152x11x11xf32>
    memref.dealloc %alloc_195 : memref<64x1152x9x9xf32>
    return %alloc_205 : memref<64x1000xf32>
  }
}

