module attributes {torch.debug_module_name = "MobileNetV3"} {
  func.func private @start_energy_time()
  func.func private @stop_energy_time()
  func.func private @print_energy_time()
  func.func private @set_frequency_caps(i64, i64)
  func.func private @S0(%arg0: index, %arg1: index, %arg2: index, %arg3: index, %arg4: memref<64x3x226x226xf32>) attributes {scop.stmt} {
    %cst = arith.constant 0.000000e+00 : f32
    affine.store %cst, %arg4[symbol(%arg0), symbol(%arg1), symbol(%arg2), symbol(%arg3)] : memref<64x3x226x226xf32>
    return
  }
  func.func private @S1(%arg0: index, %arg1: index, %arg2: index, %arg3: index, %arg4: memref<64x16x112x112xf32>) attributes {scop.stmt} {
    %cst = arith.constant 0.000000e+00 : f32
    affine.store %cst, %arg4[symbol(%arg0), symbol(%arg1), symbol(%arg2), symbol(%arg3)] : memref<64x16x112x112xf32>
    return
  }
  func.func private @S2(%arg0: index, %arg1: index, %arg2: index, %arg3: index, %arg4: memref<64x16x112x112xf32>, %arg5: index, %arg6: index, %arg7: index, %arg8: memref<16x3x3x3xf32>, %arg9: memref<64x3x226x226xf32>) attributes {scop.stmt} {
    %0 = affine.load %arg4[symbol(%arg0), symbol(%arg1), symbol(%arg2), symbol(%arg3)] : memref<64x16x112x112xf32>
    %1 = affine.load %arg9[symbol(%arg0), symbol(%arg5), symbol(%arg2) * 2 + symbol(%arg6), symbol(%arg3) * 2 + symbol(%arg7)] : memref<64x3x226x226xf32>
    %2 = affine.load %arg8[symbol(%arg1), symbol(%arg5), symbol(%arg6), symbol(%arg7)] : memref<16x3x3x3xf32>
    %3 = arith.mulf %1, %2 : f32
    %4 = arith.addf %0, %3 : f32
    affine.store %4, %arg4[symbol(%arg0), symbol(%arg1), symbol(%arg2), symbol(%arg3)] : memref<64x16x112x112xf32>
    return
  }
  func.func private @S3(%arg0: index, %arg1: index, %arg2: index, %arg3: index, %arg4: memref<64x16x112x112xf32>, %arg5: memref<64x16x112x112xf32>) attributes {scop.stmt} {
    %cst = arith.constant 0.000000e+00 : f32
    %cst_0 = arith.constant 1.000000e+00 : f32
    %cst_1 = arith.constant 1.000000e-03 : f64
    %0 = affine.load %arg5[symbol(%arg0), symbol(%arg1), symbol(%arg2), symbol(%arg3)] : memref<64x16x112x112xf32>
    %1 = arith.truncf %cst_1 : f64 to f32
    %2 = arith.addf %1, %cst_0 : f32
    %3 = math.rsqrt %2 : f32
    %4 = arith.mulf %0, %3 : f32
    %5 = arith.addf %4, %cst : f32
    affine.store %5, %arg4[symbol(%arg0), symbol(%arg1), symbol(%arg2), symbol(%arg3)] : memref<64x16x112x112xf32>
    return
  }
  func.func private @S4(%arg0: index, %arg1: index, %arg2: index, %arg3: index, %arg4: memref<64x16x112x112xf32>, %arg5: memref<64x16x112x112xf32>) attributes {scop.stmt} {
    %cst = arith.constant 3.000000e+00 : f32
    %0 = affine.load %arg5[symbol(%arg0), symbol(%arg1), symbol(%arg2), symbol(%arg3)] : memref<64x16x112x112xf32>
    %1 = arith.addf %0, %cst : f32
    affine.store %1, %arg4[symbol(%arg0), symbol(%arg1), symbol(%arg2), symbol(%arg3)] : memref<64x16x112x112xf32>
    return
  }
  func.func private @S5(%arg0: index, %arg1: index, %arg2: index, %arg3: index, %arg4: memref<64x16x112x112xf32>, %arg5: memref<64x16x112x112xf32>) attributes {scop.stmt} {
    %cst = arith.constant 0.000000e+00 : f32
    %0 = affine.load %arg5[symbol(%arg0), symbol(%arg1), symbol(%arg2), symbol(%arg3)] : memref<64x16x112x112xf32>
    %1 = arith.cmpf ugt, %0, %cst : f32
    %2 = arith.select %1, %0, %cst : f32
    affine.store %2, %arg4[symbol(%arg0), symbol(%arg1), symbol(%arg2), symbol(%arg3)] : memref<64x16x112x112xf32>
    return
  }
  func.func private @S6(%arg0: memref<i64>) attributes {scop.stmt} {
    %c6_i64 = arith.constant 6 : i64
    affine.store %c6_i64, %arg0[] : memref<i64>
    return
  }
  func.func private @S7(%arg0: memref<f32>, %arg1: memref<i64>) attributes {scop.stmt} {
    %0 = affine.load %arg1[] : memref<i64>
    %1 = arith.sitofp %0 : i64 to f32
    affine.store %1, %arg0[] : memref<f32>
    return
  }
  func.func private @S8(%arg0: index, %arg1: index, %arg2: index, %arg3: index, %arg4: memref<64x16x112x112xf32>, %arg5: memref<f32>, %arg6: memref<64x16x112x112xf32>) attributes {scop.stmt} {
    %0 = affine.load %arg6[symbol(%arg0), symbol(%arg1), symbol(%arg2), symbol(%arg3)] : memref<64x16x112x112xf32>
    %1 = affine.load %arg5[] : memref<f32>
    %2 = arith.cmpf ult, %0, %1 : f32
    %3 = arith.select %2, %0, %1 : f32
    affine.store %3, %arg4[symbol(%arg0), symbol(%arg1), symbol(%arg2), symbol(%arg3)] : memref<64x16x112x112xf32>
    return
  }
  func.func private @S9(%arg0: index, %arg1: index, %arg2: index, %arg3: index, %arg4: memref<64x16x112x112xf32>, %arg5: memref<64x16x112x112xf32>) attributes {scop.stmt} {
    %cst = arith.constant 6.000000e+00 : f32
    %0 = affine.load %arg5[symbol(%arg0), symbol(%arg1), symbol(%arg2), symbol(%arg3)] : memref<64x16x112x112xf32>
    %1 = arith.divf %0, %cst : f32
    affine.store %1, %arg4[symbol(%arg0), symbol(%arg1), symbol(%arg2), symbol(%arg3)] : memref<64x16x112x112xf32>
    return
  }
  func.func private @S10(%arg0: index, %arg1: index, %arg2: index, %arg3: index, %arg4: memref<64x16x112x112xf32>, %arg5: memref<64x16x112x112xf32>, %arg6: memref<64x16x112x112xf32>) attributes {scop.stmt} {
    %0 = affine.load %arg6[symbol(%arg0), symbol(%arg1), symbol(%arg2), symbol(%arg3)] : memref<64x16x112x112xf32>
    %1 = affine.load %arg5[symbol(%arg0), symbol(%arg1), symbol(%arg2), symbol(%arg3)] : memref<64x16x112x112xf32>
    %2 = arith.mulf %0, %1 : f32
    affine.store %2, %arg4[symbol(%arg0), symbol(%arg1), symbol(%arg2), symbol(%arg3)] : memref<64x16x112x112xf32>
    return
  }
  func.func private @S11(%arg0: index, %arg1: index, %arg2: index, %arg3: index, %arg4: memref<64x16x114x114xf32>) attributes {scop.stmt} {
    %cst = arith.constant 0.000000e+00 : f32
    affine.store %cst, %arg4[symbol(%arg0), symbol(%arg1), symbol(%arg2), symbol(%arg3)] : memref<64x16x114x114xf32>
    return
  }
  func.func private @S12(%arg0: index, %arg1: index, %arg2: index, %arg3: index, %arg4: memref<64x16x112x112xf32>, %arg5: index, %arg6: index, %arg7: memref<16x3x3xf32>, %arg8: memref<64x16x114x114xf32>) attributes {scop.stmt} {
    %0 = affine.load %arg4[symbol(%arg0), symbol(%arg1), symbol(%arg2), symbol(%arg3)] : memref<64x16x112x112xf32>
    %1 = affine.load %arg8[symbol(%arg0), symbol(%arg1), symbol(%arg2) + symbol(%arg5), symbol(%arg3) + symbol(%arg6)] : memref<64x16x114x114xf32>
    %2 = affine.load %arg7[symbol(%arg1), symbol(%arg5), symbol(%arg6)] : memref<16x3x3xf32>
    %3 = arith.mulf %1, %2 : f32
    %4 = arith.addf %0, %3 : f32
    affine.store %4, %arg4[symbol(%arg0), symbol(%arg1), symbol(%arg2), symbol(%arg3)] : memref<64x16x112x112xf32>
    return
  }
  func.func private @S13(%arg0: index, %arg1: index, %arg2: index, %arg3: index, %arg4: memref<64x16x112x112xf32>, %arg5: memref<64x16x112x112xf32>) attributes {scop.stmt} {
    %cst = arith.constant 0.000000e+00 : f32
    %cst_0 = arith.constant 1.000000e+00 : f32
    %cst_1 = arith.constant 1.000000e-03 : f64
    %0 = affine.load %arg5[symbol(%arg0), symbol(%arg1), symbol(%arg2), symbol(%arg3)] : memref<64x16x112x112xf32>
    %1 = arith.truncf %cst_1 : f64 to f32
    %2 = arith.addf %1, %cst_0 : f32
    %3 = math.rsqrt %2 : f32
    %4 = arith.mulf %0, %3 : f32
    %5 = arith.addf %4, %cst : f32
    affine.store %5, %arg4[symbol(%arg0), symbol(%arg1), symbol(%arg2), symbol(%arg3)] : memref<64x16x112x112xf32>
    return
  }
  func.func private @S14(%arg0: index, %arg1: index, %arg2: index, %arg3: index, %arg4: memref<64x16x112x112xf32>, %arg5: memref<64x16x112x112xf32>) attributes {scop.stmt} {
    %cst = arith.constant 0.000000e+00 : f32
    %0 = affine.load %arg5[symbol(%arg0), symbol(%arg1), symbol(%arg2), symbol(%arg3)] : memref<64x16x112x112xf32>
    %1 = arith.cmpf ugt, %0, %cst : f32
    %2 = arith.select %1, %0, %cst : f32
    affine.store %2, %arg4[symbol(%arg0), symbol(%arg1), symbol(%arg2), symbol(%arg3)] : memref<64x16x112x112xf32>
    return
  }
  func.func private @S15(%arg0: index, %arg1: index, %arg2: index, %arg3: index, %arg4: memref<64x16x112x112xf32>, %arg5: index, %arg6: index, %arg7: index, %arg8: memref<16x16x1x1xf32>, %arg9: memref<64x16x112x112xf32>) attributes {scop.stmt} {
    %0 = affine.load %arg4[symbol(%arg0), symbol(%arg1), symbol(%arg2), symbol(%arg3)] : memref<64x16x112x112xf32>
    %1 = affine.load %arg9[symbol(%arg0), symbol(%arg5), symbol(%arg2) + symbol(%arg6), symbol(%arg3) + symbol(%arg7)] : memref<64x16x112x112xf32>
    %2 = affine.load %arg8[symbol(%arg1), symbol(%arg5), symbol(%arg6), symbol(%arg7)] : memref<16x16x1x1xf32>
    %3 = arith.mulf %1, %2 : f32
    %4 = arith.addf %0, %3 : f32
    affine.store %4, %arg4[symbol(%arg0), symbol(%arg1), symbol(%arg2), symbol(%arg3)] : memref<64x16x112x112xf32>
    return
  }
  func.func private @S16(%arg0: index, %arg1: index, %arg2: index, %arg3: index, %arg4: memref<64x16x112x112xf32>, %arg5: memref<64x16x112x112xf32>) attributes {scop.stmt} {
    %cst = arith.constant 0.000000e+00 : f32
    %cst_0 = arith.constant 1.000000e+00 : f32
    %cst_1 = arith.constant 1.000000e-03 : f64
    %0 = affine.load %arg5[symbol(%arg0), symbol(%arg1), symbol(%arg2), symbol(%arg3)] : memref<64x16x112x112xf32>
    %1 = arith.truncf %cst_1 : f64 to f32
    %2 = arith.addf %1, %cst_0 : f32
    %3 = math.rsqrt %2 : f32
    %4 = arith.mulf %0, %3 : f32
    %5 = arith.addf %4, %cst : f32
    affine.store %5, %arg4[symbol(%arg0), symbol(%arg1), symbol(%arg2), symbol(%arg3)] : memref<64x16x112x112xf32>
    return
  }
  func.func private @S17(%arg0: index, %arg1: index, %arg2: index, %arg3: index, %arg4: memref<64x16x112x112xf32>, %arg5: memref<64x16x112x112xf32>, %arg6: memref<64x16x112x112xf32>) attributes {scop.stmt} {
    %0 = affine.load %arg6[symbol(%arg0), symbol(%arg1), symbol(%arg2), symbol(%arg3)] : memref<64x16x112x112xf32>
    %1 = affine.load %arg5[symbol(%arg0), symbol(%arg1), symbol(%arg2), symbol(%arg3)] : memref<64x16x112x112xf32>
    %2 = arith.addf %0, %1 : f32
    affine.store %2, %arg4[symbol(%arg0), symbol(%arg1), symbol(%arg2), symbol(%arg3)] : memref<64x16x112x112xf32>
    return
  }
  func.func private @S18(%arg0: index, %arg1: index, %arg2: index, %arg3: index, %arg4: memref<64x64x112x112xf32>) attributes {scop.stmt} {
    %cst = arith.constant 0.000000e+00 : f32
    affine.store %cst, %arg4[symbol(%arg0), symbol(%arg1), symbol(%arg2), symbol(%arg3)] : memref<64x64x112x112xf32>
    return
  }
  func.func private @S19(%arg0: index, %arg1: index, %arg2: index, %arg3: index, %arg4: memref<64x64x112x112xf32>, %arg5: index, %arg6: index, %arg7: index, %arg8: memref<64x16x1x1xf32>, %arg9: memref<64x16x112x112xf32>) attributes {scop.stmt} {
    %0 = affine.load %arg4[symbol(%arg0), symbol(%arg1), symbol(%arg2), symbol(%arg3)] : memref<64x64x112x112xf32>
    %1 = affine.load %arg9[symbol(%arg0), symbol(%arg5), symbol(%arg2) + symbol(%arg6), symbol(%arg3) + symbol(%arg7)] : memref<64x16x112x112xf32>
    %2 = affine.load %arg8[symbol(%arg1), symbol(%arg5), symbol(%arg6), symbol(%arg7)] : memref<64x16x1x1xf32>
    %3 = arith.mulf %1, %2 : f32
    %4 = arith.addf %0, %3 : f32
    affine.store %4, %arg4[symbol(%arg0), symbol(%arg1), symbol(%arg2), symbol(%arg3)] : memref<64x64x112x112xf32>
    return
  }
  func.func private @S20(%arg0: index, %arg1: index, %arg2: index, %arg3: index, %arg4: memref<64x64x112x112xf32>, %arg5: memref<64x64x112x112xf32>) attributes {scop.stmt} {
    %cst = arith.constant 0.000000e+00 : f32
    %cst_0 = arith.constant 1.000000e+00 : f32
    %cst_1 = arith.constant 1.000000e-03 : f64
    %0 = affine.load %arg5[symbol(%arg0), symbol(%arg1), symbol(%arg2), symbol(%arg3)] : memref<64x64x112x112xf32>
    %1 = arith.truncf %cst_1 : f64 to f32
    %2 = arith.addf %1, %cst_0 : f32
    %3 = math.rsqrt %2 : f32
    %4 = arith.mulf %0, %3 : f32
    %5 = arith.addf %4, %cst : f32
    affine.store %5, %arg4[symbol(%arg0), symbol(%arg1), symbol(%arg2), symbol(%arg3)] : memref<64x64x112x112xf32>
    return
  }
  func.func private @S21(%arg0: index, %arg1: index, %arg2: index, %arg3: index, %arg4: memref<64x64x112x112xf32>, %arg5: memref<64x64x112x112xf32>) attributes {scop.stmt} {
    %cst = arith.constant 0.000000e+00 : f32
    %0 = affine.load %arg5[symbol(%arg0), symbol(%arg1), symbol(%arg2), symbol(%arg3)] : memref<64x64x112x112xf32>
    %1 = arith.cmpf ugt, %0, %cst : f32
    %2 = arith.select %1, %0, %cst : f32
    affine.store %2, %arg4[symbol(%arg0), symbol(%arg1), symbol(%arg2), symbol(%arg3)] : memref<64x64x112x112xf32>
    return
  }
  func.func private @S22(%arg0: index, %arg1: index, %arg2: index, %arg3: index, %arg4: memref<64x64x114x114xf32>) attributes {scop.stmt} {
    %cst = arith.constant 0.000000e+00 : f32
    affine.store %cst, %arg4[symbol(%arg0), symbol(%arg1), symbol(%arg2), symbol(%arg3)] : memref<64x64x114x114xf32>
    return
  }
  func.func private @S23(%arg0: index, %arg1: index, %arg2: index, %arg3: index, %arg4: memref<64x64x56x56xf32>) attributes {scop.stmt} {
    %cst = arith.constant 0.000000e+00 : f32
    affine.store %cst, %arg4[symbol(%arg0), symbol(%arg1), symbol(%arg2), symbol(%arg3)] : memref<64x64x56x56xf32>
    return
  }
  func.func private @S24(%arg0: index, %arg1: index, %arg2: index, %arg3: index, %arg4: memref<64x64x56x56xf32>, %arg5: index, %arg6: index, %arg7: memref<64x3x3xf32>, %arg8: memref<64x64x114x114xf32>) attributes {scop.stmt} {
    %0 = affine.load %arg4[symbol(%arg0), symbol(%arg1), symbol(%arg2), symbol(%arg3)] : memref<64x64x56x56xf32>
    %1 = affine.load %arg8[symbol(%arg0), symbol(%arg1), symbol(%arg2) * 2 + symbol(%arg5), symbol(%arg3) * 2 + symbol(%arg6)] : memref<64x64x114x114xf32>
    %2 = affine.load %arg7[symbol(%arg1), symbol(%arg5), symbol(%arg6)] : memref<64x3x3xf32>
    %3 = arith.mulf %1, %2 : f32
    %4 = arith.addf %0, %3 : f32
    affine.store %4, %arg4[symbol(%arg0), symbol(%arg1), symbol(%arg2), symbol(%arg3)] : memref<64x64x56x56xf32>
    return
  }
  func.func private @S25(%arg0: index, %arg1: index, %arg2: index, %arg3: index, %arg4: memref<64x64x56x56xf32>, %arg5: memref<64x64x56x56xf32>) attributes {scop.stmt} {
    %cst = arith.constant 0.000000e+00 : f32
    %cst_0 = arith.constant 1.000000e+00 : f32
    %cst_1 = arith.constant 1.000000e-03 : f64
    %0 = affine.load %arg5[symbol(%arg0), symbol(%arg1), symbol(%arg2), symbol(%arg3)] : memref<64x64x56x56xf32>
    %1 = arith.truncf %cst_1 : f64 to f32
    %2 = arith.addf %1, %cst_0 : f32
    %3 = math.rsqrt %2 : f32
    %4 = arith.mulf %0, %3 : f32
    %5 = arith.addf %4, %cst : f32
    affine.store %5, %arg4[symbol(%arg0), symbol(%arg1), symbol(%arg2), symbol(%arg3)] : memref<64x64x56x56xf32>
    return
  }
  func.func private @S26(%arg0: index, %arg1: index, %arg2: index, %arg3: index, %arg4: memref<64x64x56x56xf32>, %arg5: memref<64x64x56x56xf32>) attributes {scop.stmt} {
    %cst = arith.constant 0.000000e+00 : f32
    %0 = affine.load %arg5[symbol(%arg0), symbol(%arg1), symbol(%arg2), symbol(%arg3)] : memref<64x64x56x56xf32>
    %1 = arith.cmpf ugt, %0, %cst : f32
    %2 = arith.select %1, %0, %cst : f32
    affine.store %2, %arg4[symbol(%arg0), symbol(%arg1), symbol(%arg2), symbol(%arg3)] : memref<64x64x56x56xf32>
    return
  }
  func.func private @S27(%arg0: index, %arg1: index, %arg2: index, %arg3: index, %arg4: memref<64x24x56x56xf32>) attributes {scop.stmt} {
    %cst = arith.constant 0.000000e+00 : f32
    affine.store %cst, %arg4[symbol(%arg0), symbol(%arg1), symbol(%arg2), symbol(%arg3)] : memref<64x24x56x56xf32>
    return
  }
  func.func private @S28(%arg0: index, %arg1: index, %arg2: index, %arg3: index, %arg4: memref<64x24x56x56xf32>, %arg5: index, %arg6: index, %arg7: index, %arg8: memref<24x64x1x1xf32>, %arg9: memref<64x64x56x56xf32>) attributes {scop.stmt} {
    %0 = affine.load %arg4[symbol(%arg0), symbol(%arg1), symbol(%arg2), symbol(%arg3)] : memref<64x24x56x56xf32>
    %1 = affine.load %arg9[symbol(%arg0), symbol(%arg5), symbol(%arg2) + symbol(%arg6), symbol(%arg3) + symbol(%arg7)] : memref<64x64x56x56xf32>
    %2 = affine.load %arg8[symbol(%arg1), symbol(%arg5), symbol(%arg6), symbol(%arg7)] : memref<24x64x1x1xf32>
    %3 = arith.mulf %1, %2 : f32
    %4 = arith.addf %0, %3 : f32
    affine.store %4, %arg4[symbol(%arg0), symbol(%arg1), symbol(%arg2), symbol(%arg3)] : memref<64x24x56x56xf32>
    return
  }
  func.func private @S29(%arg0: index, %arg1: index, %arg2: index, %arg3: index, %arg4: memref<64x24x56x56xf32>, %arg5: memref<64x24x56x56xf32>) attributes {scop.stmt} {
    %cst = arith.constant 0.000000e+00 : f32
    %cst_0 = arith.constant 1.000000e+00 : f32
    %cst_1 = arith.constant 1.000000e-03 : f64
    %0 = affine.load %arg5[symbol(%arg0), symbol(%arg1), symbol(%arg2), symbol(%arg3)] : memref<64x24x56x56xf32>
    %1 = arith.truncf %cst_1 : f64 to f32
    %2 = arith.addf %1, %cst_0 : f32
    %3 = math.rsqrt %2 : f32
    %4 = arith.mulf %0, %3 : f32
    %5 = arith.addf %4, %cst : f32
    affine.store %5, %arg4[symbol(%arg0), symbol(%arg1), symbol(%arg2), symbol(%arg3)] : memref<64x24x56x56xf32>
    return
  }
  func.func private @S30(%arg0: index, %arg1: index, %arg2: index, %arg3: index, %arg4: memref<64x72x56x56xf32>) attributes {scop.stmt} {
    %cst = arith.constant 0.000000e+00 : f32
    affine.store %cst, %arg4[symbol(%arg0), symbol(%arg1), symbol(%arg2), symbol(%arg3)] : memref<64x72x56x56xf32>
    return
  }
  func.func private @S31(%arg0: index, %arg1: index, %arg2: index, %arg3: index, %arg4: memref<64x72x56x56xf32>, %arg5: index, %arg6: index, %arg7: index, %arg8: memref<72x24x1x1xf32>, %arg9: memref<64x24x56x56xf32>) attributes {scop.stmt} {
    %0 = affine.load %arg4[symbol(%arg0), symbol(%arg1), symbol(%arg2), symbol(%arg3)] : memref<64x72x56x56xf32>
    %1 = affine.load %arg9[symbol(%arg0), symbol(%arg5), symbol(%arg2) + symbol(%arg6), symbol(%arg3) + symbol(%arg7)] : memref<64x24x56x56xf32>
    %2 = affine.load %arg8[symbol(%arg1), symbol(%arg5), symbol(%arg6), symbol(%arg7)] : memref<72x24x1x1xf32>
    %3 = arith.mulf %1, %2 : f32
    %4 = arith.addf %0, %3 : f32
    affine.store %4, %arg4[symbol(%arg0), symbol(%arg1), symbol(%arg2), symbol(%arg3)] : memref<64x72x56x56xf32>
    return
  }
  func.func private @S32(%arg0: index, %arg1: index, %arg2: index, %arg3: index, %arg4: memref<64x72x56x56xf32>, %arg5: memref<64x72x56x56xf32>) attributes {scop.stmt} {
    %cst = arith.constant 0.000000e+00 : f32
    %cst_0 = arith.constant 1.000000e+00 : f32
    %cst_1 = arith.constant 1.000000e-03 : f64
    %0 = affine.load %arg5[symbol(%arg0), symbol(%arg1), symbol(%arg2), symbol(%arg3)] : memref<64x72x56x56xf32>
    %1 = arith.truncf %cst_1 : f64 to f32
    %2 = arith.addf %1, %cst_0 : f32
    %3 = math.rsqrt %2 : f32
    %4 = arith.mulf %0, %3 : f32
    %5 = arith.addf %4, %cst : f32
    affine.store %5, %arg4[symbol(%arg0), symbol(%arg1), symbol(%arg2), symbol(%arg3)] : memref<64x72x56x56xf32>
    return
  }
  func.func private @S33(%arg0: index, %arg1: index, %arg2: index, %arg3: index, %arg4: memref<64x72x56x56xf32>, %arg5: memref<64x72x56x56xf32>) attributes {scop.stmt} {
    %cst = arith.constant 0.000000e+00 : f32
    %0 = affine.load %arg5[symbol(%arg0), symbol(%arg1), symbol(%arg2), symbol(%arg3)] : memref<64x72x56x56xf32>
    %1 = arith.cmpf ugt, %0, %cst : f32
    %2 = arith.select %1, %0, %cst : f32
    affine.store %2, %arg4[symbol(%arg0), symbol(%arg1), symbol(%arg2), symbol(%arg3)] : memref<64x72x56x56xf32>
    return
  }
  func.func private @S34(%arg0: index, %arg1: index, %arg2: index, %arg3: index, %arg4: memref<64x72x58x58xf32>) attributes {scop.stmt} {
    %cst = arith.constant 0.000000e+00 : f32
    affine.store %cst, %arg4[symbol(%arg0), symbol(%arg1), symbol(%arg2), symbol(%arg3)] : memref<64x72x58x58xf32>
    return
  }
  func.func private @S35(%arg0: index, %arg1: index, %arg2: index, %arg3: index, %arg4: memref<64x72x56x56xf32>, %arg5: index, %arg6: index, %arg7: memref<72x3x3xf32>, %arg8: memref<64x72x58x58xf32>) attributes {scop.stmt} {
    %0 = affine.load %arg4[symbol(%arg0), symbol(%arg1), symbol(%arg2), symbol(%arg3)] : memref<64x72x56x56xf32>
    %1 = affine.load %arg8[symbol(%arg0), symbol(%arg1), symbol(%arg2) + symbol(%arg5), symbol(%arg3) + symbol(%arg6)] : memref<64x72x58x58xf32>
    %2 = affine.load %arg7[symbol(%arg1), symbol(%arg5), symbol(%arg6)] : memref<72x3x3xf32>
    %3 = arith.mulf %1, %2 : f32
    %4 = arith.addf %0, %3 : f32
    affine.store %4, %arg4[symbol(%arg0), symbol(%arg1), symbol(%arg2), symbol(%arg3)] : memref<64x72x56x56xf32>
    return
  }
  func.func private @S36(%arg0: index, %arg1: index, %arg2: index, %arg3: index, %arg4: memref<64x72x56x56xf32>, %arg5: memref<64x72x56x56xf32>) attributes {scop.stmt} {
    %cst = arith.constant 0.000000e+00 : f32
    %cst_0 = arith.constant 1.000000e+00 : f32
    %cst_1 = arith.constant 1.000000e-03 : f64
    %0 = affine.load %arg5[symbol(%arg0), symbol(%arg1), symbol(%arg2), symbol(%arg3)] : memref<64x72x56x56xf32>
    %1 = arith.truncf %cst_1 : f64 to f32
    %2 = arith.addf %1, %cst_0 : f32
    %3 = math.rsqrt %2 : f32
    %4 = arith.mulf %0, %3 : f32
    %5 = arith.addf %4, %cst : f32
    affine.store %5, %arg4[symbol(%arg0), symbol(%arg1), symbol(%arg2), symbol(%arg3)] : memref<64x72x56x56xf32>
    return
  }
  func.func private @S37(%arg0: index, %arg1: index, %arg2: index, %arg3: index, %arg4: memref<64x72x56x56xf32>, %arg5: memref<64x72x56x56xf32>) attributes {scop.stmt} {
    %cst = arith.constant 0.000000e+00 : f32
    %0 = affine.load %arg5[symbol(%arg0), symbol(%arg1), symbol(%arg2), symbol(%arg3)] : memref<64x72x56x56xf32>
    %1 = arith.cmpf ugt, %0, %cst : f32
    %2 = arith.select %1, %0, %cst : f32
    affine.store %2, %arg4[symbol(%arg0), symbol(%arg1), symbol(%arg2), symbol(%arg3)] : memref<64x72x56x56xf32>
    return
  }
  func.func private @S38(%arg0: index, %arg1: index, %arg2: index, %arg3: index, %arg4: memref<64x24x56x56xf32>, %arg5: index, %arg6: index, %arg7: index, %arg8: memref<24x72x1x1xf32>, %arg9: memref<64x72x56x56xf32>) attributes {scop.stmt} {
    %0 = affine.load %arg4[symbol(%arg0), symbol(%arg1), symbol(%arg2), symbol(%arg3)] : memref<64x24x56x56xf32>
    %1 = affine.load %arg9[symbol(%arg0), symbol(%arg5), symbol(%arg2) + symbol(%arg6), symbol(%arg3) + symbol(%arg7)] : memref<64x72x56x56xf32>
    %2 = affine.load %arg8[symbol(%arg1), symbol(%arg5), symbol(%arg6), symbol(%arg7)] : memref<24x72x1x1xf32>
    %3 = arith.mulf %1, %2 : f32
    %4 = arith.addf %0, %3 : f32
    affine.store %4, %arg4[symbol(%arg0), symbol(%arg1), symbol(%arg2), symbol(%arg3)] : memref<64x24x56x56xf32>
    return
  }
  func.func private @S39(%arg0: index, %arg1: index, %arg2: index, %arg3: index, %arg4: memref<64x24x56x56xf32>, %arg5: memref<64x24x56x56xf32>) attributes {scop.stmt} {
    %cst = arith.constant 0.000000e+00 : f32
    %cst_0 = arith.constant 1.000000e+00 : f32
    %cst_1 = arith.constant 1.000000e-03 : f64
    %0 = affine.load %arg5[symbol(%arg0), symbol(%arg1), symbol(%arg2), symbol(%arg3)] : memref<64x24x56x56xf32>
    %1 = arith.truncf %cst_1 : f64 to f32
    %2 = arith.addf %1, %cst_0 : f32
    %3 = math.rsqrt %2 : f32
    %4 = arith.mulf %0, %3 : f32
    %5 = arith.addf %4, %cst : f32
    affine.store %5, %arg4[symbol(%arg0), symbol(%arg1), symbol(%arg2), symbol(%arg3)] : memref<64x24x56x56xf32>
    return
  }
  func.func private @S40(%arg0: index, %arg1: index, %arg2: index, %arg3: index, %arg4: memref<64x24x56x56xf32>, %arg5: memref<64x24x56x56xf32>, %arg6: memref<64x24x56x56xf32>) attributes {scop.stmt} {
    %0 = affine.load %arg6[symbol(%arg0), symbol(%arg1), symbol(%arg2), symbol(%arg3)] : memref<64x24x56x56xf32>
    %1 = affine.load %arg5[symbol(%arg0), symbol(%arg1), symbol(%arg2), symbol(%arg3)] : memref<64x24x56x56xf32>
    %2 = arith.addf %0, %1 : f32
    affine.store %2, %arg4[symbol(%arg0), symbol(%arg1), symbol(%arg2), symbol(%arg3)] : memref<64x24x56x56xf32>
    return
  }
  func.func private @S41(%arg0: index, %arg1: index, %arg2: index, %arg3: index, %arg4: memref<64x72x56x56xf32>, %arg5: index, %arg6: index, %arg7: index, %arg8: memref<72x24x1x1xf32>, %arg9: memref<64x24x56x56xf32>) attributes {scop.stmt} {
    %0 = affine.load %arg4[symbol(%arg0), symbol(%arg1), symbol(%arg2), symbol(%arg3)] : memref<64x72x56x56xf32>
    %1 = affine.load %arg9[symbol(%arg0), symbol(%arg5), symbol(%arg2) + symbol(%arg6), symbol(%arg3) + symbol(%arg7)] : memref<64x24x56x56xf32>
    %2 = affine.load %arg8[symbol(%arg1), symbol(%arg5), symbol(%arg6), symbol(%arg7)] : memref<72x24x1x1xf32>
    %3 = arith.mulf %1, %2 : f32
    %4 = arith.addf %0, %3 : f32
    affine.store %4, %arg4[symbol(%arg0), symbol(%arg1), symbol(%arg2), symbol(%arg3)] : memref<64x72x56x56xf32>
    return
  }
  func.func private @S42(%arg0: index, %arg1: index, %arg2: index, %arg3: index, %arg4: memref<64x72x56x56xf32>, %arg5: memref<64x72x56x56xf32>) attributes {scop.stmt} {
    %cst = arith.constant 0.000000e+00 : f32
    %cst_0 = arith.constant 1.000000e+00 : f32
    %cst_1 = arith.constant 1.000000e-03 : f64
    %0 = affine.load %arg5[symbol(%arg0), symbol(%arg1), symbol(%arg2), symbol(%arg3)] : memref<64x72x56x56xf32>
    %1 = arith.truncf %cst_1 : f64 to f32
    %2 = arith.addf %1, %cst_0 : f32
    %3 = math.rsqrt %2 : f32
    %4 = arith.mulf %0, %3 : f32
    %5 = arith.addf %4, %cst : f32
    affine.store %5, %arg4[symbol(%arg0), symbol(%arg1), symbol(%arg2), symbol(%arg3)] : memref<64x72x56x56xf32>
    return
  }
  func.func private @S43(%arg0: index, %arg1: index, %arg2: index, %arg3: index, %arg4: memref<64x72x56x56xf32>, %arg5: memref<64x72x56x56xf32>) attributes {scop.stmt} {
    %cst = arith.constant 0.000000e+00 : f32
    %0 = affine.load %arg5[symbol(%arg0), symbol(%arg1), symbol(%arg2), symbol(%arg3)] : memref<64x72x56x56xf32>
    %1 = arith.cmpf ugt, %0, %cst : f32
    %2 = arith.select %1, %0, %cst : f32
    affine.store %2, %arg4[symbol(%arg0), symbol(%arg1), symbol(%arg2), symbol(%arg3)] : memref<64x72x56x56xf32>
    return
  }
  func.func private @S44(%arg0: index, %arg1: index, %arg2: index, %arg3: index, %arg4: memref<64x72x60x60xf32>) attributes {scop.stmt} {
    %cst = arith.constant 0.000000e+00 : f32
    affine.store %cst, %arg4[symbol(%arg0), symbol(%arg1), symbol(%arg2), symbol(%arg3)] : memref<64x72x60x60xf32>
    return
  }
  func.func private @S45(%arg0: index, %arg1: index, %arg2: index, %arg3: index, %arg4: memref<64x72x28x28xf32>) attributes {scop.stmt} {
    %cst = arith.constant 0.000000e+00 : f32
    affine.store %cst, %arg4[symbol(%arg0), symbol(%arg1), symbol(%arg2), symbol(%arg3)] : memref<64x72x28x28xf32>
    return
  }
  func.func private @S46(%arg0: index, %arg1: index, %arg2: index, %arg3: index, %arg4: memref<64x72x28x28xf32>, %arg5: index, %arg6: index, %arg7: memref<72x5x5xf32>, %arg8: memref<64x72x60x60xf32>) attributes {scop.stmt} {
    %0 = affine.load %arg4[symbol(%arg0), symbol(%arg1), symbol(%arg2), symbol(%arg3)] : memref<64x72x28x28xf32>
    %1 = affine.load %arg8[symbol(%arg0), symbol(%arg1), symbol(%arg2) * 2 + symbol(%arg5), symbol(%arg3) * 2 + symbol(%arg6)] : memref<64x72x60x60xf32>
    %2 = affine.load %arg7[symbol(%arg1), symbol(%arg5), symbol(%arg6)] : memref<72x5x5xf32>
    %3 = arith.mulf %1, %2 : f32
    %4 = arith.addf %0, %3 : f32
    affine.store %4, %arg4[symbol(%arg0), symbol(%arg1), symbol(%arg2), symbol(%arg3)] : memref<64x72x28x28xf32>
    return
  }
  func.func private @S47(%arg0: index, %arg1: index, %arg2: index, %arg3: index, %arg4: memref<64x72x28x28xf32>, %arg5: memref<64x72x28x28xf32>) attributes {scop.stmt} {
    %cst = arith.constant 0.000000e+00 : f32
    %cst_0 = arith.constant 1.000000e+00 : f32
    %cst_1 = arith.constant 1.000000e-03 : f64
    %0 = affine.load %arg5[symbol(%arg0), symbol(%arg1), symbol(%arg2), symbol(%arg3)] : memref<64x72x28x28xf32>
    %1 = arith.truncf %cst_1 : f64 to f32
    %2 = arith.addf %1, %cst_0 : f32
    %3 = math.rsqrt %2 : f32
    %4 = arith.mulf %0, %3 : f32
    %5 = arith.addf %4, %cst : f32
    affine.store %5, %arg4[symbol(%arg0), symbol(%arg1), symbol(%arg2), symbol(%arg3)] : memref<64x72x28x28xf32>
    return
  }
  func.func private @S48(%arg0: index, %arg1: index, %arg2: index, %arg3: index, %arg4: memref<64x72x28x28xf32>, %arg5: memref<64x72x28x28xf32>) attributes {scop.stmt} {
    %cst = arith.constant 0.000000e+00 : f32
    %0 = affine.load %arg5[symbol(%arg0), symbol(%arg1), symbol(%arg2), symbol(%arg3)] : memref<64x72x28x28xf32>
    %1 = arith.cmpf ugt, %0, %cst : f32
    %2 = arith.select %1, %0, %cst : f32
    affine.store %2, %arg4[symbol(%arg0), symbol(%arg1), symbol(%arg2), symbol(%arg3)] : memref<64x72x28x28xf32>
    return
  }
  func.func private @S49(%arg0: index, %arg1: index, %arg2: index, %arg3: index, %arg4: memref<64x72x1x1xf32>) attributes {scop.stmt} {
    %cst = arith.constant 0.000000e+00 : f32
    affine.store %cst, %arg4[symbol(%arg0), symbol(%arg1), symbol(%arg2), symbol(%arg3)] : memref<64x72x1x1xf32>
    return
  }
  func.func private @S50(%arg0: index, %arg1: index, %arg2: index, %arg3: index, %arg4: memref<64x72x1x1xf32>, %arg5: index, %arg6: index, %arg7: memref<64x72x28x28xf32>) attributes {scop.stmt} {
    %0 = affine.load %arg4[symbol(%arg0), symbol(%arg1), symbol(%arg2), symbol(%arg3)] : memref<64x72x1x1xf32>
    %1 = affine.load %arg7[symbol(%arg0), symbol(%arg1), symbol(%arg2) + symbol(%arg5), symbol(%arg3) + symbol(%arg6)] : memref<64x72x28x28xf32>
    %2 = arith.addf %0, %1 : f32
    affine.store %2, %arg4[symbol(%arg0), symbol(%arg1), symbol(%arg2), symbol(%arg3)] : memref<64x72x1x1xf32>
    return
  }
  func.func private @S51(%arg0: index, %arg1: index, %arg2: index, %arg3: index, %arg4: memref<64x72x1x1xf32>, %arg5: memref<64x72x1x1xf32>) attributes {scop.stmt} {
    %cst = arith.constant 7.840000e+02 : f32
    %0 = affine.load %arg5[symbol(%arg0), symbol(%arg1), symbol(%arg2), symbol(%arg3)] : memref<64x72x1x1xf32>
    %1 = arith.divf %0, %cst : f32
    affine.store %1, %arg4[symbol(%arg0), symbol(%arg1), symbol(%arg2), symbol(%arg3)] : memref<64x72x1x1xf32>
    return
  }
  func.func private @S52(%arg0: index, %arg1: index, %arg2: index, %arg3: index, %arg4: memref<64x24x1x1xf32>) attributes {scop.stmt} {
    %cst = arith.constant 0.000000e+00 : f32
    affine.store %cst, %arg4[symbol(%arg0), symbol(%arg1), symbol(%arg2), symbol(%arg3)] : memref<64x24x1x1xf32>
    return
  }
  func.func private @S53(%arg0: index, %arg1: index, %arg2: index, %arg3: index, %arg4: memref<64x24x1x1xf32>, %arg5: index, %arg6: index, %arg7: index, %arg8: memref<24x72x1x1xf32>, %arg9: memref<64x72x1x1xf32>) attributes {scop.stmt} {
    %0 = affine.load %arg4[symbol(%arg0), symbol(%arg1), symbol(%arg2), symbol(%arg3)] : memref<64x24x1x1xf32>
    %1 = affine.load %arg9[symbol(%arg0), symbol(%arg5), symbol(%arg2) + symbol(%arg6), symbol(%arg3) + symbol(%arg7)] : memref<64x72x1x1xf32>
    %2 = affine.load %arg8[symbol(%arg1), symbol(%arg5), symbol(%arg6), symbol(%arg7)] : memref<24x72x1x1xf32>
    %3 = arith.mulf %1, %2 : f32
    %4 = arith.addf %0, %3 : f32
    affine.store %4, %arg4[symbol(%arg0), symbol(%arg1), symbol(%arg2), symbol(%arg3)] : memref<64x24x1x1xf32>
    return
  }
  func.func private @S54(%arg0: index, %arg1: index, %arg2: index, %arg3: index, %arg4: memref<64x24x1x1xf32>, %arg5: memref<64x24x1x1xf32>) attributes {scop.stmt} {
    %cst = arith.constant 0.000000e+00 : f32
    %0 = affine.load %arg5[symbol(%arg0), symbol(%arg1), 0, 0] : memref<64x24x1x1xf32>
    %1 = arith.cmpf ugt, %0, %cst : f32
    %2 = arith.select %1, %0, %cst : f32
    affine.store %2, %arg4[symbol(%arg0), symbol(%arg1), symbol(%arg2), symbol(%arg3)] : memref<64x24x1x1xf32>
    return
  }
  func.func private @S55(%arg0: index, %arg1: index, %arg2: index, %arg3: index, %arg4: memref<64x72x1x1xf32>) attributes {scop.stmt} {
    %cst = arith.constant 0.000000e+00 : f32
    affine.store %cst, %arg4[symbol(%arg0), symbol(%arg1), symbol(%arg2), symbol(%arg3)] : memref<64x72x1x1xf32>
    return
  }
  func.func private @S56(%arg0: index, %arg1: index, %arg2: index, %arg3: index, %arg4: memref<64x72x1x1xf32>, %arg5: index, %arg6: index, %arg7: index, %arg8: memref<72x24x1x1xf32>, %arg9: memref<64x24x1x1xf32>) attributes {scop.stmt} {
    %0 = affine.load %arg4[symbol(%arg0), symbol(%arg1), symbol(%arg2), symbol(%arg3)] : memref<64x72x1x1xf32>
    %1 = affine.load %arg9[symbol(%arg0), symbol(%arg5), symbol(%arg2) + symbol(%arg6), symbol(%arg3) + symbol(%arg7)] : memref<64x24x1x1xf32>
    %2 = affine.load %arg8[symbol(%arg1), symbol(%arg5), symbol(%arg6), symbol(%arg7)] : memref<72x24x1x1xf32>
    %3 = arith.mulf %1, %2 : f32
    %4 = arith.addf %0, %3 : f32
    affine.store %4, %arg4[symbol(%arg0), symbol(%arg1), symbol(%arg2), symbol(%arg3)] : memref<64x72x1x1xf32>
    return
  }
  func.func private @S57(%arg0: index, %arg1: index, %arg2: index, %arg3: index, %arg4: memref<64x72x1x1xf32>, %arg5: memref<64x72x1x1xf32>) attributes {scop.stmt} {
    %cst = arith.constant 3.000000e+00 : f32
    %0 = affine.load %arg5[symbol(%arg0), symbol(%arg1), 0, 0] : memref<64x72x1x1xf32>
    %1 = arith.addf %0, %cst : f32
    affine.store %1, %arg4[symbol(%arg0), symbol(%arg1), symbol(%arg2), symbol(%arg3)] : memref<64x72x1x1xf32>
    return
  }
  func.func private @S58(%arg0: index, %arg1: index, %arg2: index, %arg3: index, %arg4: memref<64x72x1x1xf32>, %arg5: memref<64x72x1x1xf32>) attributes {scop.stmt} {
    %cst = arith.constant 6.000000e+00 : f32
    %0 = affine.load %arg5[symbol(%arg0), symbol(%arg1), 0, 0] : memref<64x72x1x1xf32>
    %1 = arith.divf %0, %cst : f32
    affine.store %1, %arg4[symbol(%arg0), symbol(%arg1), symbol(%arg2), symbol(%arg3)] : memref<64x72x1x1xf32>
    return
  }
  func.func private @S59(%arg0: memref<i64>) attributes {scop.stmt} {
    %c1_i64 = arith.constant 1 : i64
    affine.store %c1_i64, %arg0[] : memref<i64>
    return
  }
  func.func private @S60(%arg0: memref<f32>, %arg1: memref<i64>) attributes {scop.stmt} {
    %0 = affine.load %arg1[] : memref<i64>
    %1 = arith.sitofp %0 : i64 to f32
    affine.store %1, %arg0[] : memref<f32>
    return
  }
  func.func private @S61(%arg0: index, %arg1: index, %arg2: index, %arg3: index, %arg4: memref<64x72x1x1xf32>, %arg5: memref<64x72x1x1xf32>, %arg6: memref<f32>) attributes {scop.stmt} {
    %0 = affine.load %arg6[] : memref<f32>
    %1 = affine.load %arg5[symbol(%arg0), symbol(%arg1), 0, 0] : memref<64x72x1x1xf32>
    %2 = arith.cmpf ult, %0, %1 : f32
    %3 = arith.select %2, %0, %1 : f32
    affine.store %3, %arg4[symbol(%arg0), symbol(%arg1), symbol(%arg2), symbol(%arg3)] : memref<64x72x1x1xf32>
    return
  }
  func.func private @S62(%arg0: memref<i64>) attributes {scop.stmt} {
    %c0_i64 = arith.constant 0 : i64
    affine.store %c0_i64, %arg0[] : memref<i64>
    return
  }
  func.func private @S63(%arg0: memref<f32>, %arg1: memref<i64>) attributes {scop.stmt} {
    %0 = affine.load %arg1[] : memref<i64>
    %1 = arith.sitofp %0 : i64 to f32
    affine.store %1, %arg0[] : memref<f32>
    return
  }
  func.func private @S64(%arg0: index, %arg1: index, %arg2: index, %arg3: index, %arg4: memref<64x72x1x1xf32>, %arg5: memref<64x72x1x1xf32>, %arg6: memref<f32>) attributes {scop.stmt} {
    %0 = affine.load %arg6[] : memref<f32>
    %1 = affine.load %arg5[symbol(%arg0), symbol(%arg1), 0, 0] : memref<64x72x1x1xf32>
    %2 = arith.cmpf ugt, %0, %1 : f32
    %3 = arith.select %2, %0, %1 : f32
    affine.store %3, %arg4[symbol(%arg0), symbol(%arg1), symbol(%arg2), symbol(%arg3)] : memref<64x72x1x1xf32>
    return
  }
  func.func private @S65(%arg0: index, %arg1: index, %arg2: index, %arg3: index, %arg4: memref<64x72x28x28xf32>, %arg5: memref<64x72x28x28xf32>, %arg6: memref<64x72x1x1xf32>) attributes {scop.stmt} {
    %0 = affine.load %arg6[symbol(%arg0), symbol(%arg1), 0, 0] : memref<64x72x1x1xf32>
    %1 = affine.load %arg5[symbol(%arg0), symbol(%arg1), symbol(%arg2), symbol(%arg3)] : memref<64x72x28x28xf32>
    %2 = arith.mulf %0, %1 : f32
    affine.store %2, %arg4[symbol(%arg0), symbol(%arg1), symbol(%arg2), symbol(%arg3)] : memref<64x72x28x28xf32>
    return
  }
  func.func private @S66(%arg0: index, %arg1: index, %arg2: index, %arg3: index, %arg4: memref<64x40x28x28xf32>) attributes {scop.stmt} {
    %cst = arith.constant 0.000000e+00 : f32
    affine.store %cst, %arg4[symbol(%arg0), symbol(%arg1), symbol(%arg2), symbol(%arg3)] : memref<64x40x28x28xf32>
    return
  }
  func.func private @S67(%arg0: index, %arg1: index, %arg2: index, %arg3: index, %arg4: memref<64x40x28x28xf32>, %arg5: index, %arg6: index, %arg7: index, %arg8: memref<40x72x1x1xf32>, %arg9: memref<64x72x28x28xf32>) attributes {scop.stmt} {
    %0 = affine.load %arg4[symbol(%arg0), symbol(%arg1), symbol(%arg2), symbol(%arg3)] : memref<64x40x28x28xf32>
    %1 = affine.load %arg9[symbol(%arg0), symbol(%arg5), symbol(%arg2) + symbol(%arg6), symbol(%arg3) + symbol(%arg7)] : memref<64x72x28x28xf32>
    %2 = affine.load %arg8[symbol(%arg1), symbol(%arg5), symbol(%arg6), symbol(%arg7)] : memref<40x72x1x1xf32>
    %3 = arith.mulf %1, %2 : f32
    %4 = arith.addf %0, %3 : f32
    affine.store %4, %arg4[symbol(%arg0), symbol(%arg1), symbol(%arg2), symbol(%arg3)] : memref<64x40x28x28xf32>
    return
  }
  func.func private @S68(%arg0: index, %arg1: index, %arg2: index, %arg3: index, %arg4: memref<64x40x28x28xf32>, %arg5: memref<64x40x28x28xf32>) attributes {scop.stmt} {
    %cst = arith.constant 0.000000e+00 : f32
    %cst_0 = arith.constant 1.000000e+00 : f32
    %cst_1 = arith.constant 1.000000e-03 : f64
    %0 = affine.load %arg5[symbol(%arg0), symbol(%arg1), symbol(%arg2), symbol(%arg3)] : memref<64x40x28x28xf32>
    %1 = arith.truncf %cst_1 : f64 to f32
    %2 = arith.addf %1, %cst_0 : f32
    %3 = math.rsqrt %2 : f32
    %4 = arith.mulf %0, %3 : f32
    %5 = arith.addf %4, %cst : f32
    affine.store %5, %arg4[symbol(%arg0), symbol(%arg1), symbol(%arg2), symbol(%arg3)] : memref<64x40x28x28xf32>
    return
  }
  func.func private @S69(%arg0: index, %arg1: index, %arg2: index, %arg3: index, %arg4: memref<64x120x28x28xf32>) attributes {scop.stmt} {
    %cst = arith.constant 0.000000e+00 : f32
    affine.store %cst, %arg4[symbol(%arg0), symbol(%arg1), symbol(%arg2), symbol(%arg3)] : memref<64x120x28x28xf32>
    return
  }
  func.func private @S70(%arg0: index, %arg1: index, %arg2: index, %arg3: index, %arg4: memref<64x120x28x28xf32>, %arg5: index, %arg6: index, %arg7: index, %arg8: memref<120x40x1x1xf32>, %arg9: memref<64x40x28x28xf32>) attributes {scop.stmt} {
    %0 = affine.load %arg4[symbol(%arg0), symbol(%arg1), symbol(%arg2), symbol(%arg3)] : memref<64x120x28x28xf32>
    %1 = affine.load %arg9[symbol(%arg0), symbol(%arg5), symbol(%arg2) + symbol(%arg6), symbol(%arg3) + symbol(%arg7)] : memref<64x40x28x28xf32>
    %2 = affine.load %arg8[symbol(%arg1), symbol(%arg5), symbol(%arg6), symbol(%arg7)] : memref<120x40x1x1xf32>
    %3 = arith.mulf %1, %2 : f32
    %4 = arith.addf %0, %3 : f32
    affine.store %4, %arg4[symbol(%arg0), symbol(%arg1), symbol(%arg2), symbol(%arg3)] : memref<64x120x28x28xf32>
    return
  }
  func.func private @S71(%arg0: index, %arg1: index, %arg2: index, %arg3: index, %arg4: memref<64x120x28x28xf32>, %arg5: memref<64x120x28x28xf32>) attributes {scop.stmt} {
    %cst = arith.constant 0.000000e+00 : f32
    %cst_0 = arith.constant 1.000000e+00 : f32
    %cst_1 = arith.constant 1.000000e-03 : f64
    %0 = affine.load %arg5[symbol(%arg0), symbol(%arg1), symbol(%arg2), symbol(%arg3)] : memref<64x120x28x28xf32>
    %1 = arith.truncf %cst_1 : f64 to f32
    %2 = arith.addf %1, %cst_0 : f32
    %3 = math.rsqrt %2 : f32
    %4 = arith.mulf %0, %3 : f32
    %5 = arith.addf %4, %cst : f32
    affine.store %5, %arg4[symbol(%arg0), symbol(%arg1), symbol(%arg2), symbol(%arg3)] : memref<64x120x28x28xf32>
    return
  }
  func.func private @S72(%arg0: index, %arg1: index, %arg2: index, %arg3: index, %arg4: memref<64x120x28x28xf32>, %arg5: memref<64x120x28x28xf32>) attributes {scop.stmt} {
    %cst = arith.constant 0.000000e+00 : f32
    %0 = affine.load %arg5[symbol(%arg0), symbol(%arg1), symbol(%arg2), symbol(%arg3)] : memref<64x120x28x28xf32>
    %1 = arith.cmpf ugt, %0, %cst : f32
    %2 = arith.select %1, %0, %cst : f32
    affine.store %2, %arg4[symbol(%arg0), symbol(%arg1), symbol(%arg2), symbol(%arg3)] : memref<64x120x28x28xf32>
    return
  }
  func.func private @S73(%arg0: index, %arg1: index, %arg2: index, %arg3: index, %arg4: memref<64x120x32x32xf32>) attributes {scop.stmt} {
    %cst = arith.constant 0.000000e+00 : f32
    affine.store %cst, %arg4[symbol(%arg0), symbol(%arg1), symbol(%arg2), symbol(%arg3)] : memref<64x120x32x32xf32>
    return
  }
  func.func private @S74(%arg0: index, %arg1: index, %arg2: index, %arg3: index, %arg4: memref<64x120x28x28xf32>, %arg5: index, %arg6: index, %arg7: memref<120x5x5xf32>, %arg8: memref<64x120x32x32xf32>) attributes {scop.stmt} {
    %0 = affine.load %arg4[symbol(%arg0), symbol(%arg1), symbol(%arg2), symbol(%arg3)] : memref<64x120x28x28xf32>
    %1 = affine.load %arg8[symbol(%arg0), symbol(%arg1), symbol(%arg2) + symbol(%arg5), symbol(%arg3) + symbol(%arg6)] : memref<64x120x32x32xf32>
    %2 = affine.load %arg7[symbol(%arg1), symbol(%arg5), symbol(%arg6)] : memref<120x5x5xf32>
    %3 = arith.mulf %1, %2 : f32
    %4 = arith.addf %0, %3 : f32
    affine.store %4, %arg4[symbol(%arg0), symbol(%arg1), symbol(%arg2), symbol(%arg3)] : memref<64x120x28x28xf32>
    return
  }
  func.func private @S75(%arg0: index, %arg1: index, %arg2: index, %arg3: index, %arg4: memref<64x120x28x28xf32>, %arg5: memref<64x120x28x28xf32>) attributes {scop.stmt} {
    %cst = arith.constant 0.000000e+00 : f32
    %cst_0 = arith.constant 1.000000e+00 : f32
    %cst_1 = arith.constant 1.000000e-03 : f64
    %0 = affine.load %arg5[symbol(%arg0), symbol(%arg1), symbol(%arg2), symbol(%arg3)] : memref<64x120x28x28xf32>
    %1 = arith.truncf %cst_1 : f64 to f32
    %2 = arith.addf %1, %cst_0 : f32
    %3 = math.rsqrt %2 : f32
    %4 = arith.mulf %0, %3 : f32
    %5 = arith.addf %4, %cst : f32
    affine.store %5, %arg4[symbol(%arg0), symbol(%arg1), symbol(%arg2), symbol(%arg3)] : memref<64x120x28x28xf32>
    return
  }
  func.func private @S76(%arg0: index, %arg1: index, %arg2: index, %arg3: index, %arg4: memref<64x120x28x28xf32>, %arg5: memref<64x120x28x28xf32>) attributes {scop.stmt} {
    %cst = arith.constant 0.000000e+00 : f32
    %0 = affine.load %arg5[symbol(%arg0), symbol(%arg1), symbol(%arg2), symbol(%arg3)] : memref<64x120x28x28xf32>
    %1 = arith.cmpf ugt, %0, %cst : f32
    %2 = arith.select %1, %0, %cst : f32
    affine.store %2, %arg4[symbol(%arg0), symbol(%arg1), symbol(%arg2), symbol(%arg3)] : memref<64x120x28x28xf32>
    return
  }
  func.func private @S77(%arg0: index, %arg1: index, %arg2: index, %arg3: index, %arg4: memref<64x120x1x1xf32>) attributes {scop.stmt} {
    %cst = arith.constant 0.000000e+00 : f32
    affine.store %cst, %arg4[symbol(%arg0), symbol(%arg1), symbol(%arg2), symbol(%arg3)] : memref<64x120x1x1xf32>
    return
  }
  func.func private @S78(%arg0: index, %arg1: index, %arg2: index, %arg3: index, %arg4: memref<64x120x1x1xf32>, %arg5: index, %arg6: index, %arg7: memref<64x120x28x28xf32>) attributes {scop.stmt} {
    %0 = affine.load %arg4[symbol(%arg0), symbol(%arg1), symbol(%arg2), symbol(%arg3)] : memref<64x120x1x1xf32>
    %1 = affine.load %arg7[symbol(%arg0), symbol(%arg1), symbol(%arg2) + symbol(%arg5), symbol(%arg3) + symbol(%arg6)] : memref<64x120x28x28xf32>
    %2 = arith.addf %0, %1 : f32
    affine.store %2, %arg4[symbol(%arg0), symbol(%arg1), symbol(%arg2), symbol(%arg3)] : memref<64x120x1x1xf32>
    return
  }
  func.func private @S79(%arg0: index, %arg1: index, %arg2: index, %arg3: index, %arg4: memref<64x120x1x1xf32>, %arg5: memref<64x120x1x1xf32>) attributes {scop.stmt} {
    %cst = arith.constant 7.840000e+02 : f32
    %0 = affine.load %arg5[symbol(%arg0), symbol(%arg1), symbol(%arg2), symbol(%arg3)] : memref<64x120x1x1xf32>
    %1 = arith.divf %0, %cst : f32
    affine.store %1, %arg4[symbol(%arg0), symbol(%arg1), symbol(%arg2), symbol(%arg3)] : memref<64x120x1x1xf32>
    return
  }
  func.func private @S80(%arg0: index, %arg1: index, %arg2: index, %arg3: index, %arg4: memref<64x32x1x1xf32>) attributes {scop.stmt} {
    %cst = arith.constant 0.000000e+00 : f32
    affine.store %cst, %arg4[symbol(%arg0), symbol(%arg1), symbol(%arg2), symbol(%arg3)] : memref<64x32x1x1xf32>
    return
  }
  func.func private @S81(%arg0: index, %arg1: index, %arg2: index, %arg3: index, %arg4: memref<64x32x1x1xf32>, %arg5: index, %arg6: index, %arg7: index, %arg8: memref<32x120x1x1xf32>, %arg9: memref<64x120x1x1xf32>) attributes {scop.stmt} {
    %0 = affine.load %arg4[symbol(%arg0), symbol(%arg1), symbol(%arg2), symbol(%arg3)] : memref<64x32x1x1xf32>
    %1 = affine.load %arg9[symbol(%arg0), symbol(%arg5), symbol(%arg2) + symbol(%arg6), symbol(%arg3) + symbol(%arg7)] : memref<64x120x1x1xf32>
    %2 = affine.load %arg8[symbol(%arg1), symbol(%arg5), symbol(%arg6), symbol(%arg7)] : memref<32x120x1x1xf32>
    %3 = arith.mulf %1, %2 : f32
    %4 = arith.addf %0, %3 : f32
    affine.store %4, %arg4[symbol(%arg0), symbol(%arg1), symbol(%arg2), symbol(%arg3)] : memref<64x32x1x1xf32>
    return
  }
  func.func private @S82(%arg0: index, %arg1: index, %arg2: index, %arg3: index, %arg4: memref<64x32x1x1xf32>, %arg5: memref<64x32x1x1xf32>) attributes {scop.stmt} {
    %cst = arith.constant 0.000000e+00 : f32
    %0 = affine.load %arg5[symbol(%arg0), symbol(%arg1), 0, 0] : memref<64x32x1x1xf32>
    %1 = arith.cmpf ugt, %0, %cst : f32
    %2 = arith.select %1, %0, %cst : f32
    affine.store %2, %arg4[symbol(%arg0), symbol(%arg1), symbol(%arg2), symbol(%arg3)] : memref<64x32x1x1xf32>
    return
  }
  func.func private @S83(%arg0: index, %arg1: index, %arg2: index, %arg3: index, %arg4: memref<64x120x1x1xf32>) attributes {scop.stmt} {
    %cst = arith.constant 0.000000e+00 : f32
    affine.store %cst, %arg4[symbol(%arg0), symbol(%arg1), symbol(%arg2), symbol(%arg3)] : memref<64x120x1x1xf32>
    return
  }
  func.func private @S84(%arg0: index, %arg1: index, %arg2: index, %arg3: index, %arg4: memref<64x120x1x1xf32>, %arg5: index, %arg6: index, %arg7: index, %arg8: memref<120x32x1x1xf32>, %arg9: memref<64x32x1x1xf32>) attributes {scop.stmt} {
    %0 = affine.load %arg4[symbol(%arg0), symbol(%arg1), symbol(%arg2), symbol(%arg3)] : memref<64x120x1x1xf32>
    %1 = affine.load %arg9[symbol(%arg0), symbol(%arg5), symbol(%arg2) + symbol(%arg6), symbol(%arg3) + symbol(%arg7)] : memref<64x32x1x1xf32>
    %2 = affine.load %arg8[symbol(%arg1), symbol(%arg5), symbol(%arg6), symbol(%arg7)] : memref<120x32x1x1xf32>
    %3 = arith.mulf %1, %2 : f32
    %4 = arith.addf %0, %3 : f32
    affine.store %4, %arg4[symbol(%arg0), symbol(%arg1), symbol(%arg2), symbol(%arg3)] : memref<64x120x1x1xf32>
    return
  }
  func.func private @S85(%arg0: index, %arg1: index, %arg2: index, %arg3: index, %arg4: memref<64x120x1x1xf32>, %arg5: memref<64x120x1x1xf32>) attributes {scop.stmt} {
    %cst = arith.constant 3.000000e+00 : f32
    %0 = affine.load %arg5[symbol(%arg0), symbol(%arg1), 0, 0] : memref<64x120x1x1xf32>
    %1 = arith.addf %0, %cst : f32
    affine.store %1, %arg4[symbol(%arg0), symbol(%arg1), symbol(%arg2), symbol(%arg3)] : memref<64x120x1x1xf32>
    return
  }
  func.func private @S86(%arg0: index, %arg1: index, %arg2: index, %arg3: index, %arg4: memref<64x120x1x1xf32>, %arg5: memref<64x120x1x1xf32>) attributes {scop.stmt} {
    %cst = arith.constant 6.000000e+00 : f32
    %0 = affine.load %arg5[symbol(%arg0), symbol(%arg1), 0, 0] : memref<64x120x1x1xf32>
    %1 = arith.divf %0, %cst : f32
    affine.store %1, %arg4[symbol(%arg0), symbol(%arg1), symbol(%arg2), symbol(%arg3)] : memref<64x120x1x1xf32>
    return
  }
  func.func private @S87(%arg0: index, %arg1: index, %arg2: index, %arg3: index, %arg4: memref<64x120x1x1xf32>, %arg5: memref<64x120x1x1xf32>, %arg6: memref<f32>) attributes {scop.stmt} {
    %0 = affine.load %arg6[] : memref<f32>
    %1 = affine.load %arg5[symbol(%arg0), symbol(%arg1), 0, 0] : memref<64x120x1x1xf32>
    %2 = arith.cmpf ult, %0, %1 : f32
    %3 = arith.select %2, %0, %1 : f32
    affine.store %3, %arg4[symbol(%arg0), symbol(%arg1), symbol(%arg2), symbol(%arg3)] : memref<64x120x1x1xf32>
    return
  }
  func.func private @S88(%arg0: index, %arg1: index, %arg2: index, %arg3: index, %arg4: memref<64x120x1x1xf32>, %arg5: memref<64x120x1x1xf32>, %arg6: memref<f32>) attributes {scop.stmt} {
    %0 = affine.load %arg6[] : memref<f32>
    %1 = affine.load %arg5[symbol(%arg0), symbol(%arg1), 0, 0] : memref<64x120x1x1xf32>
    %2 = arith.cmpf ugt, %0, %1 : f32
    %3 = arith.select %2, %0, %1 : f32
    affine.store %3, %arg4[symbol(%arg0), symbol(%arg1), symbol(%arg2), symbol(%arg3)] : memref<64x120x1x1xf32>
    return
  }
  func.func private @S89(%arg0: index, %arg1: index, %arg2: index, %arg3: index, %arg4: memref<64x120x28x28xf32>, %arg5: memref<64x120x28x28xf32>, %arg6: memref<64x120x1x1xf32>) attributes {scop.stmt} {
    %0 = affine.load %arg6[symbol(%arg0), symbol(%arg1), 0, 0] : memref<64x120x1x1xf32>
    %1 = affine.load %arg5[symbol(%arg0), symbol(%arg1), symbol(%arg2), symbol(%arg3)] : memref<64x120x28x28xf32>
    %2 = arith.mulf %0, %1 : f32
    affine.store %2, %arg4[symbol(%arg0), symbol(%arg1), symbol(%arg2), symbol(%arg3)] : memref<64x120x28x28xf32>
    return
  }
  func.func private @S90(%arg0: index, %arg1: index, %arg2: index, %arg3: index, %arg4: memref<64x40x28x28xf32>, %arg5: index, %arg6: index, %arg7: index, %arg8: memref<40x120x1x1xf32>, %arg9: memref<64x120x28x28xf32>) attributes {scop.stmt} {
    %0 = affine.load %arg4[symbol(%arg0), symbol(%arg1), symbol(%arg2), symbol(%arg3)] : memref<64x40x28x28xf32>
    %1 = affine.load %arg9[symbol(%arg0), symbol(%arg5), symbol(%arg2) + symbol(%arg6), symbol(%arg3) + symbol(%arg7)] : memref<64x120x28x28xf32>
    %2 = affine.load %arg8[symbol(%arg1), symbol(%arg5), symbol(%arg6), symbol(%arg7)] : memref<40x120x1x1xf32>
    %3 = arith.mulf %1, %2 : f32
    %4 = arith.addf %0, %3 : f32
    affine.store %4, %arg4[symbol(%arg0), symbol(%arg1), symbol(%arg2), symbol(%arg3)] : memref<64x40x28x28xf32>
    return
  }
  func.func private @S91(%arg0: index, %arg1: index, %arg2: index, %arg3: index, %arg4: memref<64x40x28x28xf32>, %arg5: memref<64x40x28x28xf32>) attributes {scop.stmt} {
    %cst = arith.constant 0.000000e+00 : f32
    %cst_0 = arith.constant 1.000000e+00 : f32
    %cst_1 = arith.constant 1.000000e-03 : f64
    %0 = affine.load %arg5[symbol(%arg0), symbol(%arg1), symbol(%arg2), symbol(%arg3)] : memref<64x40x28x28xf32>
    %1 = arith.truncf %cst_1 : f64 to f32
    %2 = arith.addf %1, %cst_0 : f32
    %3 = math.rsqrt %2 : f32
    %4 = arith.mulf %0, %3 : f32
    %5 = arith.addf %4, %cst : f32
    affine.store %5, %arg4[symbol(%arg0), symbol(%arg1), symbol(%arg2), symbol(%arg3)] : memref<64x40x28x28xf32>
    return
  }
  func.func private @S92(%arg0: index, %arg1: index, %arg2: index, %arg3: index, %arg4: memref<64x40x28x28xf32>, %arg5: memref<64x40x28x28xf32>, %arg6: memref<64x40x28x28xf32>) attributes {scop.stmt} {
    %0 = affine.load %arg6[symbol(%arg0), symbol(%arg1), symbol(%arg2), symbol(%arg3)] : memref<64x40x28x28xf32>
    %1 = affine.load %arg5[symbol(%arg0), symbol(%arg1), symbol(%arg2), symbol(%arg3)] : memref<64x40x28x28xf32>
    %2 = arith.addf %0, %1 : f32
    affine.store %2, %arg4[symbol(%arg0), symbol(%arg1), symbol(%arg2), symbol(%arg3)] : memref<64x40x28x28xf32>
    return
  }
  func.func private @S93(%arg0: index, %arg1: index, %arg2: index, %arg3: index, %arg4: memref<64x120x28x28xf32>, %arg5: index, %arg6: index, %arg7: index, %arg8: memref<120x40x1x1xf32>, %arg9: memref<64x40x28x28xf32>) attributes {scop.stmt} {
    %0 = affine.load %arg4[symbol(%arg0), symbol(%arg1), symbol(%arg2), symbol(%arg3)] : memref<64x120x28x28xf32>
    %1 = affine.load %arg9[symbol(%arg0), symbol(%arg5), symbol(%arg2) + symbol(%arg6), symbol(%arg3) + symbol(%arg7)] : memref<64x40x28x28xf32>
    %2 = affine.load %arg8[symbol(%arg1), symbol(%arg5), symbol(%arg6), symbol(%arg7)] : memref<120x40x1x1xf32>
    %3 = arith.mulf %1, %2 : f32
    %4 = arith.addf %0, %3 : f32
    affine.store %4, %arg4[symbol(%arg0), symbol(%arg1), symbol(%arg2), symbol(%arg3)] : memref<64x120x28x28xf32>
    return
  }
  func.func private @S94(%arg0: index, %arg1: index, %arg2: index, %arg3: index, %arg4: memref<64x120x28x28xf32>, %arg5: memref<64x120x28x28xf32>) attributes {scop.stmt} {
    %cst = arith.constant 0.000000e+00 : f32
    %cst_0 = arith.constant 1.000000e+00 : f32
    %cst_1 = arith.constant 1.000000e-03 : f64
    %0 = affine.load %arg5[symbol(%arg0), symbol(%arg1), symbol(%arg2), symbol(%arg3)] : memref<64x120x28x28xf32>
    %1 = arith.truncf %cst_1 : f64 to f32
    %2 = arith.addf %1, %cst_0 : f32
    %3 = math.rsqrt %2 : f32
    %4 = arith.mulf %0, %3 : f32
    %5 = arith.addf %4, %cst : f32
    affine.store %5, %arg4[symbol(%arg0), symbol(%arg1), symbol(%arg2), symbol(%arg3)] : memref<64x120x28x28xf32>
    return
  }
  func.func private @S95(%arg0: index, %arg1: index, %arg2: index, %arg3: index, %arg4: memref<64x120x28x28xf32>, %arg5: memref<64x120x28x28xf32>) attributes {scop.stmt} {
    %cst = arith.constant 0.000000e+00 : f32
    %0 = affine.load %arg5[symbol(%arg0), symbol(%arg1), symbol(%arg2), symbol(%arg3)] : memref<64x120x28x28xf32>
    %1 = arith.cmpf ugt, %0, %cst : f32
    %2 = arith.select %1, %0, %cst : f32
    affine.store %2, %arg4[symbol(%arg0), symbol(%arg1), symbol(%arg2), symbol(%arg3)] : memref<64x120x28x28xf32>
    return
  }
  func.func private @S96(%arg0: index, %arg1: index, %arg2: index, %arg3: index, %arg4: memref<64x120x32x32xf32>) attributes {scop.stmt} {
    %cst = arith.constant 0.000000e+00 : f32
    affine.store %cst, %arg4[symbol(%arg0), symbol(%arg1), symbol(%arg2), symbol(%arg3)] : memref<64x120x32x32xf32>
    return
  }
  func.func private @S97(%arg0: index, %arg1: index, %arg2: index, %arg3: index, %arg4: memref<64x120x28x28xf32>, %arg5: index, %arg6: index, %arg7: memref<120x5x5xf32>, %arg8: memref<64x120x32x32xf32>) attributes {scop.stmt} {
    %0 = affine.load %arg4[symbol(%arg0), symbol(%arg1), symbol(%arg2), symbol(%arg3)] : memref<64x120x28x28xf32>
    %1 = affine.load %arg8[symbol(%arg0), symbol(%arg1), symbol(%arg2) + symbol(%arg5), symbol(%arg3) + symbol(%arg6)] : memref<64x120x32x32xf32>
    %2 = affine.load %arg7[symbol(%arg1), symbol(%arg5), symbol(%arg6)] : memref<120x5x5xf32>
    %3 = arith.mulf %1, %2 : f32
    %4 = arith.addf %0, %3 : f32
    affine.store %4, %arg4[symbol(%arg0), symbol(%arg1), symbol(%arg2), symbol(%arg3)] : memref<64x120x28x28xf32>
    return
  }
  func.func private @S98(%arg0: index, %arg1: index, %arg2: index, %arg3: index, %arg4: memref<64x120x28x28xf32>, %arg5: memref<64x120x28x28xf32>) attributes {scop.stmt} {
    %cst = arith.constant 0.000000e+00 : f32
    %cst_0 = arith.constant 1.000000e+00 : f32
    %cst_1 = arith.constant 1.000000e-03 : f64
    %0 = affine.load %arg5[symbol(%arg0), symbol(%arg1), symbol(%arg2), symbol(%arg3)] : memref<64x120x28x28xf32>
    %1 = arith.truncf %cst_1 : f64 to f32
    %2 = arith.addf %1, %cst_0 : f32
    %3 = math.rsqrt %2 : f32
    %4 = arith.mulf %0, %3 : f32
    %5 = arith.addf %4, %cst : f32
    affine.store %5, %arg4[symbol(%arg0), symbol(%arg1), symbol(%arg2), symbol(%arg3)] : memref<64x120x28x28xf32>
    return
  }
  func.func private @S99(%arg0: index, %arg1: index, %arg2: index, %arg3: index, %arg4: memref<64x120x28x28xf32>, %arg5: memref<64x120x28x28xf32>) attributes {scop.stmt} {
    %cst = arith.constant 0.000000e+00 : f32
    %0 = affine.load %arg5[symbol(%arg0), symbol(%arg1), symbol(%arg2), symbol(%arg3)] : memref<64x120x28x28xf32>
    %1 = arith.cmpf ugt, %0, %cst : f32
    %2 = arith.select %1, %0, %cst : f32
    affine.store %2, %arg4[symbol(%arg0), symbol(%arg1), symbol(%arg2), symbol(%arg3)] : memref<64x120x28x28xf32>
    return
  }
  func.func private @S100(%arg0: index, %arg1: index, %arg2: index, %arg3: index, %arg4: memref<64x120x1x1xf32>, %arg5: index, %arg6: index, %arg7: memref<64x120x28x28xf32>) attributes {scop.stmt} {
    %0 = affine.load %arg4[symbol(%arg0), symbol(%arg1), symbol(%arg2), symbol(%arg3)] : memref<64x120x1x1xf32>
    %1 = affine.load %arg7[symbol(%arg0), symbol(%arg1), symbol(%arg2) + symbol(%arg5), symbol(%arg3) + symbol(%arg6)] : memref<64x120x28x28xf32>
    %2 = arith.addf %0, %1 : f32
    affine.store %2, %arg4[symbol(%arg0), symbol(%arg1), symbol(%arg2), symbol(%arg3)] : memref<64x120x1x1xf32>
    return
  }
  func.func private @S101(%arg0: index, %arg1: index, %arg2: index, %arg3: index, %arg4: memref<64x120x1x1xf32>, %arg5: memref<64x120x1x1xf32>) attributes {scop.stmt} {
    %cst = arith.constant 7.840000e+02 : f32
    %0 = affine.load %arg5[symbol(%arg0), symbol(%arg1), symbol(%arg2), symbol(%arg3)] : memref<64x120x1x1xf32>
    %1 = arith.divf %0, %cst : f32
    affine.store %1, %arg4[symbol(%arg0), symbol(%arg1), symbol(%arg2), symbol(%arg3)] : memref<64x120x1x1xf32>
    return
  }
  func.func private @S102(%arg0: index, %arg1: index, %arg2: index, %arg3: index, %arg4: memref<64x32x1x1xf32>, %arg5: index, %arg6: index, %arg7: index, %arg8: memref<32x120x1x1xf32>, %arg9: memref<64x120x1x1xf32>) attributes {scop.stmt} {
    %0 = affine.load %arg4[symbol(%arg0), symbol(%arg1), symbol(%arg2), symbol(%arg3)] : memref<64x32x1x1xf32>
    %1 = affine.load %arg9[symbol(%arg0), symbol(%arg5), symbol(%arg2) + symbol(%arg6), symbol(%arg3) + symbol(%arg7)] : memref<64x120x1x1xf32>
    %2 = affine.load %arg8[symbol(%arg1), symbol(%arg5), symbol(%arg6), symbol(%arg7)] : memref<32x120x1x1xf32>
    %3 = arith.mulf %1, %2 : f32
    %4 = arith.addf %0, %3 : f32
    affine.store %4, %arg4[symbol(%arg0), symbol(%arg1), symbol(%arg2), symbol(%arg3)] : memref<64x32x1x1xf32>
    return
  }
  func.func private @S103(%arg0: index, %arg1: index, %arg2: index, %arg3: index, %arg4: memref<64x32x1x1xf32>, %arg5: memref<64x32x1x1xf32>) attributes {scop.stmt} {
    %cst = arith.constant 0.000000e+00 : f32
    %0 = affine.load %arg5[symbol(%arg0), symbol(%arg1), 0, 0] : memref<64x32x1x1xf32>
    %1 = arith.cmpf ugt, %0, %cst : f32
    %2 = arith.select %1, %0, %cst : f32
    affine.store %2, %arg4[symbol(%arg0), symbol(%arg1), symbol(%arg2), symbol(%arg3)] : memref<64x32x1x1xf32>
    return
  }
  func.func private @S104(%arg0: index, %arg1: index, %arg2: index, %arg3: index, %arg4: memref<64x120x1x1xf32>, %arg5: index, %arg6: index, %arg7: index, %arg8: memref<120x32x1x1xf32>, %arg9: memref<64x32x1x1xf32>) attributes {scop.stmt} {
    %0 = affine.load %arg4[symbol(%arg0), symbol(%arg1), symbol(%arg2), symbol(%arg3)] : memref<64x120x1x1xf32>
    %1 = affine.load %arg9[symbol(%arg0), symbol(%arg5), symbol(%arg2) + symbol(%arg6), symbol(%arg3) + symbol(%arg7)] : memref<64x32x1x1xf32>
    %2 = affine.load %arg8[symbol(%arg1), symbol(%arg5), symbol(%arg6), symbol(%arg7)] : memref<120x32x1x1xf32>
    %3 = arith.mulf %1, %2 : f32
    %4 = arith.addf %0, %3 : f32
    affine.store %4, %arg4[symbol(%arg0), symbol(%arg1), symbol(%arg2), symbol(%arg3)] : memref<64x120x1x1xf32>
    return
  }
  func.func private @S105(%arg0: index, %arg1: index, %arg2: index, %arg3: index, %arg4: memref<64x120x1x1xf32>, %arg5: memref<64x120x1x1xf32>) attributes {scop.stmt} {
    %cst = arith.constant 3.000000e+00 : f32
    %0 = affine.load %arg5[symbol(%arg0), symbol(%arg1), 0, 0] : memref<64x120x1x1xf32>
    %1 = arith.addf %0, %cst : f32
    affine.store %1, %arg4[symbol(%arg0), symbol(%arg1), symbol(%arg2), symbol(%arg3)] : memref<64x120x1x1xf32>
    return
  }
  func.func private @S106(%arg0: index, %arg1: index, %arg2: index, %arg3: index, %arg4: memref<64x120x1x1xf32>, %arg5: memref<64x120x1x1xf32>) attributes {scop.stmt} {
    %cst = arith.constant 6.000000e+00 : f32
    %0 = affine.load %arg5[symbol(%arg0), symbol(%arg1), 0, 0] : memref<64x120x1x1xf32>
    %1 = arith.divf %0, %cst : f32
    affine.store %1, %arg4[symbol(%arg0), symbol(%arg1), symbol(%arg2), symbol(%arg3)] : memref<64x120x1x1xf32>
    return
  }
  func.func private @S107(%arg0: index, %arg1: index, %arg2: index, %arg3: index, %arg4: memref<64x120x1x1xf32>, %arg5: memref<64x120x1x1xf32>, %arg6: memref<f32>) attributes {scop.stmt} {
    %0 = affine.load %arg6[] : memref<f32>
    %1 = affine.load %arg5[symbol(%arg0), symbol(%arg1), 0, 0] : memref<64x120x1x1xf32>
    %2 = arith.cmpf ult, %0, %1 : f32
    %3 = arith.select %2, %0, %1 : f32
    affine.store %3, %arg4[symbol(%arg0), symbol(%arg1), symbol(%arg2), symbol(%arg3)] : memref<64x120x1x1xf32>
    return
  }
  func.func private @S108(%arg0: index, %arg1: index, %arg2: index, %arg3: index, %arg4: memref<64x120x1x1xf32>, %arg5: memref<64x120x1x1xf32>, %arg6: memref<f32>) attributes {scop.stmt} {
    %0 = affine.load %arg6[] : memref<f32>
    %1 = affine.load %arg5[symbol(%arg0), symbol(%arg1), 0, 0] : memref<64x120x1x1xf32>
    %2 = arith.cmpf ugt, %0, %1 : f32
    %3 = arith.select %2, %0, %1 : f32
    affine.store %3, %arg4[symbol(%arg0), symbol(%arg1), symbol(%arg2), symbol(%arg3)] : memref<64x120x1x1xf32>
    return
  }
  func.func private @S109(%arg0: index, %arg1: index, %arg2: index, %arg3: index, %arg4: memref<64x120x28x28xf32>, %arg5: memref<64x120x28x28xf32>, %arg6: memref<64x120x1x1xf32>) attributes {scop.stmt} {
    %0 = affine.load %arg6[symbol(%arg0), symbol(%arg1), 0, 0] : memref<64x120x1x1xf32>
    %1 = affine.load %arg5[symbol(%arg0), symbol(%arg1), symbol(%arg2), symbol(%arg3)] : memref<64x120x28x28xf32>
    %2 = arith.mulf %0, %1 : f32
    affine.store %2, %arg4[symbol(%arg0), symbol(%arg1), symbol(%arg2), symbol(%arg3)] : memref<64x120x28x28xf32>
    return
  }
  func.func private @S110(%arg0: index, %arg1: index, %arg2: index, %arg3: index, %arg4: memref<64x40x28x28xf32>, %arg5: index, %arg6: index, %arg7: index, %arg8: memref<40x120x1x1xf32>, %arg9: memref<64x120x28x28xf32>) attributes {scop.stmt} {
    %0 = affine.load %arg4[symbol(%arg0), symbol(%arg1), symbol(%arg2), symbol(%arg3)] : memref<64x40x28x28xf32>
    %1 = affine.load %arg9[symbol(%arg0), symbol(%arg5), symbol(%arg2) + symbol(%arg6), symbol(%arg3) + symbol(%arg7)] : memref<64x120x28x28xf32>
    %2 = affine.load %arg8[symbol(%arg1), symbol(%arg5), symbol(%arg6), symbol(%arg7)] : memref<40x120x1x1xf32>
    %3 = arith.mulf %1, %2 : f32
    %4 = arith.addf %0, %3 : f32
    affine.store %4, %arg4[symbol(%arg0), symbol(%arg1), symbol(%arg2), symbol(%arg3)] : memref<64x40x28x28xf32>
    return
  }
  func.func private @S111(%arg0: index, %arg1: index, %arg2: index, %arg3: index, %arg4: memref<64x40x28x28xf32>, %arg5: memref<64x40x28x28xf32>) attributes {scop.stmt} {
    %cst = arith.constant 0.000000e+00 : f32
    %cst_0 = arith.constant 1.000000e+00 : f32
    %cst_1 = arith.constant 1.000000e-03 : f64
    %0 = affine.load %arg5[symbol(%arg0), symbol(%arg1), symbol(%arg2), symbol(%arg3)] : memref<64x40x28x28xf32>
    %1 = arith.truncf %cst_1 : f64 to f32
    %2 = arith.addf %1, %cst_0 : f32
    %3 = math.rsqrt %2 : f32
    %4 = arith.mulf %0, %3 : f32
    %5 = arith.addf %4, %cst : f32
    affine.store %5, %arg4[symbol(%arg0), symbol(%arg1), symbol(%arg2), symbol(%arg3)] : memref<64x40x28x28xf32>
    return
  }
  func.func private @S112(%arg0: index, %arg1: index, %arg2: index, %arg3: index, %arg4: memref<64x40x28x28xf32>, %arg5: memref<64x40x28x28xf32>, %arg6: memref<64x40x28x28xf32>) attributes {scop.stmt} {
    %0 = affine.load %arg6[symbol(%arg0), symbol(%arg1), symbol(%arg2), symbol(%arg3)] : memref<64x40x28x28xf32>
    %1 = affine.load %arg5[symbol(%arg0), symbol(%arg1), symbol(%arg2), symbol(%arg3)] : memref<64x40x28x28xf32>
    %2 = arith.addf %0, %1 : f32
    affine.store %2, %arg4[symbol(%arg0), symbol(%arg1), symbol(%arg2), symbol(%arg3)] : memref<64x40x28x28xf32>
    return
  }
  func.func private @S113(%arg0: index, %arg1: index, %arg2: index, %arg3: index, %arg4: memref<64x240x28x28xf32>) attributes {scop.stmt} {
    %cst = arith.constant 0.000000e+00 : f32
    affine.store %cst, %arg4[symbol(%arg0), symbol(%arg1), symbol(%arg2), symbol(%arg3)] : memref<64x240x28x28xf32>
    return
  }
  func.func private @S114(%arg0: index, %arg1: index, %arg2: index, %arg3: index, %arg4: memref<64x240x28x28xf32>, %arg5: index, %arg6: index, %arg7: index, %arg8: memref<240x40x1x1xf32>, %arg9: memref<64x40x28x28xf32>) attributes {scop.stmt} {
    %0 = affine.load %arg4[symbol(%arg0), symbol(%arg1), symbol(%arg2), symbol(%arg3)] : memref<64x240x28x28xf32>
    %1 = affine.load %arg9[symbol(%arg0), symbol(%arg5), symbol(%arg2) + symbol(%arg6), symbol(%arg3) + symbol(%arg7)] : memref<64x40x28x28xf32>
    %2 = affine.load %arg8[symbol(%arg1), symbol(%arg5), symbol(%arg6), symbol(%arg7)] : memref<240x40x1x1xf32>
    %3 = arith.mulf %1, %2 : f32
    %4 = arith.addf %0, %3 : f32
    affine.store %4, %arg4[symbol(%arg0), symbol(%arg1), symbol(%arg2), symbol(%arg3)] : memref<64x240x28x28xf32>
    return
  }
  func.func private @S115(%arg0: index, %arg1: index, %arg2: index, %arg3: index, %arg4: memref<64x240x28x28xf32>, %arg5: memref<64x240x28x28xf32>) attributes {scop.stmt} {
    %cst = arith.constant 0.000000e+00 : f32
    %cst_0 = arith.constant 1.000000e+00 : f32
    %cst_1 = arith.constant 1.000000e-03 : f64
    %0 = affine.load %arg5[symbol(%arg0), symbol(%arg1), symbol(%arg2), symbol(%arg3)] : memref<64x240x28x28xf32>
    %1 = arith.truncf %cst_1 : f64 to f32
    %2 = arith.addf %1, %cst_0 : f32
    %3 = math.rsqrt %2 : f32
    %4 = arith.mulf %0, %3 : f32
    %5 = arith.addf %4, %cst : f32
    affine.store %5, %arg4[symbol(%arg0), symbol(%arg1), symbol(%arg2), symbol(%arg3)] : memref<64x240x28x28xf32>
    return
  }
  func.func private @S116(%arg0: index, %arg1: index, %arg2: index, %arg3: index, %arg4: memref<64x240x28x28xf32>, %arg5: memref<64x240x28x28xf32>) attributes {scop.stmt} {
    %cst = arith.constant 3.000000e+00 : f32
    %0 = affine.load %arg5[symbol(%arg0), symbol(%arg1), symbol(%arg2), symbol(%arg3)] : memref<64x240x28x28xf32>
    %1 = arith.addf %0, %cst : f32
    affine.store %1, %arg4[symbol(%arg0), symbol(%arg1), symbol(%arg2), symbol(%arg3)] : memref<64x240x28x28xf32>
    return
  }
  func.func private @S117(%arg0: index, %arg1: index, %arg2: index, %arg3: index, %arg4: memref<64x240x28x28xf32>, %arg5: memref<64x240x28x28xf32>) attributes {scop.stmt} {
    %cst = arith.constant 0.000000e+00 : f32
    %0 = affine.load %arg5[symbol(%arg0), symbol(%arg1), symbol(%arg2), symbol(%arg3)] : memref<64x240x28x28xf32>
    %1 = arith.cmpf ugt, %0, %cst : f32
    %2 = arith.select %1, %0, %cst : f32
    affine.store %2, %arg4[symbol(%arg0), symbol(%arg1), symbol(%arg2), symbol(%arg3)] : memref<64x240x28x28xf32>
    return
  }
  func.func private @S118(%arg0: index, %arg1: index, %arg2: index, %arg3: index, %arg4: memref<64x240x28x28xf32>, %arg5: memref<f32>, %arg6: memref<64x240x28x28xf32>) attributes {scop.stmt} {
    %0 = affine.load %arg6[symbol(%arg0), symbol(%arg1), symbol(%arg2), symbol(%arg3)] : memref<64x240x28x28xf32>
    %1 = affine.load %arg5[] : memref<f32>
    %2 = arith.cmpf ult, %0, %1 : f32
    %3 = arith.select %2, %0, %1 : f32
    affine.store %3, %arg4[symbol(%arg0), symbol(%arg1), symbol(%arg2), symbol(%arg3)] : memref<64x240x28x28xf32>
    return
  }
  func.func private @S119(%arg0: index, %arg1: index, %arg2: index, %arg3: index, %arg4: memref<64x240x28x28xf32>, %arg5: memref<64x240x28x28xf32>) attributes {scop.stmt} {
    %cst = arith.constant 6.000000e+00 : f32
    %0 = affine.load %arg5[symbol(%arg0), symbol(%arg1), symbol(%arg2), symbol(%arg3)] : memref<64x240x28x28xf32>
    %1 = arith.divf %0, %cst : f32
    affine.store %1, %arg4[symbol(%arg0), symbol(%arg1), symbol(%arg2), symbol(%arg3)] : memref<64x240x28x28xf32>
    return
  }
  func.func private @S120(%arg0: index, %arg1: index, %arg2: index, %arg3: index, %arg4: memref<64x240x28x28xf32>, %arg5: memref<64x240x28x28xf32>, %arg6: memref<64x240x28x28xf32>) attributes {scop.stmt} {
    %0 = affine.load %arg6[symbol(%arg0), symbol(%arg1), symbol(%arg2), symbol(%arg3)] : memref<64x240x28x28xf32>
    %1 = affine.load %arg5[symbol(%arg0), symbol(%arg1), symbol(%arg2), symbol(%arg3)] : memref<64x240x28x28xf32>
    %2 = arith.mulf %0, %1 : f32
    affine.store %2, %arg4[symbol(%arg0), symbol(%arg1), symbol(%arg2), symbol(%arg3)] : memref<64x240x28x28xf32>
    return
  }
  func.func private @S121(%arg0: index, %arg1: index, %arg2: index, %arg3: index, %arg4: memref<64x240x30x30xf32>) attributes {scop.stmt} {
    %cst = arith.constant 0.000000e+00 : f32
    affine.store %cst, %arg4[symbol(%arg0), symbol(%arg1), symbol(%arg2), symbol(%arg3)] : memref<64x240x30x30xf32>
    return
  }
  func.func private @S122(%arg0: index, %arg1: index, %arg2: index, %arg3: index, %arg4: memref<64x240x14x14xf32>) attributes {scop.stmt} {
    %cst = arith.constant 0.000000e+00 : f32
    affine.store %cst, %arg4[symbol(%arg0), symbol(%arg1), symbol(%arg2), symbol(%arg3)] : memref<64x240x14x14xf32>
    return
  }
  func.func private @S123(%arg0: index, %arg1: index, %arg2: index, %arg3: index, %arg4: memref<64x240x14x14xf32>, %arg5: index, %arg6: index, %arg7: memref<240x3x3xf32>, %arg8: memref<64x240x30x30xf32>) attributes {scop.stmt} {
    %0 = affine.load %arg4[symbol(%arg0), symbol(%arg1), symbol(%arg2), symbol(%arg3)] : memref<64x240x14x14xf32>
    %1 = affine.load %arg8[symbol(%arg0), symbol(%arg1), symbol(%arg2) * 2 + symbol(%arg5), symbol(%arg3) * 2 + symbol(%arg6)] : memref<64x240x30x30xf32>
    %2 = affine.load %arg7[symbol(%arg1), symbol(%arg5), symbol(%arg6)] : memref<240x3x3xf32>
    %3 = arith.mulf %1, %2 : f32
    %4 = arith.addf %0, %3 : f32
    affine.store %4, %arg4[symbol(%arg0), symbol(%arg1), symbol(%arg2), symbol(%arg3)] : memref<64x240x14x14xf32>
    return
  }
  func.func private @S124(%arg0: index, %arg1: index, %arg2: index, %arg3: index, %arg4: memref<64x240x14x14xf32>, %arg5: memref<64x240x14x14xf32>) attributes {scop.stmt} {
    %cst = arith.constant 0.000000e+00 : f32
    %cst_0 = arith.constant 1.000000e+00 : f32
    %cst_1 = arith.constant 1.000000e-03 : f64
    %0 = affine.load %arg5[symbol(%arg0), symbol(%arg1), symbol(%arg2), symbol(%arg3)] : memref<64x240x14x14xf32>
    %1 = arith.truncf %cst_1 : f64 to f32
    %2 = arith.addf %1, %cst_0 : f32
    %3 = math.rsqrt %2 : f32
    %4 = arith.mulf %0, %3 : f32
    %5 = arith.addf %4, %cst : f32
    affine.store %5, %arg4[symbol(%arg0), symbol(%arg1), symbol(%arg2), symbol(%arg3)] : memref<64x240x14x14xf32>
    return
  }
  func.func private @S125(%arg0: index, %arg1: index, %arg2: index, %arg3: index, %arg4: memref<64x240x14x14xf32>, %arg5: memref<64x240x14x14xf32>) attributes {scop.stmt} {
    %cst = arith.constant 3.000000e+00 : f32
    %0 = affine.load %arg5[symbol(%arg0), symbol(%arg1), symbol(%arg2), symbol(%arg3)] : memref<64x240x14x14xf32>
    %1 = arith.addf %0, %cst : f32
    affine.store %1, %arg4[symbol(%arg0), symbol(%arg1), symbol(%arg2), symbol(%arg3)] : memref<64x240x14x14xf32>
    return
  }
  func.func private @S126(%arg0: index, %arg1: index, %arg2: index, %arg3: index, %arg4: memref<64x240x14x14xf32>, %arg5: memref<64x240x14x14xf32>) attributes {scop.stmt} {
    %cst = arith.constant 0.000000e+00 : f32
    %0 = affine.load %arg5[symbol(%arg0), symbol(%arg1), symbol(%arg2), symbol(%arg3)] : memref<64x240x14x14xf32>
    %1 = arith.cmpf ugt, %0, %cst : f32
    %2 = arith.select %1, %0, %cst : f32
    affine.store %2, %arg4[symbol(%arg0), symbol(%arg1), symbol(%arg2), symbol(%arg3)] : memref<64x240x14x14xf32>
    return
  }
  func.func private @S127(%arg0: index, %arg1: index, %arg2: index, %arg3: index, %arg4: memref<64x240x14x14xf32>, %arg5: memref<f32>, %arg6: memref<64x240x14x14xf32>) attributes {scop.stmt} {
    %0 = affine.load %arg6[symbol(%arg0), symbol(%arg1), symbol(%arg2), symbol(%arg3)] : memref<64x240x14x14xf32>
    %1 = affine.load %arg5[] : memref<f32>
    %2 = arith.cmpf ult, %0, %1 : f32
    %3 = arith.select %2, %0, %1 : f32
    affine.store %3, %arg4[symbol(%arg0), symbol(%arg1), symbol(%arg2), symbol(%arg3)] : memref<64x240x14x14xf32>
    return
  }
  func.func private @S128(%arg0: index, %arg1: index, %arg2: index, %arg3: index, %arg4: memref<64x240x14x14xf32>, %arg5: memref<64x240x14x14xf32>) attributes {scop.stmt} {
    %cst = arith.constant 6.000000e+00 : f32
    %0 = affine.load %arg5[symbol(%arg0), symbol(%arg1), symbol(%arg2), symbol(%arg3)] : memref<64x240x14x14xf32>
    %1 = arith.divf %0, %cst : f32
    affine.store %1, %arg4[symbol(%arg0), symbol(%arg1), symbol(%arg2), symbol(%arg3)] : memref<64x240x14x14xf32>
    return
  }
  func.func private @S129(%arg0: index, %arg1: index, %arg2: index, %arg3: index, %arg4: memref<64x240x14x14xf32>, %arg5: memref<64x240x14x14xf32>, %arg6: memref<64x240x14x14xf32>) attributes {scop.stmt} {
    %0 = affine.load %arg6[symbol(%arg0), symbol(%arg1), symbol(%arg2), symbol(%arg3)] : memref<64x240x14x14xf32>
    %1 = affine.load %arg5[symbol(%arg0), symbol(%arg1), symbol(%arg2), symbol(%arg3)] : memref<64x240x14x14xf32>
    %2 = arith.mulf %0, %1 : f32
    affine.store %2, %arg4[symbol(%arg0), symbol(%arg1), symbol(%arg2), symbol(%arg3)] : memref<64x240x14x14xf32>
    return
  }
  func.func private @S130(%arg0: index, %arg1: index, %arg2: index, %arg3: index, %arg4: memref<64x80x14x14xf32>) attributes {scop.stmt} {
    %cst = arith.constant 0.000000e+00 : f32
    affine.store %cst, %arg4[symbol(%arg0), symbol(%arg1), symbol(%arg2), symbol(%arg3)] : memref<64x80x14x14xf32>
    return
  }
  func.func private @S131(%arg0: index, %arg1: index, %arg2: index, %arg3: index, %arg4: memref<64x80x14x14xf32>, %arg5: index, %arg6: index, %arg7: index, %arg8: memref<80x240x1x1xf32>, %arg9: memref<64x240x14x14xf32>) attributes {scop.stmt} {
    %0 = affine.load %arg4[symbol(%arg0), symbol(%arg1), symbol(%arg2), symbol(%arg3)] : memref<64x80x14x14xf32>
    %1 = affine.load %arg9[symbol(%arg0), symbol(%arg5), symbol(%arg2) + symbol(%arg6), symbol(%arg3) + symbol(%arg7)] : memref<64x240x14x14xf32>
    %2 = affine.load %arg8[symbol(%arg1), symbol(%arg5), symbol(%arg6), symbol(%arg7)] : memref<80x240x1x1xf32>
    %3 = arith.mulf %1, %2 : f32
    %4 = arith.addf %0, %3 : f32
    affine.store %4, %arg4[symbol(%arg0), symbol(%arg1), symbol(%arg2), symbol(%arg3)] : memref<64x80x14x14xf32>
    return
  }
  func.func private @S132(%arg0: index, %arg1: index, %arg2: index, %arg3: index, %arg4: memref<64x80x14x14xf32>, %arg5: memref<64x80x14x14xf32>) attributes {scop.stmt} {
    %cst = arith.constant 0.000000e+00 : f32
    %cst_0 = arith.constant 1.000000e+00 : f32
    %cst_1 = arith.constant 1.000000e-03 : f64
    %0 = affine.load %arg5[symbol(%arg0), symbol(%arg1), symbol(%arg2), symbol(%arg3)] : memref<64x80x14x14xf32>
    %1 = arith.truncf %cst_1 : f64 to f32
    %2 = arith.addf %1, %cst_0 : f32
    %3 = math.rsqrt %2 : f32
    %4 = arith.mulf %0, %3 : f32
    %5 = arith.addf %4, %cst : f32
    affine.store %5, %arg4[symbol(%arg0), symbol(%arg1), symbol(%arg2), symbol(%arg3)] : memref<64x80x14x14xf32>
    return
  }
  func.func private @S133(%arg0: index, %arg1: index, %arg2: index, %arg3: index, %arg4: memref<64x200x14x14xf32>) attributes {scop.stmt} {
    %cst = arith.constant 0.000000e+00 : f32
    affine.store %cst, %arg4[symbol(%arg0), symbol(%arg1), symbol(%arg2), symbol(%arg3)] : memref<64x200x14x14xf32>
    return
  }
  func.func private @S134(%arg0: index, %arg1: index, %arg2: index, %arg3: index, %arg4: memref<64x200x14x14xf32>, %arg5: index, %arg6: index, %arg7: index, %arg8: memref<200x80x1x1xf32>, %arg9: memref<64x80x14x14xf32>) attributes {scop.stmt} {
    %0 = affine.load %arg4[symbol(%arg0), symbol(%arg1), symbol(%arg2), symbol(%arg3)] : memref<64x200x14x14xf32>
    %1 = affine.load %arg9[symbol(%arg0), symbol(%arg5), symbol(%arg2) + symbol(%arg6), symbol(%arg3) + symbol(%arg7)] : memref<64x80x14x14xf32>
    %2 = affine.load %arg8[symbol(%arg1), symbol(%arg5), symbol(%arg6), symbol(%arg7)] : memref<200x80x1x1xf32>
    %3 = arith.mulf %1, %2 : f32
    %4 = arith.addf %0, %3 : f32
    affine.store %4, %arg4[symbol(%arg0), symbol(%arg1), symbol(%arg2), symbol(%arg3)] : memref<64x200x14x14xf32>
    return
  }
  func.func private @S135(%arg0: index, %arg1: index, %arg2: index, %arg3: index, %arg4: memref<64x200x14x14xf32>, %arg5: memref<64x200x14x14xf32>) attributes {scop.stmt} {
    %cst = arith.constant 0.000000e+00 : f32
    %cst_0 = arith.constant 1.000000e+00 : f32
    %cst_1 = arith.constant 1.000000e-03 : f64
    %0 = affine.load %arg5[symbol(%arg0), symbol(%arg1), symbol(%arg2), symbol(%arg3)] : memref<64x200x14x14xf32>
    %1 = arith.truncf %cst_1 : f64 to f32
    %2 = arith.addf %1, %cst_0 : f32
    %3 = math.rsqrt %2 : f32
    %4 = arith.mulf %0, %3 : f32
    %5 = arith.addf %4, %cst : f32
    affine.store %5, %arg4[symbol(%arg0), symbol(%arg1), symbol(%arg2), symbol(%arg3)] : memref<64x200x14x14xf32>
    return
  }
  func.func private @S136(%arg0: index, %arg1: index, %arg2: index, %arg3: index, %arg4: memref<64x200x14x14xf32>, %arg5: memref<64x200x14x14xf32>) attributes {scop.stmt} {
    %cst = arith.constant 3.000000e+00 : f32
    %0 = affine.load %arg5[symbol(%arg0), symbol(%arg1), symbol(%arg2), symbol(%arg3)] : memref<64x200x14x14xf32>
    %1 = arith.addf %0, %cst : f32
    affine.store %1, %arg4[symbol(%arg0), symbol(%arg1), symbol(%arg2), symbol(%arg3)] : memref<64x200x14x14xf32>
    return
  }
  func.func private @S137(%arg0: index, %arg1: index, %arg2: index, %arg3: index, %arg4: memref<64x200x14x14xf32>, %arg5: memref<64x200x14x14xf32>) attributes {scop.stmt} {
    %cst = arith.constant 0.000000e+00 : f32
    %0 = affine.load %arg5[symbol(%arg0), symbol(%arg1), symbol(%arg2), symbol(%arg3)] : memref<64x200x14x14xf32>
    %1 = arith.cmpf ugt, %0, %cst : f32
    %2 = arith.select %1, %0, %cst : f32
    affine.store %2, %arg4[symbol(%arg0), symbol(%arg1), symbol(%arg2), symbol(%arg3)] : memref<64x200x14x14xf32>
    return
  }
  func.func private @S138(%arg0: index, %arg1: index, %arg2: index, %arg3: index, %arg4: memref<64x200x14x14xf32>, %arg5: memref<f32>, %arg6: memref<64x200x14x14xf32>) attributes {scop.stmt} {
    %0 = affine.load %arg6[symbol(%arg0), symbol(%arg1), symbol(%arg2), symbol(%arg3)] : memref<64x200x14x14xf32>
    %1 = affine.load %arg5[] : memref<f32>
    %2 = arith.cmpf ult, %0, %1 : f32
    %3 = arith.select %2, %0, %1 : f32
    affine.store %3, %arg4[symbol(%arg0), symbol(%arg1), symbol(%arg2), symbol(%arg3)] : memref<64x200x14x14xf32>
    return
  }
  func.func private @S139(%arg0: index, %arg1: index, %arg2: index, %arg3: index, %arg4: memref<64x200x14x14xf32>, %arg5: memref<64x200x14x14xf32>) attributes {scop.stmt} {
    %cst = arith.constant 6.000000e+00 : f32
    %0 = affine.load %arg5[symbol(%arg0), symbol(%arg1), symbol(%arg2), symbol(%arg3)] : memref<64x200x14x14xf32>
    %1 = arith.divf %0, %cst : f32
    affine.store %1, %arg4[symbol(%arg0), symbol(%arg1), symbol(%arg2), symbol(%arg3)] : memref<64x200x14x14xf32>
    return
  }
  func.func private @S140(%arg0: index, %arg1: index, %arg2: index, %arg3: index, %arg4: memref<64x200x14x14xf32>, %arg5: memref<64x200x14x14xf32>, %arg6: memref<64x200x14x14xf32>) attributes {scop.stmt} {
    %0 = affine.load %arg6[symbol(%arg0), symbol(%arg1), symbol(%arg2), symbol(%arg3)] : memref<64x200x14x14xf32>
    %1 = affine.load %arg5[symbol(%arg0), symbol(%arg1), symbol(%arg2), symbol(%arg3)] : memref<64x200x14x14xf32>
    %2 = arith.mulf %0, %1 : f32
    affine.store %2, %arg4[symbol(%arg0), symbol(%arg1), symbol(%arg2), symbol(%arg3)] : memref<64x200x14x14xf32>
    return
  }
  func.func private @S141(%arg0: index, %arg1: index, %arg2: index, %arg3: index, %arg4: memref<64x200x16x16xf32>) attributes {scop.stmt} {
    %cst = arith.constant 0.000000e+00 : f32
    affine.store %cst, %arg4[symbol(%arg0), symbol(%arg1), symbol(%arg2), symbol(%arg3)] : memref<64x200x16x16xf32>
    return
  }
  func.func private @S142(%arg0: index, %arg1: index, %arg2: index, %arg3: index, %arg4: memref<64x200x14x14xf32>, %arg5: index, %arg6: index, %arg7: memref<200x3x3xf32>, %arg8: memref<64x200x16x16xf32>) attributes {scop.stmt} {
    %0 = affine.load %arg4[symbol(%arg0), symbol(%arg1), symbol(%arg2), symbol(%arg3)] : memref<64x200x14x14xf32>
    %1 = affine.load %arg8[symbol(%arg0), symbol(%arg1), symbol(%arg2) + symbol(%arg5), symbol(%arg3) + symbol(%arg6)] : memref<64x200x16x16xf32>
    %2 = affine.load %arg7[symbol(%arg1), symbol(%arg5), symbol(%arg6)] : memref<200x3x3xf32>
    %3 = arith.mulf %1, %2 : f32
    %4 = arith.addf %0, %3 : f32
    affine.store %4, %arg4[symbol(%arg0), symbol(%arg1), symbol(%arg2), symbol(%arg3)] : memref<64x200x14x14xf32>
    return
  }
  func.func private @S143(%arg0: index, %arg1: index, %arg2: index, %arg3: index, %arg4: memref<64x200x14x14xf32>, %arg5: memref<64x200x14x14xf32>) attributes {scop.stmt} {
    %cst = arith.constant 0.000000e+00 : f32
    %cst_0 = arith.constant 1.000000e+00 : f32
    %cst_1 = arith.constant 1.000000e-03 : f64
    %0 = affine.load %arg5[symbol(%arg0), symbol(%arg1), symbol(%arg2), symbol(%arg3)] : memref<64x200x14x14xf32>
    %1 = arith.truncf %cst_1 : f64 to f32
    %2 = arith.addf %1, %cst_0 : f32
    %3 = math.rsqrt %2 : f32
    %4 = arith.mulf %0, %3 : f32
    %5 = arith.addf %4, %cst : f32
    affine.store %5, %arg4[symbol(%arg0), symbol(%arg1), symbol(%arg2), symbol(%arg3)] : memref<64x200x14x14xf32>
    return
  }
  func.func private @S144(%arg0: index, %arg1: index, %arg2: index, %arg3: index, %arg4: memref<64x200x14x14xf32>, %arg5: memref<64x200x14x14xf32>) attributes {scop.stmt} {
    %cst = arith.constant 3.000000e+00 : f32
    %0 = affine.load %arg5[symbol(%arg0), symbol(%arg1), symbol(%arg2), symbol(%arg3)] : memref<64x200x14x14xf32>
    %1 = arith.addf %0, %cst : f32
    affine.store %1, %arg4[symbol(%arg0), symbol(%arg1), symbol(%arg2), symbol(%arg3)] : memref<64x200x14x14xf32>
    return
  }
  func.func private @S145(%arg0: index, %arg1: index, %arg2: index, %arg3: index, %arg4: memref<64x200x14x14xf32>, %arg5: memref<64x200x14x14xf32>) attributes {scop.stmt} {
    %cst = arith.constant 0.000000e+00 : f32
    %0 = affine.load %arg5[symbol(%arg0), symbol(%arg1), symbol(%arg2), symbol(%arg3)] : memref<64x200x14x14xf32>
    %1 = arith.cmpf ugt, %0, %cst : f32
    %2 = arith.select %1, %0, %cst : f32
    affine.store %2, %arg4[symbol(%arg0), symbol(%arg1), symbol(%arg2), symbol(%arg3)] : memref<64x200x14x14xf32>
    return
  }
  func.func private @S146(%arg0: index, %arg1: index, %arg2: index, %arg3: index, %arg4: memref<64x200x14x14xf32>, %arg5: memref<f32>, %arg6: memref<64x200x14x14xf32>) attributes {scop.stmt} {
    %0 = affine.load %arg6[symbol(%arg0), symbol(%arg1), symbol(%arg2), symbol(%arg3)] : memref<64x200x14x14xf32>
    %1 = affine.load %arg5[] : memref<f32>
    %2 = arith.cmpf ult, %0, %1 : f32
    %3 = arith.select %2, %0, %1 : f32
    affine.store %3, %arg4[symbol(%arg0), symbol(%arg1), symbol(%arg2), symbol(%arg3)] : memref<64x200x14x14xf32>
    return
  }
  func.func private @S147(%arg0: index, %arg1: index, %arg2: index, %arg3: index, %arg4: memref<64x200x14x14xf32>, %arg5: memref<64x200x14x14xf32>) attributes {scop.stmt} {
    %cst = arith.constant 6.000000e+00 : f32
    %0 = affine.load %arg5[symbol(%arg0), symbol(%arg1), symbol(%arg2), symbol(%arg3)] : memref<64x200x14x14xf32>
    %1 = arith.divf %0, %cst : f32
    affine.store %1, %arg4[symbol(%arg0), symbol(%arg1), symbol(%arg2), symbol(%arg3)] : memref<64x200x14x14xf32>
    return
  }
  func.func private @S148(%arg0: index, %arg1: index, %arg2: index, %arg3: index, %arg4: memref<64x200x14x14xf32>, %arg5: memref<64x200x14x14xf32>, %arg6: memref<64x200x14x14xf32>) attributes {scop.stmt} {
    %0 = affine.load %arg6[symbol(%arg0), symbol(%arg1), symbol(%arg2), symbol(%arg3)] : memref<64x200x14x14xf32>
    %1 = affine.load %arg5[symbol(%arg0), symbol(%arg1), symbol(%arg2), symbol(%arg3)] : memref<64x200x14x14xf32>
    %2 = arith.mulf %0, %1 : f32
    affine.store %2, %arg4[symbol(%arg0), symbol(%arg1), symbol(%arg2), symbol(%arg3)] : memref<64x200x14x14xf32>
    return
  }
  func.func private @S149(%arg0: index, %arg1: index, %arg2: index, %arg3: index, %arg4: memref<64x80x14x14xf32>, %arg5: index, %arg6: index, %arg7: index, %arg8: memref<80x200x1x1xf32>, %arg9: memref<64x200x14x14xf32>) attributes {scop.stmt} {
    %0 = affine.load %arg4[symbol(%arg0), symbol(%arg1), symbol(%arg2), symbol(%arg3)] : memref<64x80x14x14xf32>
    %1 = affine.load %arg9[symbol(%arg0), symbol(%arg5), symbol(%arg2) + symbol(%arg6), symbol(%arg3) + symbol(%arg7)] : memref<64x200x14x14xf32>
    %2 = affine.load %arg8[symbol(%arg1), symbol(%arg5), symbol(%arg6), symbol(%arg7)] : memref<80x200x1x1xf32>
    %3 = arith.mulf %1, %2 : f32
    %4 = arith.addf %0, %3 : f32
    affine.store %4, %arg4[symbol(%arg0), symbol(%arg1), symbol(%arg2), symbol(%arg3)] : memref<64x80x14x14xf32>
    return
  }
  func.func private @S150(%arg0: index, %arg1: index, %arg2: index, %arg3: index, %arg4: memref<64x80x14x14xf32>, %arg5: memref<64x80x14x14xf32>) attributes {scop.stmt} {
    %cst = arith.constant 0.000000e+00 : f32
    %cst_0 = arith.constant 1.000000e+00 : f32
    %cst_1 = arith.constant 1.000000e-03 : f64
    %0 = affine.load %arg5[symbol(%arg0), symbol(%arg1), symbol(%arg2), symbol(%arg3)] : memref<64x80x14x14xf32>
    %1 = arith.truncf %cst_1 : f64 to f32
    %2 = arith.addf %1, %cst_0 : f32
    %3 = math.rsqrt %2 : f32
    %4 = arith.mulf %0, %3 : f32
    %5 = arith.addf %4, %cst : f32
    affine.store %5, %arg4[symbol(%arg0), symbol(%arg1), symbol(%arg2), symbol(%arg3)] : memref<64x80x14x14xf32>
    return
  }
  func.func private @S151(%arg0: index, %arg1: index, %arg2: index, %arg3: index, %arg4: memref<64x80x14x14xf32>, %arg5: memref<64x80x14x14xf32>, %arg6: memref<64x80x14x14xf32>) attributes {scop.stmt} {
    %0 = affine.load %arg6[symbol(%arg0), symbol(%arg1), symbol(%arg2), symbol(%arg3)] : memref<64x80x14x14xf32>
    %1 = affine.load %arg5[symbol(%arg0), symbol(%arg1), symbol(%arg2), symbol(%arg3)] : memref<64x80x14x14xf32>
    %2 = arith.addf %0, %1 : f32
    affine.store %2, %arg4[symbol(%arg0), symbol(%arg1), symbol(%arg2), symbol(%arg3)] : memref<64x80x14x14xf32>
    return
  }
  func.func private @S152(%arg0: index, %arg1: index, %arg2: index, %arg3: index, %arg4: memref<64x184x14x14xf32>) attributes {scop.stmt} {
    %cst = arith.constant 0.000000e+00 : f32
    affine.store %cst, %arg4[symbol(%arg0), symbol(%arg1), symbol(%arg2), symbol(%arg3)] : memref<64x184x14x14xf32>
    return
  }
  func.func private @S153(%arg0: index, %arg1: index, %arg2: index, %arg3: index, %arg4: memref<64x184x14x14xf32>, %arg5: index, %arg6: index, %arg7: index, %arg8: memref<184x80x1x1xf32>, %arg9: memref<64x80x14x14xf32>) attributes {scop.stmt} {
    %0 = affine.load %arg4[symbol(%arg0), symbol(%arg1), symbol(%arg2), symbol(%arg3)] : memref<64x184x14x14xf32>
    %1 = affine.load %arg9[symbol(%arg0), symbol(%arg5), symbol(%arg2) + symbol(%arg6), symbol(%arg3) + symbol(%arg7)] : memref<64x80x14x14xf32>
    %2 = affine.load %arg8[symbol(%arg1), symbol(%arg5), symbol(%arg6), symbol(%arg7)] : memref<184x80x1x1xf32>
    %3 = arith.mulf %1, %2 : f32
    %4 = arith.addf %0, %3 : f32
    affine.store %4, %arg4[symbol(%arg0), symbol(%arg1), symbol(%arg2), symbol(%arg3)] : memref<64x184x14x14xf32>
    return
  }
  func.func private @S154(%arg0: index, %arg1: index, %arg2: index, %arg3: index, %arg4: memref<64x184x14x14xf32>, %arg5: memref<64x184x14x14xf32>) attributes {scop.stmt} {
    %cst = arith.constant 0.000000e+00 : f32
    %cst_0 = arith.constant 1.000000e+00 : f32
    %cst_1 = arith.constant 1.000000e-03 : f64
    %0 = affine.load %arg5[symbol(%arg0), symbol(%arg1), symbol(%arg2), symbol(%arg3)] : memref<64x184x14x14xf32>
    %1 = arith.truncf %cst_1 : f64 to f32
    %2 = arith.addf %1, %cst_0 : f32
    %3 = math.rsqrt %2 : f32
    %4 = arith.mulf %0, %3 : f32
    %5 = arith.addf %4, %cst : f32
    affine.store %5, %arg4[symbol(%arg0), symbol(%arg1), symbol(%arg2), symbol(%arg3)] : memref<64x184x14x14xf32>
    return
  }
  func.func private @S155(%arg0: index, %arg1: index, %arg2: index, %arg3: index, %arg4: memref<64x184x14x14xf32>, %arg5: memref<64x184x14x14xf32>) attributes {scop.stmt} {
    %cst = arith.constant 3.000000e+00 : f32
    %0 = affine.load %arg5[symbol(%arg0), symbol(%arg1), symbol(%arg2), symbol(%arg3)] : memref<64x184x14x14xf32>
    %1 = arith.addf %0, %cst : f32
    affine.store %1, %arg4[symbol(%arg0), symbol(%arg1), symbol(%arg2), symbol(%arg3)] : memref<64x184x14x14xf32>
    return
  }
  func.func private @S156(%arg0: index, %arg1: index, %arg2: index, %arg3: index, %arg4: memref<64x184x14x14xf32>, %arg5: memref<64x184x14x14xf32>) attributes {scop.stmt} {
    %cst = arith.constant 0.000000e+00 : f32
    %0 = affine.load %arg5[symbol(%arg0), symbol(%arg1), symbol(%arg2), symbol(%arg3)] : memref<64x184x14x14xf32>
    %1 = arith.cmpf ugt, %0, %cst : f32
    %2 = arith.select %1, %0, %cst : f32
    affine.store %2, %arg4[symbol(%arg0), symbol(%arg1), symbol(%arg2), symbol(%arg3)] : memref<64x184x14x14xf32>
    return
  }
  func.func private @S157(%arg0: index, %arg1: index, %arg2: index, %arg3: index, %arg4: memref<64x184x14x14xf32>, %arg5: memref<f32>, %arg6: memref<64x184x14x14xf32>) attributes {scop.stmt} {
    %0 = affine.load %arg6[symbol(%arg0), symbol(%arg1), symbol(%arg2), symbol(%arg3)] : memref<64x184x14x14xf32>
    %1 = affine.load %arg5[] : memref<f32>
    %2 = arith.cmpf ult, %0, %1 : f32
    %3 = arith.select %2, %0, %1 : f32
    affine.store %3, %arg4[symbol(%arg0), symbol(%arg1), symbol(%arg2), symbol(%arg3)] : memref<64x184x14x14xf32>
    return
  }
  func.func private @S158(%arg0: index, %arg1: index, %arg2: index, %arg3: index, %arg4: memref<64x184x14x14xf32>, %arg5: memref<64x184x14x14xf32>) attributes {scop.stmt} {
    %cst = arith.constant 6.000000e+00 : f32
    %0 = affine.load %arg5[symbol(%arg0), symbol(%arg1), symbol(%arg2), symbol(%arg3)] : memref<64x184x14x14xf32>
    %1 = arith.divf %0, %cst : f32
    affine.store %1, %arg4[symbol(%arg0), symbol(%arg1), symbol(%arg2), symbol(%arg3)] : memref<64x184x14x14xf32>
    return
  }
  func.func private @S159(%arg0: index, %arg1: index, %arg2: index, %arg3: index, %arg4: memref<64x184x14x14xf32>, %arg5: memref<64x184x14x14xf32>, %arg6: memref<64x184x14x14xf32>) attributes {scop.stmt} {
    %0 = affine.load %arg6[symbol(%arg0), symbol(%arg1), symbol(%arg2), symbol(%arg3)] : memref<64x184x14x14xf32>
    %1 = affine.load %arg5[symbol(%arg0), symbol(%arg1), symbol(%arg2), symbol(%arg3)] : memref<64x184x14x14xf32>
    %2 = arith.mulf %0, %1 : f32
    affine.store %2, %arg4[symbol(%arg0), symbol(%arg1), symbol(%arg2), symbol(%arg3)] : memref<64x184x14x14xf32>
    return
  }
  func.func private @S160(%arg0: index, %arg1: index, %arg2: index, %arg3: index, %arg4: memref<64x184x16x16xf32>) attributes {scop.stmt} {
    %cst = arith.constant 0.000000e+00 : f32
    affine.store %cst, %arg4[symbol(%arg0), symbol(%arg1), symbol(%arg2), symbol(%arg3)] : memref<64x184x16x16xf32>
    return
  }
  func.func private @S161(%arg0: index, %arg1: index, %arg2: index, %arg3: index, %arg4: memref<64x184x14x14xf32>, %arg5: index, %arg6: index, %arg7: memref<184x3x3xf32>, %arg8: memref<64x184x16x16xf32>) attributes {scop.stmt} {
    %0 = affine.load %arg4[symbol(%arg0), symbol(%arg1), symbol(%arg2), symbol(%arg3)] : memref<64x184x14x14xf32>
    %1 = affine.load %arg8[symbol(%arg0), symbol(%arg1), symbol(%arg2) + symbol(%arg5), symbol(%arg3) + symbol(%arg6)] : memref<64x184x16x16xf32>
    %2 = affine.load %arg7[symbol(%arg1), symbol(%arg5), symbol(%arg6)] : memref<184x3x3xf32>
    %3 = arith.mulf %1, %2 : f32
    %4 = arith.addf %0, %3 : f32
    affine.store %4, %arg4[symbol(%arg0), symbol(%arg1), symbol(%arg2), symbol(%arg3)] : memref<64x184x14x14xf32>
    return
  }
  func.func private @S162(%arg0: index, %arg1: index, %arg2: index, %arg3: index, %arg4: memref<64x184x14x14xf32>, %arg5: memref<64x184x14x14xf32>) attributes {scop.stmt} {
    %cst = arith.constant 0.000000e+00 : f32
    %cst_0 = arith.constant 1.000000e+00 : f32
    %cst_1 = arith.constant 1.000000e-03 : f64
    %0 = affine.load %arg5[symbol(%arg0), symbol(%arg1), symbol(%arg2), symbol(%arg3)] : memref<64x184x14x14xf32>
    %1 = arith.truncf %cst_1 : f64 to f32
    %2 = arith.addf %1, %cst_0 : f32
    %3 = math.rsqrt %2 : f32
    %4 = arith.mulf %0, %3 : f32
    %5 = arith.addf %4, %cst : f32
    affine.store %5, %arg4[symbol(%arg0), symbol(%arg1), symbol(%arg2), symbol(%arg3)] : memref<64x184x14x14xf32>
    return
  }
  func.func private @S163(%arg0: index, %arg1: index, %arg2: index, %arg3: index, %arg4: memref<64x184x14x14xf32>, %arg5: memref<64x184x14x14xf32>) attributes {scop.stmt} {
    %cst = arith.constant 3.000000e+00 : f32
    %0 = affine.load %arg5[symbol(%arg0), symbol(%arg1), symbol(%arg2), symbol(%arg3)] : memref<64x184x14x14xf32>
    %1 = arith.addf %0, %cst : f32
    affine.store %1, %arg4[symbol(%arg0), symbol(%arg1), symbol(%arg2), symbol(%arg3)] : memref<64x184x14x14xf32>
    return
  }
  func.func private @S164(%arg0: index, %arg1: index, %arg2: index, %arg3: index, %arg4: memref<64x184x14x14xf32>, %arg5: memref<64x184x14x14xf32>) attributes {scop.stmt} {
    %cst = arith.constant 0.000000e+00 : f32
    %0 = affine.load %arg5[symbol(%arg0), symbol(%arg1), symbol(%arg2), symbol(%arg3)] : memref<64x184x14x14xf32>
    %1 = arith.cmpf ugt, %0, %cst : f32
    %2 = arith.select %1, %0, %cst : f32
    affine.store %2, %arg4[symbol(%arg0), symbol(%arg1), symbol(%arg2), symbol(%arg3)] : memref<64x184x14x14xf32>
    return
  }
  func.func private @S165(%arg0: index, %arg1: index, %arg2: index, %arg3: index, %arg4: memref<64x184x14x14xf32>, %arg5: memref<f32>, %arg6: memref<64x184x14x14xf32>) attributes {scop.stmt} {
    %0 = affine.load %arg6[symbol(%arg0), symbol(%arg1), symbol(%arg2), symbol(%arg3)] : memref<64x184x14x14xf32>
    %1 = affine.load %arg5[] : memref<f32>
    %2 = arith.cmpf ult, %0, %1 : f32
    %3 = arith.select %2, %0, %1 : f32
    affine.store %3, %arg4[symbol(%arg0), symbol(%arg1), symbol(%arg2), symbol(%arg3)] : memref<64x184x14x14xf32>
    return
  }
  func.func private @S166(%arg0: index, %arg1: index, %arg2: index, %arg3: index, %arg4: memref<64x184x14x14xf32>, %arg5: memref<64x184x14x14xf32>) attributes {scop.stmt} {
    %cst = arith.constant 6.000000e+00 : f32
    %0 = affine.load %arg5[symbol(%arg0), symbol(%arg1), symbol(%arg2), symbol(%arg3)] : memref<64x184x14x14xf32>
    %1 = arith.divf %0, %cst : f32
    affine.store %1, %arg4[symbol(%arg0), symbol(%arg1), symbol(%arg2), symbol(%arg3)] : memref<64x184x14x14xf32>
    return
  }
  func.func private @S167(%arg0: index, %arg1: index, %arg2: index, %arg3: index, %arg4: memref<64x184x14x14xf32>, %arg5: memref<64x184x14x14xf32>, %arg6: memref<64x184x14x14xf32>) attributes {scop.stmt} {
    %0 = affine.load %arg6[symbol(%arg0), symbol(%arg1), symbol(%arg2), symbol(%arg3)] : memref<64x184x14x14xf32>
    %1 = affine.load %arg5[symbol(%arg0), symbol(%arg1), symbol(%arg2), symbol(%arg3)] : memref<64x184x14x14xf32>
    %2 = arith.mulf %0, %1 : f32
    affine.store %2, %arg4[symbol(%arg0), symbol(%arg1), symbol(%arg2), symbol(%arg3)] : memref<64x184x14x14xf32>
    return
  }
  func.func private @S168(%arg0: index, %arg1: index, %arg2: index, %arg3: index, %arg4: memref<64x80x14x14xf32>, %arg5: index, %arg6: index, %arg7: index, %arg8: memref<80x184x1x1xf32>, %arg9: memref<64x184x14x14xf32>) attributes {scop.stmt} {
    %0 = affine.load %arg4[symbol(%arg0), symbol(%arg1), symbol(%arg2), symbol(%arg3)] : memref<64x80x14x14xf32>
    %1 = affine.load %arg9[symbol(%arg0), symbol(%arg5), symbol(%arg2) + symbol(%arg6), symbol(%arg3) + symbol(%arg7)] : memref<64x184x14x14xf32>
    %2 = affine.load %arg8[symbol(%arg1), symbol(%arg5), symbol(%arg6), symbol(%arg7)] : memref<80x184x1x1xf32>
    %3 = arith.mulf %1, %2 : f32
    %4 = arith.addf %0, %3 : f32
    affine.store %4, %arg4[symbol(%arg0), symbol(%arg1), symbol(%arg2), symbol(%arg3)] : memref<64x80x14x14xf32>
    return
  }
  func.func private @S169(%arg0: index, %arg1: index, %arg2: index, %arg3: index, %arg4: memref<64x80x14x14xf32>, %arg5: memref<64x80x14x14xf32>) attributes {scop.stmt} {
    %cst = arith.constant 0.000000e+00 : f32
    %cst_0 = arith.constant 1.000000e+00 : f32
    %cst_1 = arith.constant 1.000000e-03 : f64
    %0 = affine.load %arg5[symbol(%arg0), symbol(%arg1), symbol(%arg2), symbol(%arg3)] : memref<64x80x14x14xf32>
    %1 = arith.truncf %cst_1 : f64 to f32
    %2 = arith.addf %1, %cst_0 : f32
    %3 = math.rsqrt %2 : f32
    %4 = arith.mulf %0, %3 : f32
    %5 = arith.addf %4, %cst : f32
    affine.store %5, %arg4[symbol(%arg0), symbol(%arg1), symbol(%arg2), symbol(%arg3)] : memref<64x80x14x14xf32>
    return
  }
  func.func private @S170(%arg0: index, %arg1: index, %arg2: index, %arg3: index, %arg4: memref<64x80x14x14xf32>, %arg5: memref<64x80x14x14xf32>, %arg6: memref<64x80x14x14xf32>) attributes {scop.stmt} {
    %0 = affine.load %arg6[symbol(%arg0), symbol(%arg1), symbol(%arg2), symbol(%arg3)] : memref<64x80x14x14xf32>
    %1 = affine.load %arg5[symbol(%arg0), symbol(%arg1), symbol(%arg2), symbol(%arg3)] : memref<64x80x14x14xf32>
    %2 = arith.addf %0, %1 : f32
    affine.store %2, %arg4[symbol(%arg0), symbol(%arg1), symbol(%arg2), symbol(%arg3)] : memref<64x80x14x14xf32>
    return
  }
  func.func private @S171(%arg0: index, %arg1: index, %arg2: index, %arg3: index, %arg4: memref<64x184x14x14xf32>, %arg5: index, %arg6: index, %arg7: index, %arg8: memref<184x80x1x1xf32>, %arg9: memref<64x80x14x14xf32>) attributes {scop.stmt} {
    %0 = affine.load %arg4[symbol(%arg0), symbol(%arg1), symbol(%arg2), symbol(%arg3)] : memref<64x184x14x14xf32>
    %1 = affine.load %arg9[symbol(%arg0), symbol(%arg5), symbol(%arg2) + symbol(%arg6), symbol(%arg3) + symbol(%arg7)] : memref<64x80x14x14xf32>
    %2 = affine.load %arg8[symbol(%arg1), symbol(%arg5), symbol(%arg6), symbol(%arg7)] : memref<184x80x1x1xf32>
    %3 = arith.mulf %1, %2 : f32
    %4 = arith.addf %0, %3 : f32
    affine.store %4, %arg4[symbol(%arg0), symbol(%arg1), symbol(%arg2), symbol(%arg3)] : memref<64x184x14x14xf32>
    return
  }
  func.func private @S172(%arg0: index, %arg1: index, %arg2: index, %arg3: index, %arg4: memref<64x184x14x14xf32>, %arg5: memref<64x184x14x14xf32>) attributes {scop.stmt} {
    %cst = arith.constant 0.000000e+00 : f32
    %cst_0 = arith.constant 1.000000e+00 : f32
    %cst_1 = arith.constant 1.000000e-03 : f64
    %0 = affine.load %arg5[symbol(%arg0), symbol(%arg1), symbol(%arg2), symbol(%arg3)] : memref<64x184x14x14xf32>
    %1 = arith.truncf %cst_1 : f64 to f32
    %2 = arith.addf %1, %cst_0 : f32
    %3 = math.rsqrt %2 : f32
    %4 = arith.mulf %0, %3 : f32
    %5 = arith.addf %4, %cst : f32
    affine.store %5, %arg4[symbol(%arg0), symbol(%arg1), symbol(%arg2), symbol(%arg3)] : memref<64x184x14x14xf32>
    return
  }
  func.func private @S173(%arg0: index, %arg1: index, %arg2: index, %arg3: index, %arg4: memref<64x184x14x14xf32>, %arg5: memref<64x184x14x14xf32>) attributes {scop.stmt} {
    %cst = arith.constant 3.000000e+00 : f32
    %0 = affine.load %arg5[symbol(%arg0), symbol(%arg1), symbol(%arg2), symbol(%arg3)] : memref<64x184x14x14xf32>
    %1 = arith.addf %0, %cst : f32
    affine.store %1, %arg4[symbol(%arg0), symbol(%arg1), symbol(%arg2), symbol(%arg3)] : memref<64x184x14x14xf32>
    return
  }
  func.func private @S174(%arg0: index, %arg1: index, %arg2: index, %arg3: index, %arg4: memref<64x184x14x14xf32>, %arg5: memref<64x184x14x14xf32>) attributes {scop.stmt} {
    %cst = arith.constant 0.000000e+00 : f32
    %0 = affine.load %arg5[symbol(%arg0), symbol(%arg1), symbol(%arg2), symbol(%arg3)] : memref<64x184x14x14xf32>
    %1 = arith.cmpf ugt, %0, %cst : f32
    %2 = arith.select %1, %0, %cst : f32
    affine.store %2, %arg4[symbol(%arg0), symbol(%arg1), symbol(%arg2), symbol(%arg3)] : memref<64x184x14x14xf32>
    return
  }
  func.func private @S175(%arg0: index, %arg1: index, %arg2: index, %arg3: index, %arg4: memref<64x184x14x14xf32>, %arg5: memref<f32>, %arg6: memref<64x184x14x14xf32>) attributes {scop.stmt} {
    %0 = affine.load %arg6[symbol(%arg0), symbol(%arg1), symbol(%arg2), symbol(%arg3)] : memref<64x184x14x14xf32>
    %1 = affine.load %arg5[] : memref<f32>
    %2 = arith.cmpf ult, %0, %1 : f32
    %3 = arith.select %2, %0, %1 : f32
    affine.store %3, %arg4[symbol(%arg0), symbol(%arg1), symbol(%arg2), symbol(%arg3)] : memref<64x184x14x14xf32>
    return
  }
  func.func private @S176(%arg0: index, %arg1: index, %arg2: index, %arg3: index, %arg4: memref<64x184x14x14xf32>, %arg5: memref<64x184x14x14xf32>) attributes {scop.stmt} {
    %cst = arith.constant 6.000000e+00 : f32
    %0 = affine.load %arg5[symbol(%arg0), symbol(%arg1), symbol(%arg2), symbol(%arg3)] : memref<64x184x14x14xf32>
    %1 = arith.divf %0, %cst : f32
    affine.store %1, %arg4[symbol(%arg0), symbol(%arg1), symbol(%arg2), symbol(%arg3)] : memref<64x184x14x14xf32>
    return
  }
  func.func private @S177(%arg0: index, %arg1: index, %arg2: index, %arg3: index, %arg4: memref<64x184x14x14xf32>, %arg5: memref<64x184x14x14xf32>, %arg6: memref<64x184x14x14xf32>) attributes {scop.stmt} {
    %0 = affine.load %arg6[symbol(%arg0), symbol(%arg1), symbol(%arg2), symbol(%arg3)] : memref<64x184x14x14xf32>
    %1 = affine.load %arg5[symbol(%arg0), symbol(%arg1), symbol(%arg2), symbol(%arg3)] : memref<64x184x14x14xf32>
    %2 = arith.mulf %0, %1 : f32
    affine.store %2, %arg4[symbol(%arg0), symbol(%arg1), symbol(%arg2), symbol(%arg3)] : memref<64x184x14x14xf32>
    return
  }
  func.func private @S178(%arg0: index, %arg1: index, %arg2: index, %arg3: index, %arg4: memref<64x184x16x16xf32>) attributes {scop.stmt} {
    %cst = arith.constant 0.000000e+00 : f32
    affine.store %cst, %arg4[symbol(%arg0), symbol(%arg1), symbol(%arg2), symbol(%arg3)] : memref<64x184x16x16xf32>
    return
  }
  func.func private @S179(%arg0: index, %arg1: index, %arg2: index, %arg3: index, %arg4: memref<64x184x14x14xf32>, %arg5: index, %arg6: index, %arg7: memref<184x3x3xf32>, %arg8: memref<64x184x16x16xf32>) attributes {scop.stmt} {
    %0 = affine.load %arg4[symbol(%arg0), symbol(%arg1), symbol(%arg2), symbol(%arg3)] : memref<64x184x14x14xf32>
    %1 = affine.load %arg8[symbol(%arg0), symbol(%arg1), symbol(%arg2) + symbol(%arg5), symbol(%arg3) + symbol(%arg6)] : memref<64x184x16x16xf32>
    %2 = affine.load %arg7[symbol(%arg1), symbol(%arg5), symbol(%arg6)] : memref<184x3x3xf32>
    %3 = arith.mulf %1, %2 : f32
    %4 = arith.addf %0, %3 : f32
    affine.store %4, %arg4[symbol(%arg0), symbol(%arg1), symbol(%arg2), symbol(%arg3)] : memref<64x184x14x14xf32>
    return
  }
  func.func private @S180(%arg0: index, %arg1: index, %arg2: index, %arg3: index, %arg4: memref<64x184x14x14xf32>, %arg5: memref<64x184x14x14xf32>) attributes {scop.stmt} {
    %cst = arith.constant 0.000000e+00 : f32
    %cst_0 = arith.constant 1.000000e+00 : f32
    %cst_1 = arith.constant 1.000000e-03 : f64
    %0 = affine.load %arg5[symbol(%arg0), symbol(%arg1), symbol(%arg2), symbol(%arg3)] : memref<64x184x14x14xf32>
    %1 = arith.truncf %cst_1 : f64 to f32
    %2 = arith.addf %1, %cst_0 : f32
    %3 = math.rsqrt %2 : f32
    %4 = arith.mulf %0, %3 : f32
    %5 = arith.addf %4, %cst : f32
    affine.store %5, %arg4[symbol(%arg0), symbol(%arg1), symbol(%arg2), symbol(%arg3)] : memref<64x184x14x14xf32>
    return
  }
  func.func private @S181(%arg0: index, %arg1: index, %arg2: index, %arg3: index, %arg4: memref<64x184x14x14xf32>, %arg5: memref<64x184x14x14xf32>) attributes {scop.stmt} {
    %cst = arith.constant 3.000000e+00 : f32
    %0 = affine.load %arg5[symbol(%arg0), symbol(%arg1), symbol(%arg2), symbol(%arg3)] : memref<64x184x14x14xf32>
    %1 = arith.addf %0, %cst : f32
    affine.store %1, %arg4[symbol(%arg0), symbol(%arg1), symbol(%arg2), symbol(%arg3)] : memref<64x184x14x14xf32>
    return
  }
  func.func private @S182(%arg0: index, %arg1: index, %arg2: index, %arg3: index, %arg4: memref<64x184x14x14xf32>, %arg5: memref<64x184x14x14xf32>) attributes {scop.stmt} {
    %cst = arith.constant 0.000000e+00 : f32
    %0 = affine.load %arg5[symbol(%arg0), symbol(%arg1), symbol(%arg2), symbol(%arg3)] : memref<64x184x14x14xf32>
    %1 = arith.cmpf ugt, %0, %cst : f32
    %2 = arith.select %1, %0, %cst : f32
    affine.store %2, %arg4[symbol(%arg0), symbol(%arg1), symbol(%arg2), symbol(%arg3)] : memref<64x184x14x14xf32>
    return
  }
  func.func private @S183(%arg0: index, %arg1: index, %arg2: index, %arg3: index, %arg4: memref<64x184x14x14xf32>, %arg5: memref<f32>, %arg6: memref<64x184x14x14xf32>) attributes {scop.stmt} {
    %0 = affine.load %arg6[symbol(%arg0), symbol(%arg1), symbol(%arg2), symbol(%arg3)] : memref<64x184x14x14xf32>
    %1 = affine.load %arg5[] : memref<f32>
    %2 = arith.cmpf ult, %0, %1 : f32
    %3 = arith.select %2, %0, %1 : f32
    affine.store %3, %arg4[symbol(%arg0), symbol(%arg1), symbol(%arg2), symbol(%arg3)] : memref<64x184x14x14xf32>
    return
  }
  func.func private @S184(%arg0: index, %arg1: index, %arg2: index, %arg3: index, %arg4: memref<64x184x14x14xf32>, %arg5: memref<64x184x14x14xf32>) attributes {scop.stmt} {
    %cst = arith.constant 6.000000e+00 : f32
    %0 = affine.load %arg5[symbol(%arg0), symbol(%arg1), symbol(%arg2), symbol(%arg3)] : memref<64x184x14x14xf32>
    %1 = arith.divf %0, %cst : f32
    affine.store %1, %arg4[symbol(%arg0), symbol(%arg1), symbol(%arg2), symbol(%arg3)] : memref<64x184x14x14xf32>
    return
  }
  func.func private @S185(%arg0: index, %arg1: index, %arg2: index, %arg3: index, %arg4: memref<64x184x14x14xf32>, %arg5: memref<64x184x14x14xf32>, %arg6: memref<64x184x14x14xf32>) attributes {scop.stmt} {
    %0 = affine.load %arg6[symbol(%arg0), symbol(%arg1), symbol(%arg2), symbol(%arg3)] : memref<64x184x14x14xf32>
    %1 = affine.load %arg5[symbol(%arg0), symbol(%arg1), symbol(%arg2), symbol(%arg3)] : memref<64x184x14x14xf32>
    %2 = arith.mulf %0, %1 : f32
    affine.store %2, %arg4[symbol(%arg0), symbol(%arg1), symbol(%arg2), symbol(%arg3)] : memref<64x184x14x14xf32>
    return
  }
  func.func private @S186(%arg0: index, %arg1: index, %arg2: index, %arg3: index, %arg4: memref<64x80x14x14xf32>, %arg5: index, %arg6: index, %arg7: index, %arg8: memref<80x184x1x1xf32>, %arg9: memref<64x184x14x14xf32>) attributes {scop.stmt} {
    %0 = affine.load %arg4[symbol(%arg0), symbol(%arg1), symbol(%arg2), symbol(%arg3)] : memref<64x80x14x14xf32>
    %1 = affine.load %arg9[symbol(%arg0), symbol(%arg5), symbol(%arg2) + symbol(%arg6), symbol(%arg3) + symbol(%arg7)] : memref<64x184x14x14xf32>
    %2 = affine.load %arg8[symbol(%arg1), symbol(%arg5), symbol(%arg6), symbol(%arg7)] : memref<80x184x1x1xf32>
    %3 = arith.mulf %1, %2 : f32
    %4 = arith.addf %0, %3 : f32
    affine.store %4, %arg4[symbol(%arg0), symbol(%arg1), symbol(%arg2), symbol(%arg3)] : memref<64x80x14x14xf32>
    return
  }
  func.func private @S187(%arg0: index, %arg1: index, %arg2: index, %arg3: index, %arg4: memref<64x80x14x14xf32>, %arg5: memref<64x80x14x14xf32>) attributes {scop.stmt} {
    %cst = arith.constant 0.000000e+00 : f32
    %cst_0 = arith.constant 1.000000e+00 : f32
    %cst_1 = arith.constant 1.000000e-03 : f64
    %0 = affine.load %arg5[symbol(%arg0), symbol(%arg1), symbol(%arg2), symbol(%arg3)] : memref<64x80x14x14xf32>
    %1 = arith.truncf %cst_1 : f64 to f32
    %2 = arith.addf %1, %cst_0 : f32
    %3 = math.rsqrt %2 : f32
    %4 = arith.mulf %0, %3 : f32
    %5 = arith.addf %4, %cst : f32
    affine.store %5, %arg4[symbol(%arg0), symbol(%arg1), symbol(%arg2), symbol(%arg3)] : memref<64x80x14x14xf32>
    return
  }
  func.func private @S188(%arg0: index, %arg1: index, %arg2: index, %arg3: index, %arg4: memref<64x80x14x14xf32>, %arg5: memref<64x80x14x14xf32>, %arg6: memref<64x80x14x14xf32>) attributes {scop.stmt} {
    %0 = affine.load %arg6[symbol(%arg0), symbol(%arg1), symbol(%arg2), symbol(%arg3)] : memref<64x80x14x14xf32>
    %1 = affine.load %arg5[symbol(%arg0), symbol(%arg1), symbol(%arg2), symbol(%arg3)] : memref<64x80x14x14xf32>
    %2 = arith.addf %0, %1 : f32
    affine.store %2, %arg4[symbol(%arg0), symbol(%arg1), symbol(%arg2), symbol(%arg3)] : memref<64x80x14x14xf32>
    return
  }
  func.func private @S189(%arg0: index, %arg1: index, %arg2: index, %arg3: index, %arg4: memref<64x480x14x14xf32>) attributes {scop.stmt} {
    %cst = arith.constant 0.000000e+00 : f32
    affine.store %cst, %arg4[symbol(%arg0), symbol(%arg1), symbol(%arg2), symbol(%arg3)] : memref<64x480x14x14xf32>
    return
  }
  func.func private @S190(%arg0: index, %arg1: index, %arg2: index, %arg3: index, %arg4: memref<64x480x14x14xf32>, %arg5: index, %arg6: index, %arg7: index, %arg8: memref<480x80x1x1xf32>, %arg9: memref<64x80x14x14xf32>) attributes {scop.stmt} {
    %0 = affine.load %arg4[symbol(%arg0), symbol(%arg1), symbol(%arg2), symbol(%arg3)] : memref<64x480x14x14xf32>
    %1 = affine.load %arg9[symbol(%arg0), symbol(%arg5), symbol(%arg2) + symbol(%arg6), symbol(%arg3) + symbol(%arg7)] : memref<64x80x14x14xf32>
    %2 = affine.load %arg8[symbol(%arg1), symbol(%arg5), symbol(%arg6), symbol(%arg7)] : memref<480x80x1x1xf32>
    %3 = arith.mulf %1, %2 : f32
    %4 = arith.addf %0, %3 : f32
    affine.store %4, %arg4[symbol(%arg0), symbol(%arg1), symbol(%arg2), symbol(%arg3)] : memref<64x480x14x14xf32>
    return
  }
  func.func private @S191(%arg0: index, %arg1: index, %arg2: index, %arg3: index, %arg4: memref<64x480x14x14xf32>, %arg5: memref<64x480x14x14xf32>) attributes {scop.stmt} {
    %cst = arith.constant 0.000000e+00 : f32
    %cst_0 = arith.constant 1.000000e+00 : f32
    %cst_1 = arith.constant 1.000000e-03 : f64
    %0 = affine.load %arg5[symbol(%arg0), symbol(%arg1), symbol(%arg2), symbol(%arg3)] : memref<64x480x14x14xf32>
    %1 = arith.truncf %cst_1 : f64 to f32
    %2 = arith.addf %1, %cst_0 : f32
    %3 = math.rsqrt %2 : f32
    %4 = arith.mulf %0, %3 : f32
    %5 = arith.addf %4, %cst : f32
    affine.store %5, %arg4[symbol(%arg0), symbol(%arg1), symbol(%arg2), symbol(%arg3)] : memref<64x480x14x14xf32>
    return
  }
  func.func private @S192(%arg0: index, %arg1: index, %arg2: index, %arg3: index, %arg4: memref<64x480x14x14xf32>, %arg5: memref<64x480x14x14xf32>) attributes {scop.stmt} {
    %cst = arith.constant 3.000000e+00 : f32
    %0 = affine.load %arg5[symbol(%arg0), symbol(%arg1), symbol(%arg2), symbol(%arg3)] : memref<64x480x14x14xf32>
    %1 = arith.addf %0, %cst : f32
    affine.store %1, %arg4[symbol(%arg0), symbol(%arg1), symbol(%arg2), symbol(%arg3)] : memref<64x480x14x14xf32>
    return
  }
  func.func private @S193(%arg0: index, %arg1: index, %arg2: index, %arg3: index, %arg4: memref<64x480x14x14xf32>, %arg5: memref<64x480x14x14xf32>) attributes {scop.stmt} {
    %cst = arith.constant 0.000000e+00 : f32
    %0 = affine.load %arg5[symbol(%arg0), symbol(%arg1), symbol(%arg2), symbol(%arg3)] : memref<64x480x14x14xf32>
    %1 = arith.cmpf ugt, %0, %cst : f32
    %2 = arith.select %1, %0, %cst : f32
    affine.store %2, %arg4[symbol(%arg0), symbol(%arg1), symbol(%arg2), symbol(%arg3)] : memref<64x480x14x14xf32>
    return
  }
  func.func private @S194(%arg0: index, %arg1: index, %arg2: index, %arg3: index, %arg4: memref<64x480x14x14xf32>, %arg5: memref<f32>, %arg6: memref<64x480x14x14xf32>) attributes {scop.stmt} {
    %0 = affine.load %arg6[symbol(%arg0), symbol(%arg1), symbol(%arg2), symbol(%arg3)] : memref<64x480x14x14xf32>
    %1 = affine.load %arg5[] : memref<f32>
    %2 = arith.cmpf ult, %0, %1 : f32
    %3 = arith.select %2, %0, %1 : f32
    affine.store %3, %arg4[symbol(%arg0), symbol(%arg1), symbol(%arg2), symbol(%arg3)] : memref<64x480x14x14xf32>
    return
  }
  func.func private @S195(%arg0: index, %arg1: index, %arg2: index, %arg3: index, %arg4: memref<64x480x14x14xf32>, %arg5: memref<64x480x14x14xf32>) attributes {scop.stmt} {
    %cst = arith.constant 6.000000e+00 : f32
    %0 = affine.load %arg5[symbol(%arg0), symbol(%arg1), symbol(%arg2), symbol(%arg3)] : memref<64x480x14x14xf32>
    %1 = arith.divf %0, %cst : f32
    affine.store %1, %arg4[symbol(%arg0), symbol(%arg1), symbol(%arg2), symbol(%arg3)] : memref<64x480x14x14xf32>
    return
  }
  func.func private @S196(%arg0: index, %arg1: index, %arg2: index, %arg3: index, %arg4: memref<64x480x14x14xf32>, %arg5: memref<64x480x14x14xf32>, %arg6: memref<64x480x14x14xf32>) attributes {scop.stmt} {
    %0 = affine.load %arg6[symbol(%arg0), symbol(%arg1), symbol(%arg2), symbol(%arg3)] : memref<64x480x14x14xf32>
    %1 = affine.load %arg5[symbol(%arg0), symbol(%arg1), symbol(%arg2), symbol(%arg3)] : memref<64x480x14x14xf32>
    %2 = arith.mulf %0, %1 : f32
    affine.store %2, %arg4[symbol(%arg0), symbol(%arg1), symbol(%arg2), symbol(%arg3)] : memref<64x480x14x14xf32>
    return
  }
  func.func private @S197(%arg0: index, %arg1: index, %arg2: index, %arg3: index, %arg4: memref<64x480x16x16xf32>) attributes {scop.stmt} {
    %cst = arith.constant 0.000000e+00 : f32
    affine.store %cst, %arg4[symbol(%arg0), symbol(%arg1), symbol(%arg2), symbol(%arg3)] : memref<64x480x16x16xf32>
    return
  }
  func.func private @S198(%arg0: index, %arg1: index, %arg2: index, %arg3: index, %arg4: memref<64x480x14x14xf32>, %arg5: index, %arg6: index, %arg7: memref<480x3x3xf32>, %arg8: memref<64x480x16x16xf32>) attributes {scop.stmt} {
    %0 = affine.load %arg4[symbol(%arg0), symbol(%arg1), symbol(%arg2), symbol(%arg3)] : memref<64x480x14x14xf32>
    %1 = affine.load %arg8[symbol(%arg0), symbol(%arg1), symbol(%arg2) + symbol(%arg5), symbol(%arg3) + symbol(%arg6)] : memref<64x480x16x16xf32>
    %2 = affine.load %arg7[symbol(%arg1), symbol(%arg5), symbol(%arg6)] : memref<480x3x3xf32>
    %3 = arith.mulf %1, %2 : f32
    %4 = arith.addf %0, %3 : f32
    affine.store %4, %arg4[symbol(%arg0), symbol(%arg1), symbol(%arg2), symbol(%arg3)] : memref<64x480x14x14xf32>
    return
  }
  func.func private @S199(%arg0: index, %arg1: index, %arg2: index, %arg3: index, %arg4: memref<64x480x14x14xf32>, %arg5: memref<64x480x14x14xf32>) attributes {scop.stmt} {
    %cst = arith.constant 0.000000e+00 : f32
    %cst_0 = arith.constant 1.000000e+00 : f32
    %cst_1 = arith.constant 1.000000e-03 : f64
    %0 = affine.load %arg5[symbol(%arg0), symbol(%arg1), symbol(%arg2), symbol(%arg3)] : memref<64x480x14x14xf32>
    %1 = arith.truncf %cst_1 : f64 to f32
    %2 = arith.addf %1, %cst_0 : f32
    %3 = math.rsqrt %2 : f32
    %4 = arith.mulf %0, %3 : f32
    %5 = arith.addf %4, %cst : f32
    affine.store %5, %arg4[symbol(%arg0), symbol(%arg1), symbol(%arg2), symbol(%arg3)] : memref<64x480x14x14xf32>
    return
  }
  func.func private @S200(%arg0: index, %arg1: index, %arg2: index, %arg3: index, %arg4: memref<64x480x14x14xf32>, %arg5: memref<64x480x14x14xf32>) attributes {scop.stmt} {
    %cst = arith.constant 3.000000e+00 : f32
    %0 = affine.load %arg5[symbol(%arg0), symbol(%arg1), symbol(%arg2), symbol(%arg3)] : memref<64x480x14x14xf32>
    %1 = arith.addf %0, %cst : f32
    affine.store %1, %arg4[symbol(%arg0), symbol(%arg1), symbol(%arg2), symbol(%arg3)] : memref<64x480x14x14xf32>
    return
  }
  func.func private @S201(%arg0: index, %arg1: index, %arg2: index, %arg3: index, %arg4: memref<64x480x14x14xf32>, %arg5: memref<64x480x14x14xf32>) attributes {scop.stmt} {
    %cst = arith.constant 0.000000e+00 : f32
    %0 = affine.load %arg5[symbol(%arg0), symbol(%arg1), symbol(%arg2), symbol(%arg3)] : memref<64x480x14x14xf32>
    %1 = arith.cmpf ugt, %0, %cst : f32
    %2 = arith.select %1, %0, %cst : f32
    affine.store %2, %arg4[symbol(%arg0), symbol(%arg1), symbol(%arg2), symbol(%arg3)] : memref<64x480x14x14xf32>
    return
  }
  func.func private @S202(%arg0: index, %arg1: index, %arg2: index, %arg3: index, %arg4: memref<64x480x14x14xf32>, %arg5: memref<f32>, %arg6: memref<64x480x14x14xf32>) attributes {scop.stmt} {
    %0 = affine.load %arg6[symbol(%arg0), symbol(%arg1), symbol(%arg2), symbol(%arg3)] : memref<64x480x14x14xf32>
    %1 = affine.load %arg5[] : memref<f32>
    %2 = arith.cmpf ult, %0, %1 : f32
    %3 = arith.select %2, %0, %1 : f32
    affine.store %3, %arg4[symbol(%arg0), symbol(%arg1), symbol(%arg2), symbol(%arg3)] : memref<64x480x14x14xf32>
    return
  }
  func.func private @S203(%arg0: index, %arg1: index, %arg2: index, %arg3: index, %arg4: memref<64x480x14x14xf32>, %arg5: memref<64x480x14x14xf32>) attributes {scop.stmt} {
    %cst = arith.constant 6.000000e+00 : f32
    %0 = affine.load %arg5[symbol(%arg0), symbol(%arg1), symbol(%arg2), symbol(%arg3)] : memref<64x480x14x14xf32>
    %1 = arith.divf %0, %cst : f32
    affine.store %1, %arg4[symbol(%arg0), symbol(%arg1), symbol(%arg2), symbol(%arg3)] : memref<64x480x14x14xf32>
    return
  }
  func.func private @S204(%arg0: index, %arg1: index, %arg2: index, %arg3: index, %arg4: memref<64x480x14x14xf32>, %arg5: memref<64x480x14x14xf32>, %arg6: memref<64x480x14x14xf32>) attributes {scop.stmt} {
    %0 = affine.load %arg6[symbol(%arg0), symbol(%arg1), symbol(%arg2), symbol(%arg3)] : memref<64x480x14x14xf32>
    %1 = affine.load %arg5[symbol(%arg0), symbol(%arg1), symbol(%arg2), symbol(%arg3)] : memref<64x480x14x14xf32>
    %2 = arith.mulf %0, %1 : f32
    affine.store %2, %arg4[symbol(%arg0), symbol(%arg1), symbol(%arg2), symbol(%arg3)] : memref<64x480x14x14xf32>
    return
  }
  func.func private @S205(%arg0: index, %arg1: index, %arg2: index, %arg3: index, %arg4: memref<64x480x1x1xf32>) attributes {scop.stmt} {
    %cst = arith.constant 0.000000e+00 : f32
    affine.store %cst, %arg4[symbol(%arg0), symbol(%arg1), symbol(%arg2), symbol(%arg3)] : memref<64x480x1x1xf32>
    return
  }
  func.func private @S206(%arg0: index, %arg1: index, %arg2: index, %arg3: index, %arg4: memref<64x480x1x1xf32>, %arg5: index, %arg6: index, %arg7: memref<64x480x14x14xf32>) attributes {scop.stmt} {
    %0 = affine.load %arg4[symbol(%arg0), symbol(%arg1), symbol(%arg2), symbol(%arg3)] : memref<64x480x1x1xf32>
    %1 = affine.load %arg7[symbol(%arg0), symbol(%arg1), symbol(%arg2) + symbol(%arg5), symbol(%arg3) + symbol(%arg6)] : memref<64x480x14x14xf32>
    %2 = arith.addf %0, %1 : f32
    affine.store %2, %arg4[symbol(%arg0), symbol(%arg1), symbol(%arg2), symbol(%arg3)] : memref<64x480x1x1xf32>
    return
  }
  func.func private @S207(%arg0: index, %arg1: index, %arg2: index, %arg3: index, %arg4: memref<64x480x1x1xf32>, %arg5: memref<64x480x1x1xf32>) attributes {scop.stmt} {
    %cst = arith.constant 1.960000e+02 : f32
    %0 = affine.load %arg5[symbol(%arg0), symbol(%arg1), symbol(%arg2), symbol(%arg3)] : memref<64x480x1x1xf32>
    %1 = arith.divf %0, %cst : f32
    affine.store %1, %arg4[symbol(%arg0), symbol(%arg1), symbol(%arg2), symbol(%arg3)] : memref<64x480x1x1xf32>
    return
  }
  func.func private @S208(%arg0: index, %arg1: index, %arg2: index, %arg3: index, %arg4: memref<64x120x1x1xf32>, %arg5: index, %arg6: index, %arg7: index, %arg8: memref<120x480x1x1xf32>, %arg9: memref<64x480x1x1xf32>) attributes {scop.stmt} {
    %0 = affine.load %arg4[symbol(%arg0), symbol(%arg1), symbol(%arg2), symbol(%arg3)] : memref<64x120x1x1xf32>
    %1 = affine.load %arg9[symbol(%arg0), symbol(%arg5), symbol(%arg2) + symbol(%arg6), symbol(%arg3) + symbol(%arg7)] : memref<64x480x1x1xf32>
    %2 = affine.load %arg8[symbol(%arg1), symbol(%arg5), symbol(%arg6), symbol(%arg7)] : memref<120x480x1x1xf32>
    %3 = arith.mulf %1, %2 : f32
    %4 = arith.addf %0, %3 : f32
    affine.store %4, %arg4[symbol(%arg0), symbol(%arg1), symbol(%arg2), symbol(%arg3)] : memref<64x120x1x1xf32>
    return
  }
  func.func private @S209(%arg0: index, %arg1: index, %arg2: index, %arg3: index, %arg4: memref<64x120x1x1xf32>, %arg5: memref<64x120x1x1xf32>) attributes {scop.stmt} {
    %cst = arith.constant 0.000000e+00 : f32
    %0 = affine.load %arg5[symbol(%arg0), symbol(%arg1), 0, 0] : memref<64x120x1x1xf32>
    %1 = arith.cmpf ugt, %0, %cst : f32
    %2 = arith.select %1, %0, %cst : f32
    affine.store %2, %arg4[symbol(%arg0), symbol(%arg1), symbol(%arg2), symbol(%arg3)] : memref<64x120x1x1xf32>
    return
  }
  func.func private @S210(%arg0: index, %arg1: index, %arg2: index, %arg3: index, %arg4: memref<64x480x1x1xf32>) attributes {scop.stmt} {
    %cst = arith.constant 0.000000e+00 : f32
    affine.store %cst, %arg4[symbol(%arg0), symbol(%arg1), symbol(%arg2), symbol(%arg3)] : memref<64x480x1x1xf32>
    return
  }
  func.func private @S211(%arg0: index, %arg1: index, %arg2: index, %arg3: index, %arg4: memref<64x480x1x1xf32>, %arg5: index, %arg6: index, %arg7: index, %arg8: memref<480x120x1x1xf32>, %arg9: memref<64x120x1x1xf32>) attributes {scop.stmt} {
    %0 = affine.load %arg4[symbol(%arg0), symbol(%arg1), symbol(%arg2), symbol(%arg3)] : memref<64x480x1x1xf32>
    %1 = affine.load %arg9[symbol(%arg0), symbol(%arg5), symbol(%arg2) + symbol(%arg6), symbol(%arg3) + symbol(%arg7)] : memref<64x120x1x1xf32>
    %2 = affine.load %arg8[symbol(%arg1), symbol(%arg5), symbol(%arg6), symbol(%arg7)] : memref<480x120x1x1xf32>
    %3 = arith.mulf %1, %2 : f32
    %4 = arith.addf %0, %3 : f32
    affine.store %4, %arg4[symbol(%arg0), symbol(%arg1), symbol(%arg2), symbol(%arg3)] : memref<64x480x1x1xf32>
    return
  }
  func.func private @S212(%arg0: index, %arg1: index, %arg2: index, %arg3: index, %arg4: memref<64x480x1x1xf32>, %arg5: memref<64x480x1x1xf32>) attributes {scop.stmt} {
    %cst = arith.constant 3.000000e+00 : f32
    %0 = affine.load %arg5[symbol(%arg0), symbol(%arg1), 0, 0] : memref<64x480x1x1xf32>
    %1 = arith.addf %0, %cst : f32
    affine.store %1, %arg4[symbol(%arg0), symbol(%arg1), symbol(%arg2), symbol(%arg3)] : memref<64x480x1x1xf32>
    return
  }
  func.func private @S213(%arg0: index, %arg1: index, %arg2: index, %arg3: index, %arg4: memref<64x480x1x1xf32>, %arg5: memref<64x480x1x1xf32>) attributes {scop.stmt} {
    %cst = arith.constant 6.000000e+00 : f32
    %0 = affine.load %arg5[symbol(%arg0), symbol(%arg1), 0, 0] : memref<64x480x1x1xf32>
    %1 = arith.divf %0, %cst : f32
    affine.store %1, %arg4[symbol(%arg0), symbol(%arg1), symbol(%arg2), symbol(%arg3)] : memref<64x480x1x1xf32>
    return
  }
  func.func private @S214(%arg0: index, %arg1: index, %arg2: index, %arg3: index, %arg4: memref<64x480x1x1xf32>, %arg5: memref<64x480x1x1xf32>, %arg6: memref<f32>) attributes {scop.stmt} {
    %0 = affine.load %arg6[] : memref<f32>
    %1 = affine.load %arg5[symbol(%arg0), symbol(%arg1), 0, 0] : memref<64x480x1x1xf32>
    %2 = arith.cmpf ult, %0, %1 : f32
    %3 = arith.select %2, %0, %1 : f32
    affine.store %3, %arg4[symbol(%arg0), symbol(%arg1), symbol(%arg2), symbol(%arg3)] : memref<64x480x1x1xf32>
    return
  }
  func.func private @S215(%arg0: index, %arg1: index, %arg2: index, %arg3: index, %arg4: memref<64x480x1x1xf32>, %arg5: memref<64x480x1x1xf32>, %arg6: memref<f32>) attributes {scop.stmt} {
    %0 = affine.load %arg6[] : memref<f32>
    %1 = affine.load %arg5[symbol(%arg0), symbol(%arg1), 0, 0] : memref<64x480x1x1xf32>
    %2 = arith.cmpf ugt, %0, %1 : f32
    %3 = arith.select %2, %0, %1 : f32
    affine.store %3, %arg4[symbol(%arg0), symbol(%arg1), symbol(%arg2), symbol(%arg3)] : memref<64x480x1x1xf32>
    return
  }
  func.func private @S216(%arg0: index, %arg1: index, %arg2: index, %arg3: index, %arg4: memref<64x480x14x14xf32>, %arg5: memref<64x480x14x14xf32>, %arg6: memref<64x480x1x1xf32>) attributes {scop.stmt} {
    %0 = affine.load %arg6[symbol(%arg0), symbol(%arg1), 0, 0] : memref<64x480x1x1xf32>
    %1 = affine.load %arg5[symbol(%arg0), symbol(%arg1), symbol(%arg2), symbol(%arg3)] : memref<64x480x14x14xf32>
    %2 = arith.mulf %0, %1 : f32
    affine.store %2, %arg4[symbol(%arg0), symbol(%arg1), symbol(%arg2), symbol(%arg3)] : memref<64x480x14x14xf32>
    return
  }
  func.func private @S217(%arg0: index, %arg1: index, %arg2: index, %arg3: index, %arg4: memref<64x112x14x14xf32>) attributes {scop.stmt} {
    %cst = arith.constant 0.000000e+00 : f32
    affine.store %cst, %arg4[symbol(%arg0), symbol(%arg1), symbol(%arg2), symbol(%arg3)] : memref<64x112x14x14xf32>
    return
  }
  func.func private @S218(%arg0: index, %arg1: index, %arg2: index, %arg3: index, %arg4: memref<64x112x14x14xf32>, %arg5: index, %arg6: index, %arg7: index, %arg8: memref<112x480x1x1xf32>, %arg9: memref<64x480x14x14xf32>) attributes {scop.stmt} {
    %0 = affine.load %arg4[symbol(%arg0), symbol(%arg1), symbol(%arg2), symbol(%arg3)] : memref<64x112x14x14xf32>
    %1 = affine.load %arg9[symbol(%arg0), symbol(%arg5), symbol(%arg2) + symbol(%arg6), symbol(%arg3) + symbol(%arg7)] : memref<64x480x14x14xf32>
    %2 = affine.load %arg8[symbol(%arg1), symbol(%arg5), symbol(%arg6), symbol(%arg7)] : memref<112x480x1x1xf32>
    %3 = arith.mulf %1, %2 : f32
    %4 = arith.addf %0, %3 : f32
    affine.store %4, %arg4[symbol(%arg0), symbol(%arg1), symbol(%arg2), symbol(%arg3)] : memref<64x112x14x14xf32>
    return
  }
  func.func private @S219(%arg0: index, %arg1: index, %arg2: index, %arg3: index, %arg4: memref<64x112x14x14xf32>, %arg5: memref<64x112x14x14xf32>) attributes {scop.stmt} {
    %cst = arith.constant 0.000000e+00 : f32
    %cst_0 = arith.constant 1.000000e+00 : f32
    %cst_1 = arith.constant 1.000000e-03 : f64
    %0 = affine.load %arg5[symbol(%arg0), symbol(%arg1), symbol(%arg2), symbol(%arg3)] : memref<64x112x14x14xf32>
    %1 = arith.truncf %cst_1 : f64 to f32
    %2 = arith.addf %1, %cst_0 : f32
    %3 = math.rsqrt %2 : f32
    %4 = arith.mulf %0, %3 : f32
    %5 = arith.addf %4, %cst : f32
    affine.store %5, %arg4[symbol(%arg0), symbol(%arg1), symbol(%arg2), symbol(%arg3)] : memref<64x112x14x14xf32>
    return
  }
  func.func private @S220(%arg0: index, %arg1: index, %arg2: index, %arg3: index, %arg4: memref<64x672x14x14xf32>) attributes {scop.stmt} {
    %cst = arith.constant 0.000000e+00 : f32
    affine.store %cst, %arg4[symbol(%arg0), symbol(%arg1), symbol(%arg2), symbol(%arg3)] : memref<64x672x14x14xf32>
    return
  }
  func.func private @S221(%arg0: index, %arg1: index, %arg2: index, %arg3: index, %arg4: memref<64x672x14x14xf32>, %arg5: index, %arg6: index, %arg7: index, %arg8: memref<672x112x1x1xf32>, %arg9: memref<64x112x14x14xf32>) attributes {scop.stmt} {
    %0 = affine.load %arg4[symbol(%arg0), symbol(%arg1), symbol(%arg2), symbol(%arg3)] : memref<64x672x14x14xf32>
    %1 = affine.load %arg9[symbol(%arg0), symbol(%arg5), symbol(%arg2) + symbol(%arg6), symbol(%arg3) + symbol(%arg7)] : memref<64x112x14x14xf32>
    %2 = affine.load %arg8[symbol(%arg1), symbol(%arg5), symbol(%arg6), symbol(%arg7)] : memref<672x112x1x1xf32>
    %3 = arith.mulf %1, %2 : f32
    %4 = arith.addf %0, %3 : f32
    affine.store %4, %arg4[symbol(%arg0), symbol(%arg1), symbol(%arg2), symbol(%arg3)] : memref<64x672x14x14xf32>
    return
  }
  func.func private @S222(%arg0: index, %arg1: index, %arg2: index, %arg3: index, %arg4: memref<64x672x14x14xf32>, %arg5: memref<64x672x14x14xf32>) attributes {scop.stmt} {
    %cst = arith.constant 0.000000e+00 : f32
    %cst_0 = arith.constant 1.000000e+00 : f32
    %cst_1 = arith.constant 1.000000e-03 : f64
    %0 = affine.load %arg5[symbol(%arg0), symbol(%arg1), symbol(%arg2), symbol(%arg3)] : memref<64x672x14x14xf32>
    %1 = arith.truncf %cst_1 : f64 to f32
    %2 = arith.addf %1, %cst_0 : f32
    %3 = math.rsqrt %2 : f32
    %4 = arith.mulf %0, %3 : f32
    %5 = arith.addf %4, %cst : f32
    affine.store %5, %arg4[symbol(%arg0), symbol(%arg1), symbol(%arg2), symbol(%arg3)] : memref<64x672x14x14xf32>
    return
  }
  func.func private @S223(%arg0: index, %arg1: index, %arg2: index, %arg3: index, %arg4: memref<64x672x14x14xf32>, %arg5: memref<64x672x14x14xf32>) attributes {scop.stmt} {
    %cst = arith.constant 3.000000e+00 : f32
    %0 = affine.load %arg5[symbol(%arg0), symbol(%arg1), symbol(%arg2), symbol(%arg3)] : memref<64x672x14x14xf32>
    %1 = arith.addf %0, %cst : f32
    affine.store %1, %arg4[symbol(%arg0), symbol(%arg1), symbol(%arg2), symbol(%arg3)] : memref<64x672x14x14xf32>
    return
  }
  func.func private @S224(%arg0: index, %arg1: index, %arg2: index, %arg3: index, %arg4: memref<64x672x14x14xf32>, %arg5: memref<64x672x14x14xf32>) attributes {scop.stmt} {
    %cst = arith.constant 0.000000e+00 : f32
    %0 = affine.load %arg5[symbol(%arg0), symbol(%arg1), symbol(%arg2), symbol(%arg3)] : memref<64x672x14x14xf32>
    %1 = arith.cmpf ugt, %0, %cst : f32
    %2 = arith.select %1, %0, %cst : f32
    affine.store %2, %arg4[symbol(%arg0), symbol(%arg1), symbol(%arg2), symbol(%arg3)] : memref<64x672x14x14xf32>
    return
  }
  func.func private @S225(%arg0: index, %arg1: index, %arg2: index, %arg3: index, %arg4: memref<64x672x14x14xf32>, %arg5: memref<f32>, %arg6: memref<64x672x14x14xf32>) attributes {scop.stmt} {
    %0 = affine.load %arg6[symbol(%arg0), symbol(%arg1), symbol(%arg2), symbol(%arg3)] : memref<64x672x14x14xf32>
    %1 = affine.load %arg5[] : memref<f32>
    %2 = arith.cmpf ult, %0, %1 : f32
    %3 = arith.select %2, %0, %1 : f32
    affine.store %3, %arg4[symbol(%arg0), symbol(%arg1), symbol(%arg2), symbol(%arg3)] : memref<64x672x14x14xf32>
    return
  }
  func.func private @S226(%arg0: index, %arg1: index, %arg2: index, %arg3: index, %arg4: memref<64x672x14x14xf32>, %arg5: memref<64x672x14x14xf32>) attributes {scop.stmt} {
    %cst = arith.constant 6.000000e+00 : f32
    %0 = affine.load %arg5[symbol(%arg0), symbol(%arg1), symbol(%arg2), symbol(%arg3)] : memref<64x672x14x14xf32>
    %1 = arith.divf %0, %cst : f32
    affine.store %1, %arg4[symbol(%arg0), symbol(%arg1), symbol(%arg2), symbol(%arg3)] : memref<64x672x14x14xf32>
    return
  }
  func.func private @S227(%arg0: index, %arg1: index, %arg2: index, %arg3: index, %arg4: memref<64x672x14x14xf32>, %arg5: memref<64x672x14x14xf32>, %arg6: memref<64x672x14x14xf32>) attributes {scop.stmt} {
    %0 = affine.load %arg6[symbol(%arg0), symbol(%arg1), symbol(%arg2), symbol(%arg3)] : memref<64x672x14x14xf32>
    %1 = affine.load %arg5[symbol(%arg0), symbol(%arg1), symbol(%arg2), symbol(%arg3)] : memref<64x672x14x14xf32>
    %2 = arith.mulf %0, %1 : f32
    affine.store %2, %arg4[symbol(%arg0), symbol(%arg1), symbol(%arg2), symbol(%arg3)] : memref<64x672x14x14xf32>
    return
  }
  func.func private @S228(%arg0: index, %arg1: index, %arg2: index, %arg3: index, %arg4: memref<64x672x16x16xf32>) attributes {scop.stmt} {
    %cst = arith.constant 0.000000e+00 : f32
    affine.store %cst, %arg4[symbol(%arg0), symbol(%arg1), symbol(%arg2), symbol(%arg3)] : memref<64x672x16x16xf32>
    return
  }
  func.func private @S229(%arg0: index, %arg1: index, %arg2: index, %arg3: index, %arg4: memref<64x672x14x14xf32>, %arg5: index, %arg6: index, %arg7: memref<672x3x3xf32>, %arg8: memref<64x672x16x16xf32>) attributes {scop.stmt} {
    %0 = affine.load %arg4[symbol(%arg0), symbol(%arg1), symbol(%arg2), symbol(%arg3)] : memref<64x672x14x14xf32>
    %1 = affine.load %arg8[symbol(%arg0), symbol(%arg1), symbol(%arg2) + symbol(%arg5), symbol(%arg3) + symbol(%arg6)] : memref<64x672x16x16xf32>
    %2 = affine.load %arg7[symbol(%arg1), symbol(%arg5), symbol(%arg6)] : memref<672x3x3xf32>
    %3 = arith.mulf %1, %2 : f32
    %4 = arith.addf %0, %3 : f32
    affine.store %4, %arg4[symbol(%arg0), symbol(%arg1), symbol(%arg2), symbol(%arg3)] : memref<64x672x14x14xf32>
    return
  }
  func.func private @S230(%arg0: index, %arg1: index, %arg2: index, %arg3: index, %arg4: memref<64x672x14x14xf32>, %arg5: memref<64x672x14x14xf32>) attributes {scop.stmt} {
    %cst = arith.constant 0.000000e+00 : f32
    %cst_0 = arith.constant 1.000000e+00 : f32
    %cst_1 = arith.constant 1.000000e-03 : f64
    %0 = affine.load %arg5[symbol(%arg0), symbol(%arg1), symbol(%arg2), symbol(%arg3)] : memref<64x672x14x14xf32>
    %1 = arith.truncf %cst_1 : f64 to f32
    %2 = arith.addf %1, %cst_0 : f32
    %3 = math.rsqrt %2 : f32
    %4 = arith.mulf %0, %3 : f32
    %5 = arith.addf %4, %cst : f32
    affine.store %5, %arg4[symbol(%arg0), symbol(%arg1), symbol(%arg2), symbol(%arg3)] : memref<64x672x14x14xf32>
    return
  }
  func.func private @S231(%arg0: index, %arg1: index, %arg2: index, %arg3: index, %arg4: memref<64x672x14x14xf32>, %arg5: memref<64x672x14x14xf32>) attributes {scop.stmt} {
    %cst = arith.constant 3.000000e+00 : f32
    %0 = affine.load %arg5[symbol(%arg0), symbol(%arg1), symbol(%arg2), symbol(%arg3)] : memref<64x672x14x14xf32>
    %1 = arith.addf %0, %cst : f32
    affine.store %1, %arg4[symbol(%arg0), symbol(%arg1), symbol(%arg2), symbol(%arg3)] : memref<64x672x14x14xf32>
    return
  }
  func.func private @S232(%arg0: index, %arg1: index, %arg2: index, %arg3: index, %arg4: memref<64x672x14x14xf32>, %arg5: memref<64x672x14x14xf32>) attributes {scop.stmt} {
    %cst = arith.constant 0.000000e+00 : f32
    %0 = affine.load %arg5[symbol(%arg0), symbol(%arg1), symbol(%arg2), symbol(%arg3)] : memref<64x672x14x14xf32>
    %1 = arith.cmpf ugt, %0, %cst : f32
    %2 = arith.select %1, %0, %cst : f32
    affine.store %2, %arg4[symbol(%arg0), symbol(%arg1), symbol(%arg2), symbol(%arg3)] : memref<64x672x14x14xf32>
    return
  }
  func.func private @S233(%arg0: index, %arg1: index, %arg2: index, %arg3: index, %arg4: memref<64x672x14x14xf32>, %arg5: memref<f32>, %arg6: memref<64x672x14x14xf32>) attributes {scop.stmt} {
    %0 = affine.load %arg6[symbol(%arg0), symbol(%arg1), symbol(%arg2), symbol(%arg3)] : memref<64x672x14x14xf32>
    %1 = affine.load %arg5[] : memref<f32>
    %2 = arith.cmpf ult, %0, %1 : f32
    %3 = arith.select %2, %0, %1 : f32
    affine.store %3, %arg4[symbol(%arg0), symbol(%arg1), symbol(%arg2), symbol(%arg3)] : memref<64x672x14x14xf32>
    return
  }
  func.func private @S234(%arg0: index, %arg1: index, %arg2: index, %arg3: index, %arg4: memref<64x672x14x14xf32>, %arg5: memref<64x672x14x14xf32>) attributes {scop.stmt} {
    %cst = arith.constant 6.000000e+00 : f32
    %0 = affine.load %arg5[symbol(%arg0), symbol(%arg1), symbol(%arg2), symbol(%arg3)] : memref<64x672x14x14xf32>
    %1 = arith.divf %0, %cst : f32
    affine.store %1, %arg4[symbol(%arg0), symbol(%arg1), symbol(%arg2), symbol(%arg3)] : memref<64x672x14x14xf32>
    return
  }
  func.func private @S235(%arg0: index, %arg1: index, %arg2: index, %arg3: index, %arg4: memref<64x672x14x14xf32>, %arg5: memref<64x672x14x14xf32>, %arg6: memref<64x672x14x14xf32>) attributes {scop.stmt} {
    %0 = affine.load %arg6[symbol(%arg0), symbol(%arg1), symbol(%arg2), symbol(%arg3)] : memref<64x672x14x14xf32>
    %1 = affine.load %arg5[symbol(%arg0), symbol(%arg1), symbol(%arg2), symbol(%arg3)] : memref<64x672x14x14xf32>
    %2 = arith.mulf %0, %1 : f32
    affine.store %2, %arg4[symbol(%arg0), symbol(%arg1), symbol(%arg2), symbol(%arg3)] : memref<64x672x14x14xf32>
    return
  }
  func.func private @S236(%arg0: index, %arg1: index, %arg2: index, %arg3: index, %arg4: memref<64x672x1x1xf32>) attributes {scop.stmt} {
    %cst = arith.constant 0.000000e+00 : f32
    affine.store %cst, %arg4[symbol(%arg0), symbol(%arg1), symbol(%arg2), symbol(%arg3)] : memref<64x672x1x1xf32>
    return
  }
  func.func private @S237(%arg0: index, %arg1: index, %arg2: index, %arg3: index, %arg4: memref<64x672x1x1xf32>, %arg5: index, %arg6: index, %arg7: memref<64x672x14x14xf32>) attributes {scop.stmt} {
    %0 = affine.load %arg4[symbol(%arg0), symbol(%arg1), symbol(%arg2), symbol(%arg3)] : memref<64x672x1x1xf32>
    %1 = affine.load %arg7[symbol(%arg0), symbol(%arg1), symbol(%arg2) + symbol(%arg5), symbol(%arg3) + symbol(%arg6)] : memref<64x672x14x14xf32>
    %2 = arith.addf %0, %1 : f32
    affine.store %2, %arg4[symbol(%arg0), symbol(%arg1), symbol(%arg2), symbol(%arg3)] : memref<64x672x1x1xf32>
    return
  }
  func.func private @S238(%arg0: index, %arg1: index, %arg2: index, %arg3: index, %arg4: memref<64x672x1x1xf32>, %arg5: memref<64x672x1x1xf32>) attributes {scop.stmt} {
    %cst = arith.constant 1.960000e+02 : f32
    %0 = affine.load %arg5[symbol(%arg0), symbol(%arg1), symbol(%arg2), symbol(%arg3)] : memref<64x672x1x1xf32>
    %1 = arith.divf %0, %cst : f32
    affine.store %1, %arg4[symbol(%arg0), symbol(%arg1), symbol(%arg2), symbol(%arg3)] : memref<64x672x1x1xf32>
    return
  }
  func.func private @S239(%arg0: index, %arg1: index, %arg2: index, %arg3: index, %arg4: memref<64x168x1x1xf32>) attributes {scop.stmt} {
    %cst = arith.constant 0.000000e+00 : f32
    affine.store %cst, %arg4[symbol(%arg0), symbol(%arg1), symbol(%arg2), symbol(%arg3)] : memref<64x168x1x1xf32>
    return
  }
  func.func private @S240(%arg0: index, %arg1: index, %arg2: index, %arg3: index, %arg4: memref<64x168x1x1xf32>, %arg5: index, %arg6: index, %arg7: index, %arg8: memref<168x672x1x1xf32>, %arg9: memref<64x672x1x1xf32>) attributes {scop.stmt} {
    %0 = affine.load %arg4[symbol(%arg0), symbol(%arg1), symbol(%arg2), symbol(%arg3)] : memref<64x168x1x1xf32>
    %1 = affine.load %arg9[symbol(%arg0), symbol(%arg5), symbol(%arg2) + symbol(%arg6), symbol(%arg3) + symbol(%arg7)] : memref<64x672x1x1xf32>
    %2 = affine.load %arg8[symbol(%arg1), symbol(%arg5), symbol(%arg6), symbol(%arg7)] : memref<168x672x1x1xf32>
    %3 = arith.mulf %1, %2 : f32
    %4 = arith.addf %0, %3 : f32
    affine.store %4, %arg4[symbol(%arg0), symbol(%arg1), symbol(%arg2), symbol(%arg3)] : memref<64x168x1x1xf32>
    return
  }
  func.func private @S241(%arg0: index, %arg1: index, %arg2: index, %arg3: index, %arg4: memref<64x168x1x1xf32>, %arg5: memref<64x168x1x1xf32>) attributes {scop.stmt} {
    %cst = arith.constant 0.000000e+00 : f32
    %0 = affine.load %arg5[symbol(%arg0), symbol(%arg1), 0, 0] : memref<64x168x1x1xf32>
    %1 = arith.cmpf ugt, %0, %cst : f32
    %2 = arith.select %1, %0, %cst : f32
    affine.store %2, %arg4[symbol(%arg0), symbol(%arg1), symbol(%arg2), symbol(%arg3)] : memref<64x168x1x1xf32>
    return
  }
  func.func private @S242(%arg0: index, %arg1: index, %arg2: index, %arg3: index, %arg4: memref<64x672x1x1xf32>) attributes {scop.stmt} {
    %cst = arith.constant 0.000000e+00 : f32
    affine.store %cst, %arg4[symbol(%arg0), symbol(%arg1), symbol(%arg2), symbol(%arg3)] : memref<64x672x1x1xf32>
    return
  }
  func.func private @S243(%arg0: index, %arg1: index, %arg2: index, %arg3: index, %arg4: memref<64x672x1x1xf32>, %arg5: index, %arg6: index, %arg7: index, %arg8: memref<672x168x1x1xf32>, %arg9: memref<64x168x1x1xf32>) attributes {scop.stmt} {
    %0 = affine.load %arg4[symbol(%arg0), symbol(%arg1), symbol(%arg2), symbol(%arg3)] : memref<64x672x1x1xf32>
    %1 = affine.load %arg9[symbol(%arg0), symbol(%arg5), symbol(%arg2) + symbol(%arg6), symbol(%arg3) + symbol(%arg7)] : memref<64x168x1x1xf32>
    %2 = affine.load %arg8[symbol(%arg1), symbol(%arg5), symbol(%arg6), symbol(%arg7)] : memref<672x168x1x1xf32>
    %3 = arith.mulf %1, %2 : f32
    %4 = arith.addf %0, %3 : f32
    affine.store %4, %arg4[symbol(%arg0), symbol(%arg1), symbol(%arg2), symbol(%arg3)] : memref<64x672x1x1xf32>
    return
  }
  func.func private @S244(%arg0: index, %arg1: index, %arg2: index, %arg3: index, %arg4: memref<64x672x1x1xf32>, %arg5: memref<64x672x1x1xf32>) attributes {scop.stmt} {
    %cst = arith.constant 3.000000e+00 : f32
    %0 = affine.load %arg5[symbol(%arg0), symbol(%arg1), 0, 0] : memref<64x672x1x1xf32>
    %1 = arith.addf %0, %cst : f32
    affine.store %1, %arg4[symbol(%arg0), symbol(%arg1), symbol(%arg2), symbol(%arg3)] : memref<64x672x1x1xf32>
    return
  }
  func.func private @S245(%arg0: index, %arg1: index, %arg2: index, %arg3: index, %arg4: memref<64x672x1x1xf32>, %arg5: memref<64x672x1x1xf32>) attributes {scop.stmt} {
    %cst = arith.constant 6.000000e+00 : f32
    %0 = affine.load %arg5[symbol(%arg0), symbol(%arg1), 0, 0] : memref<64x672x1x1xf32>
    %1 = arith.divf %0, %cst : f32
    affine.store %1, %arg4[symbol(%arg0), symbol(%arg1), symbol(%arg2), symbol(%arg3)] : memref<64x672x1x1xf32>
    return
  }
  func.func private @S246(%arg0: index, %arg1: index, %arg2: index, %arg3: index, %arg4: memref<64x672x1x1xf32>, %arg5: memref<64x672x1x1xf32>, %arg6: memref<f32>) attributes {scop.stmt} {
    %0 = affine.load %arg6[] : memref<f32>
    %1 = affine.load %arg5[symbol(%arg0), symbol(%arg1), 0, 0] : memref<64x672x1x1xf32>
    %2 = arith.cmpf ult, %0, %1 : f32
    %3 = arith.select %2, %0, %1 : f32
    affine.store %3, %arg4[symbol(%arg0), symbol(%arg1), symbol(%arg2), symbol(%arg3)] : memref<64x672x1x1xf32>
    return
  }
  func.func private @S247(%arg0: index, %arg1: index, %arg2: index, %arg3: index, %arg4: memref<64x672x1x1xf32>, %arg5: memref<64x672x1x1xf32>, %arg6: memref<f32>) attributes {scop.stmt} {
    %0 = affine.load %arg6[] : memref<f32>
    %1 = affine.load %arg5[symbol(%arg0), symbol(%arg1), 0, 0] : memref<64x672x1x1xf32>
    %2 = arith.cmpf ugt, %0, %1 : f32
    %3 = arith.select %2, %0, %1 : f32
    affine.store %3, %arg4[symbol(%arg0), symbol(%arg1), symbol(%arg2), symbol(%arg3)] : memref<64x672x1x1xf32>
    return
  }
  func.func private @S248(%arg0: index, %arg1: index, %arg2: index, %arg3: index, %arg4: memref<64x672x14x14xf32>, %arg5: memref<64x672x14x14xf32>, %arg6: memref<64x672x1x1xf32>) attributes {scop.stmt} {
    %0 = affine.load %arg6[symbol(%arg0), symbol(%arg1), 0, 0] : memref<64x672x1x1xf32>
    %1 = affine.load %arg5[symbol(%arg0), symbol(%arg1), symbol(%arg2), symbol(%arg3)] : memref<64x672x14x14xf32>
    %2 = arith.mulf %0, %1 : f32
    affine.store %2, %arg4[symbol(%arg0), symbol(%arg1), symbol(%arg2), symbol(%arg3)] : memref<64x672x14x14xf32>
    return
  }
  func.func private @S249(%arg0: index, %arg1: index, %arg2: index, %arg3: index, %arg4: memref<64x112x14x14xf32>, %arg5: index, %arg6: index, %arg7: index, %arg8: memref<112x672x1x1xf32>, %arg9: memref<64x672x14x14xf32>) attributes {scop.stmt} {
    %0 = affine.load %arg4[symbol(%arg0), symbol(%arg1), symbol(%arg2), symbol(%arg3)] : memref<64x112x14x14xf32>
    %1 = affine.load %arg9[symbol(%arg0), symbol(%arg5), symbol(%arg2) + symbol(%arg6), symbol(%arg3) + symbol(%arg7)] : memref<64x672x14x14xf32>
    %2 = affine.load %arg8[symbol(%arg1), symbol(%arg5), symbol(%arg6), symbol(%arg7)] : memref<112x672x1x1xf32>
    %3 = arith.mulf %1, %2 : f32
    %4 = arith.addf %0, %3 : f32
    affine.store %4, %arg4[symbol(%arg0), symbol(%arg1), symbol(%arg2), symbol(%arg3)] : memref<64x112x14x14xf32>
    return
  }
  func.func private @S250(%arg0: index, %arg1: index, %arg2: index, %arg3: index, %arg4: memref<64x112x14x14xf32>, %arg5: memref<64x112x14x14xf32>) attributes {scop.stmt} {
    %cst = arith.constant 0.000000e+00 : f32
    %cst_0 = arith.constant 1.000000e+00 : f32
    %cst_1 = arith.constant 1.000000e-03 : f64
    %0 = affine.load %arg5[symbol(%arg0), symbol(%arg1), symbol(%arg2), symbol(%arg3)] : memref<64x112x14x14xf32>
    %1 = arith.truncf %cst_1 : f64 to f32
    %2 = arith.addf %1, %cst_0 : f32
    %3 = math.rsqrt %2 : f32
    %4 = arith.mulf %0, %3 : f32
    %5 = arith.addf %4, %cst : f32
    affine.store %5, %arg4[symbol(%arg0), symbol(%arg1), symbol(%arg2), symbol(%arg3)] : memref<64x112x14x14xf32>
    return
  }
  func.func private @S251(%arg0: index, %arg1: index, %arg2: index, %arg3: index, %arg4: memref<64x112x14x14xf32>, %arg5: memref<64x112x14x14xf32>, %arg6: memref<64x112x14x14xf32>) attributes {scop.stmt} {
    %0 = affine.load %arg6[symbol(%arg0), symbol(%arg1), symbol(%arg2), symbol(%arg3)] : memref<64x112x14x14xf32>
    %1 = affine.load %arg5[symbol(%arg0), symbol(%arg1), symbol(%arg2), symbol(%arg3)] : memref<64x112x14x14xf32>
    %2 = arith.addf %0, %1 : f32
    affine.store %2, %arg4[symbol(%arg0), symbol(%arg1), symbol(%arg2), symbol(%arg3)] : memref<64x112x14x14xf32>
    return
  }
  func.func private @S252(%arg0: index, %arg1: index, %arg2: index, %arg3: index, %arg4: memref<64x672x14x14xf32>, %arg5: index, %arg6: index, %arg7: index, %arg8: memref<672x112x1x1xf32>, %arg9: memref<64x112x14x14xf32>) attributes {scop.stmt} {
    %0 = affine.load %arg4[symbol(%arg0), symbol(%arg1), symbol(%arg2), symbol(%arg3)] : memref<64x672x14x14xf32>
    %1 = affine.load %arg9[symbol(%arg0), symbol(%arg5), symbol(%arg2) + symbol(%arg6), symbol(%arg3) + symbol(%arg7)] : memref<64x112x14x14xf32>
    %2 = affine.load %arg8[symbol(%arg1), symbol(%arg5), symbol(%arg6), symbol(%arg7)] : memref<672x112x1x1xf32>
    %3 = arith.mulf %1, %2 : f32
    %4 = arith.addf %0, %3 : f32
    affine.store %4, %arg4[symbol(%arg0), symbol(%arg1), symbol(%arg2), symbol(%arg3)] : memref<64x672x14x14xf32>
    return
  }
  func.func private @S253(%arg0: index, %arg1: index, %arg2: index, %arg3: index, %arg4: memref<64x672x14x14xf32>, %arg5: memref<64x672x14x14xf32>) attributes {scop.stmt} {
    %cst = arith.constant 0.000000e+00 : f32
    %cst_0 = arith.constant 1.000000e+00 : f32
    %cst_1 = arith.constant 1.000000e-03 : f64
    %0 = affine.load %arg5[symbol(%arg0), symbol(%arg1), symbol(%arg2), symbol(%arg3)] : memref<64x672x14x14xf32>
    %1 = arith.truncf %cst_1 : f64 to f32
    %2 = arith.addf %1, %cst_0 : f32
    %3 = math.rsqrt %2 : f32
    %4 = arith.mulf %0, %3 : f32
    %5 = arith.addf %4, %cst : f32
    affine.store %5, %arg4[symbol(%arg0), symbol(%arg1), symbol(%arg2), symbol(%arg3)] : memref<64x672x14x14xf32>
    return
  }
  func.func private @S254(%arg0: index, %arg1: index, %arg2: index, %arg3: index, %arg4: memref<64x672x14x14xf32>, %arg5: memref<64x672x14x14xf32>) attributes {scop.stmt} {
    %cst = arith.constant 3.000000e+00 : f32
    %0 = affine.load %arg5[symbol(%arg0), symbol(%arg1), symbol(%arg2), symbol(%arg3)] : memref<64x672x14x14xf32>
    %1 = arith.addf %0, %cst : f32
    affine.store %1, %arg4[symbol(%arg0), symbol(%arg1), symbol(%arg2), symbol(%arg3)] : memref<64x672x14x14xf32>
    return
  }
  func.func private @S255(%arg0: index, %arg1: index, %arg2: index, %arg3: index, %arg4: memref<64x672x14x14xf32>, %arg5: memref<64x672x14x14xf32>) attributes {scop.stmt} {
    %cst = arith.constant 0.000000e+00 : f32
    %0 = affine.load %arg5[symbol(%arg0), symbol(%arg1), symbol(%arg2), symbol(%arg3)] : memref<64x672x14x14xf32>
    %1 = arith.cmpf ugt, %0, %cst : f32
    %2 = arith.select %1, %0, %cst : f32
    affine.store %2, %arg4[symbol(%arg0), symbol(%arg1), symbol(%arg2), symbol(%arg3)] : memref<64x672x14x14xf32>
    return
  }
  func.func private @S256(%arg0: index, %arg1: index, %arg2: index, %arg3: index, %arg4: memref<64x672x14x14xf32>, %arg5: memref<f32>, %arg6: memref<64x672x14x14xf32>) attributes {scop.stmt} {
    %0 = affine.load %arg6[symbol(%arg0), symbol(%arg1), symbol(%arg2), symbol(%arg3)] : memref<64x672x14x14xf32>
    %1 = affine.load %arg5[] : memref<f32>
    %2 = arith.cmpf ult, %0, %1 : f32
    %3 = arith.select %2, %0, %1 : f32
    affine.store %3, %arg4[symbol(%arg0), symbol(%arg1), symbol(%arg2), symbol(%arg3)] : memref<64x672x14x14xf32>
    return
  }
  func.func private @S257(%arg0: index, %arg1: index, %arg2: index, %arg3: index, %arg4: memref<64x672x14x14xf32>, %arg5: memref<64x672x14x14xf32>) attributes {scop.stmt} {
    %cst = arith.constant 6.000000e+00 : f32
    %0 = affine.load %arg5[symbol(%arg0), symbol(%arg1), symbol(%arg2), symbol(%arg3)] : memref<64x672x14x14xf32>
    %1 = arith.divf %0, %cst : f32
    affine.store %1, %arg4[symbol(%arg0), symbol(%arg1), symbol(%arg2), symbol(%arg3)] : memref<64x672x14x14xf32>
    return
  }
  func.func private @S258(%arg0: index, %arg1: index, %arg2: index, %arg3: index, %arg4: memref<64x672x14x14xf32>, %arg5: memref<64x672x14x14xf32>, %arg6: memref<64x672x14x14xf32>) attributes {scop.stmt} {
    %0 = affine.load %arg6[symbol(%arg0), symbol(%arg1), symbol(%arg2), symbol(%arg3)] : memref<64x672x14x14xf32>
    %1 = affine.load %arg5[symbol(%arg0), symbol(%arg1), symbol(%arg2), symbol(%arg3)] : memref<64x672x14x14xf32>
    %2 = arith.mulf %0, %1 : f32
    affine.store %2, %arg4[symbol(%arg0), symbol(%arg1), symbol(%arg2), symbol(%arg3)] : memref<64x672x14x14xf32>
    return
  }
  func.func private @S259(%arg0: index, %arg1: index, %arg2: index, %arg3: index, %arg4: memref<64x672x18x18xf32>) attributes {scop.stmt} {
    %cst = arith.constant 0.000000e+00 : f32
    affine.store %cst, %arg4[symbol(%arg0), symbol(%arg1), symbol(%arg2), symbol(%arg3)] : memref<64x672x18x18xf32>
    return
  }
  func.func private @S260(%arg0: index, %arg1: index, %arg2: index, %arg3: index, %arg4: memref<64x672x7x7xf32>) attributes {scop.stmt} {
    %cst = arith.constant 0.000000e+00 : f32
    affine.store %cst, %arg4[symbol(%arg0), symbol(%arg1), symbol(%arg2), symbol(%arg3)] : memref<64x672x7x7xf32>
    return
  }
  func.func private @S261(%arg0: index, %arg1: index, %arg2: index, %arg3: index, %arg4: memref<64x672x7x7xf32>, %arg5: index, %arg6: index, %arg7: memref<672x5x5xf32>, %arg8: memref<64x672x18x18xf32>) attributes {scop.stmt} {
    %0 = affine.load %arg4[symbol(%arg0), symbol(%arg1), symbol(%arg2), symbol(%arg3)] : memref<64x672x7x7xf32>
    %1 = affine.load %arg8[symbol(%arg0), symbol(%arg1), symbol(%arg2) * 2 + symbol(%arg5), symbol(%arg3) * 2 + symbol(%arg6)] : memref<64x672x18x18xf32>
    %2 = affine.load %arg7[symbol(%arg1), symbol(%arg5), symbol(%arg6)] : memref<672x5x5xf32>
    %3 = arith.mulf %1, %2 : f32
    %4 = arith.addf %0, %3 : f32
    affine.store %4, %arg4[symbol(%arg0), symbol(%arg1), symbol(%arg2), symbol(%arg3)] : memref<64x672x7x7xf32>
    return
  }
  func.func private @S262(%arg0: index, %arg1: index, %arg2: index, %arg3: index, %arg4: memref<64x672x7x7xf32>, %arg5: memref<64x672x7x7xf32>) attributes {scop.stmt} {
    %cst = arith.constant 0.000000e+00 : f32
    %cst_0 = arith.constant 1.000000e+00 : f32
    %cst_1 = arith.constant 1.000000e-03 : f64
    %0 = affine.load %arg5[symbol(%arg0), symbol(%arg1), symbol(%arg2), symbol(%arg3)] : memref<64x672x7x7xf32>
    %1 = arith.truncf %cst_1 : f64 to f32
    %2 = arith.addf %1, %cst_0 : f32
    %3 = math.rsqrt %2 : f32
    %4 = arith.mulf %0, %3 : f32
    %5 = arith.addf %4, %cst : f32
    affine.store %5, %arg4[symbol(%arg0), symbol(%arg1), symbol(%arg2), symbol(%arg3)] : memref<64x672x7x7xf32>
    return
  }
  func.func private @S263(%arg0: index, %arg1: index, %arg2: index, %arg3: index, %arg4: memref<64x672x7x7xf32>, %arg5: memref<64x672x7x7xf32>) attributes {scop.stmt} {
    %cst = arith.constant 3.000000e+00 : f32
…
    %alloc_264 = memref.alloc() {alignment = 64 : i64} : memref<64x960x7x7xf32>
    call @set_frequency_caps(%c5000000_i64, %c4600000_i64) : (i64, i64) -> ()
    affine.for %arg1 = 0 to 64 {
      affine.for %arg2 = 0 to 960 {
        affine.for %arg3 = 0 to 7 {
          affine.for %arg4 = 0 to 7 {
            func.call @S291(%arg1, %arg2, %arg3, %arg4, %alloc_264, %alloc_263) : (index, index, index, index, memref<64x960x7x7xf32>, memref<64x960x7x7xf32>) -> ()
          }
        }
      }
    }
    %alloc_265 = memref.alloc() {alignment = 64 : i64} : memref<64x960x7x7xf32>
    call @set_frequency_caps(%c5000000_i64, %c4600000_i64) : (i64, i64) -> ()
    affine.for %arg1 = 0 to 64 {
      affine.for %arg2 = 0 to 960 {
        affine.for %arg3 = 0 to 7 {
          affine.for %arg4 = 0 to 7 {
            func.call @S292(%arg1, %arg2, %arg3, %arg4, %alloc_265, %alloc_264) : (index, index, index, index, memref<64x960x7x7xf32>, memref<64x960x7x7xf32>) -> ()
          }
        }
      }
    }
    call @set_frequency_caps(%c5000000_i64, %c4600000_i64) : (i64, i64) -> ()
    affine.for %arg1 = 0 to 64 {
      affine.for %arg2 = 0 to 960 {
        affine.for %arg3 = 0 to 7 {
          affine.for %arg4 = 0 to 7 {
            func.call @S293(%arg1, %arg2, %arg3, %arg4, %alloc_255, %alloc_265) : (index, index, index, index, memref<64x960x7x7xf32>, memref<64x960x7x7xf32>) -> ()
          }
        }
      }
    }
    %alloc_266 = memref.alloc() {alignment = 64 : i64} : memref<64x960x7x7xf32>
    call @set_frequency_caps(%c5000000_i64, %c4600000_i64) : (i64, i64) -> ()
    affine.for %arg1 = 0 to 64 {
      affine.for %arg2 = 0 to 960 {
        affine.for %arg3 = 0 to 7 {
          affine.for %arg4 = 0 to 7 {
            func.call @S294(%arg1, %arg2, %arg3, %arg4, %alloc_266, %alloc_71, %alloc_255) : (index, index, index, index, memref<64x960x7x7xf32>, memref<f32>, memref<64x960x7x7xf32>) -> ()
          }
        }
      }
    }
    call @set_frequency_caps(%c5000000_i64, %c4600000_i64) : (i64, i64) -> ()
    affine.for %arg1 = 0 to 64 {
      affine.for %arg2 = 0 to 960 {
        affine.for %arg3 = 0 to 7 {
          affine.for %arg4 = 0 to 7 {
            func.call @S295(%arg1, %arg2, %arg3, %arg4, %alloc_255, %alloc_266) : (index, index, index, index, memref<64x960x7x7xf32>, memref<64x960x7x7xf32>) -> ()
          }
        }
      }
    }
    %alloc_267 = memref.alloc() {alignment = 64 : i64} : memref<64x960x7x7xf32>
    call @set_frequency_caps(%c5000000_i64, %c4600000_i64) : (i64, i64) -> ()
    affine.for %arg1 = 0 to 64 {
      affine.for %arg2 = 0 to 960 {
        affine.for %arg3 = 0 to 7 {
          affine.for %arg4 = 0 to 7 {
            func.call @S296(%arg1, %arg2, %arg3, %arg4, %alloc_267, %alloc_264, %alloc_255) : (index, index, index, index, memref<64x960x7x7xf32>, memref<64x960x7x7xf32>, memref<64x960x7x7xf32>) -> ()
          }
        }
      }
    }
    %alloc_268 = memref.alloc() {alignment = 64 : i64} : memref<64x960x1x1xf32>
    %alloc_269 = memref.alloc() {alignment = 64 : i64} : memref<64x960x1x1xf32>
    call @set_frequency_caps(%c5000000_i64, %c4600000_i64) : (i64, i64) -> ()
    affine.for %arg1 = 0 to 64 {
      affine.for %arg2 = 0 to 960 {
        affine.for %arg3 = 0 to 1 {
          affine.for %arg4 = 0 to 1 {
            func.call @S297(%arg1, %arg2, %arg3, %arg4, %alloc_269) : (index, index, index, index, memref<64x960x1x1xf32>) -> ()
          }
        }
      }
    }
    %alloc_270 = memref.alloc() {alignment = 64 : i64} : memref<64x960x1x1xf32>
    memref.copy %alloc_269, %alloc_270 : memref<64x960x1x1xf32> to memref<64x960x1x1xf32>
    call @set_frequency_caps(%c5000000_i64, %c4600000_i64) : (i64, i64) -> ()
    affine.for %arg1 = 0 to 64 {
      affine.for %arg2 = 0 to 960 {
        affine.for %arg3 = 0 to 1 {
          affine.for %arg4 = 0 to 1 {
            affine.for %arg5 = 0 to 7 {
              affine.for %arg6 = 0 to 7 {
                func.call @S298(%arg1, %arg2, %arg3, %arg4, %alloc_270, %arg5, %arg6, %alloc_267) : (index, index, index, index, memref<64x960x1x1xf32>, index, index, memref<64x960x7x7xf32>) -> ()
              }
            }
          }
        }
      }
    }
    call @set_frequency_caps(%c5000000_i64, %c4600000_i64) : (i64, i64) -> ()
    affine.for %arg1 = 0 to 64 {
      affine.for %arg2 = 0 to 960 {
        affine.for %arg3 = 0 to 1 {
          affine.for %arg4 = 0 to 1 {
            func.call @S299(%arg1, %arg2, %arg3, %arg4, %alloc_268, %alloc_270) : (index, index, index, index, memref<64x960x1x1xf32>, memref<64x960x1x1xf32>) -> ()
          }
        }
      }
    }
    %alloc_271 = memref.alloc() {alignment = 64 : i64} : memref<64x240x1x1xf32>
    %alloc_272 = memref.alloc() {alignment = 64 : i64} : memref<64x240x1x1xf32>
    call @set_frequency_caps(%c5000000_i64, %c4600000_i64) : (i64, i64) -> ()
    affine.for %arg1 = 0 to 64 {
      affine.for %arg2 = 0 to 240 {
        affine.for %arg3 = 0 to 1 {
          affine.for %arg4 = 0 to 1 {
            func.call @S300(%arg1, %arg2, %arg3, %arg4, %alloc_272) : (index, index, index, index, memref<64x240x1x1xf32>) -> ()
          }
        }
      }
    }
    %alloc_273 = memref.alloc() {alignment = 64 : i64} : memref<64x240x1x1xf32>
    memref.copy %alloc_272, %alloc_273 : memref<64x240x1x1xf32> to memref<64x240x1x1xf32>
    call @set_frequency_caps(%c5000000_i64, %c799999_i64) : (i64, i64) -> ()
    affine.for %arg1 = 0 to 64 {
      affine.for %arg2 = 0 to 240 {
        affine.for %arg3 = 0 to 1 {
          affine.for %arg4 = 0 to 1 {
            affine.for %arg5 = 0 to 960 {
              affine.for %arg6 = 0 to 1 {
                affine.for %arg7 = 0 to 1 {
                  func.call @S301(%arg1, %arg2, %arg3, %arg4, %alloc_273, %arg5, %arg6, %arg7, %alloc_23, %alloc_268) : (index, index, index, index, memref<64x240x1x1xf32>, index, index, index, memref<240x960x1x1xf32>, memref<64x960x1x1xf32>) -> ()
                }
              }
            }
          }
        }
      }
    }
    call @set_frequency_caps(%c5000000_i64, %c4600000_i64) : (i64, i64) -> ()
    affine.for %arg1 = 0 to 64 {
      affine.for %arg2 = 0 to 240 {
        affine.for %arg3 = 0 to 1 {
          affine.for %arg4 = 0 to 1 {
            func.call @S302(%arg1, %arg2, %arg3, %arg4, %alloc_271, %alloc_273) : (index, index, index, index, memref<64x240x1x1xf32>, memref<64x240x1x1xf32>) -> ()
          }
        }
      }
    }
    %alloc_274 = memref.alloc() {alignment = 64 : i64} : memref<64x960x1x1xf32>
    call @set_frequency_caps(%c5000000_i64, %c4600000_i64) : (i64, i64) -> ()
    affine.for %arg1 = 0 to 64 {
      affine.for %arg2 = 0 to 960 {
        affine.for %arg3 = 0 to 1 {
          affine.for %arg4 = 0 to 1 {
            func.call @S303(%arg1, %arg2, %arg3, %arg4, %alloc_274) : (index, index, index, index, memref<64x960x1x1xf32>) -> ()
          }
        }
      }
    }
    %alloc_275 = memref.alloc() {alignment = 64 : i64} : memref<64x960x1x1xf32>
    memref.copy %alloc_274, %alloc_275 : memref<64x960x1x1xf32> to memref<64x960x1x1xf32>
    call @set_frequency_caps(%c5000000_i64, %c799999_i64) : (i64, i64) -> ()
    affine.for %arg1 = 0 to 64 {
      affine.for %arg2 = 0 to 960 {
        affine.for %arg3 = 0 to 1 {
          affine.for %arg4 = 0 to 1 {
            affine.for %arg5 = 0 to 240 {
              affine.for %arg6 = 0 to 1 {
                affine.for %arg7 = 0 to 1 {
                  func.call @S304(%arg1, %arg2, %arg3, %arg4, %alloc_275, %arg5, %arg6, %arg7, %alloc_22, %alloc_271) : (index, index, index, index, memref<64x960x1x1xf32>, index, index, index, memref<960x240x1x1xf32>, memref<64x240x1x1xf32>) -> ()
                }
              }
            }
          }
        }
      }
    }
    %alloc_276 = memref.alloc() {alignment = 64 : i64} : memref<64x960x1x1xf32>
    call @set_frequency_caps(%c5000000_i64, %c799999_i64) : (i64, i64) -> ()
    affine.for %arg1 = 0 to 64 {
      affine.for %arg2 = 0 to 960 {
        affine.for %arg3 = 0 to 1 {
          affine.for %arg4 = 0 to 1 {
            func.call @S305(%arg1, %arg2, %arg3, %arg4, %alloc_276, %alloc_275) : (index, index, index, index, memref<64x960x1x1xf32>, memref<64x960x1x1xf32>) -> ()
          }
        }
      }
    }
    call @set_frequency_caps(%c5000000_i64, %c799999_i64) : (i64, i64) -> ()
    affine.for %arg1 = 0 to 64 {
      affine.for %arg2 = 0 to 960 {
        affine.for %arg3 = 0 to 1 {
          affine.for %arg4 = 0 to 1 {
            func.call @S306(%arg1, %arg2, %arg3, %arg4, %alloc_268, %alloc_276) : (index, index, index, index, memref<64x960x1x1xf32>, memref<64x960x1x1xf32>) -> ()
          }
        }
      }
    }
    %alloc_277 = memref.alloc() {alignment = 64 : i64} : memref<64x960x1x1xf32>
    call @set_frequency_caps(%c5000000_i64, %c4600000_i64) : (i64, i64) -> ()
    affine.for %arg1 = 0 to 64 {
      affine.for %arg2 = 0 to 960 {
        affine.for %arg3 = 0 to 1 {
          affine.for %arg4 = 0 to 1 {
            func.call @S307(%arg1, %arg2, %arg3, %arg4, %alloc_277, %alloc_268, %alloc_108) : (index, index, index, index, memref<64x960x1x1xf32>, memref<64x960x1x1xf32>, memref<f32>) -> ()
          }
        }
      }
    }
    call @set_frequency_caps(%c5000000_i64, %c799999_i64) : (i64, i64) -> ()
    affine.for %arg1 = 0 to 64 {
      affine.for %arg2 = 0 to 960 {
        affine.for %arg3 = 0 to 1 {
          affine.for %arg4 = 0 to 1 {
            func.call @S308(%arg1, %arg2, %arg3, %arg4, %alloc_268, %alloc_277, %alloc_70) : (index, index, index, index, memref<64x960x1x1xf32>, memref<64x960x1x1xf32>, memref<f32>) -> ()
          }
        }
      }
    }
    call @set_frequency_caps(%c5000000_i64, %c4600000_i64) : (i64, i64) -> ()
    affine.for %arg1 = 0 to 64 {
      affine.for %arg2 = 0 to 960 {
        affine.for %arg3 = 0 to 7 {
          affine.for %arg4 = 0 to 7 {
            func.call @S309(%arg1, %arg2, %arg3, %arg4, %alloc_255, %alloc_267, %alloc_268) : (index, index, index, index, memref<64x960x7x7xf32>, memref<64x960x7x7xf32>, memref<64x960x1x1xf32>) -> ()
          }
        }
      }
    }
    %alloc_278 = memref.alloc() {alignment = 64 : i64} : memref<64x160x7x7xf32>
    memref.copy %alloc_252, %alloc_278 : memref<64x160x7x7xf32> to memref<64x160x7x7xf32>
    call @set_frequency_caps(%c5000000_i64, %c800000_i64) : (i64, i64) -> ()
    affine.for %arg1 = 0 to 64 {
      affine.for %arg2 = 0 to 160 {
        affine.for %arg3 = 0 to 7 {
          affine.for %arg4 = 0 to 7 {
            affine.for %arg5 = 0 to 960 {
              affine.for %arg6 = 0 to 1 {
                affine.for %arg7 = 0 to 1 {
                  func.call @S310(%arg1, %arg2, %arg3, %arg4, %alloc_278, %arg5, %arg6, %arg7, %alloc_21, %alloc_255) : (index, index, index, index, memref<64x160x7x7xf32>, index, index, index, memref<160x960x1x1xf32>, memref<64x960x7x7xf32>) -> ()
                }
              }
            }
          }
        }
      }
    }
    %alloc_279 = memref.alloc() {alignment = 64 : i64} : memref<64x160x7x7xf32>
    call @set_frequency_caps(%c5000000_i64, %c4600000_i64) : (i64, i64) -> ()
    affine.for %arg1 = 0 to 64 {
      affine.for %arg2 = 0 to 160 {
        affine.for %arg3 = 0 to 7 {
          affine.for %arg4 = 0 to 7 {
            func.call @S311(%arg1, %arg2, %arg3, %arg4, %alloc_279, %alloc_278) : (index, index, index, index, memref<64x160x7x7xf32>, memref<64x160x7x7xf32>) -> ()
          }
        }
      }
    }
    %alloc_280 = memref.alloc() {alignment = 64 : i64} : memref<64x160x7x7xf32>
    call @set_frequency_caps(%c5000000_i64, %c4600000_i64) : (i64, i64) -> ()
    affine.for %arg1 = 0 to 64 {
      affine.for %arg2 = 0 to 160 {
        affine.for %arg3 = 0 to 7 {
          affine.for %arg4 = 0 to 7 {
            func.call @S312(%arg1, %arg2, %arg3, %arg4, %alloc_280, %alloc_254, %alloc_279) : (index, index, index, index, memref<64x160x7x7xf32>, memref<64x160x7x7xf32>, memref<64x160x7x7xf32>) -> ()
          }
        }
      }
    }
    %alloc_281 = memref.alloc() {alignment = 64 : i64} : memref<64x960x7x7xf32>
    memref.copy %alloc_256, %alloc_281 : memref<64x960x7x7xf32> to memref<64x960x7x7xf32>
    call @set_frequency_caps(%c5000000_i64, %c800000_i64) : (i64, i64) -> ()
    affine.for %arg1 = 0 to 64 {
      affine.for %arg2 = 0 to 960 {
        affine.for %arg3 = 0 to 7 {
          affine.for %arg4 = 0 to 7 {
            affine.for %arg5 = 0 to 160 {
              affine.for %arg6 = 0 to 1 {
                affine.for %arg7 = 0 to 1 {
                  func.call @S313(%arg1, %arg2, %arg3, %arg4, %alloc_281, %arg5, %arg6, %arg7, %alloc_20, %alloc_280) : (index, index, index, index, memref<64x960x7x7xf32>, index, index, index, memref<960x160x1x1xf32>, memref<64x160x7x7xf32>) -> ()
                }
              }
            }
          }
        }
      }
    }
    %alloc_282 = memref.alloc() {alignment = 64 : i64} : memref<64x960x7x7xf32>
    call @set_frequency_caps(%c5000000_i64, %c4600000_i64) : (i64, i64) -> ()
    affine.for %arg1 = 0 to 64 {
      affine.for %arg2 = 0 to 960 {
        affine.for %arg3 = 0 to 7 {
          affine.for %arg4 = 0 to 7 {
            func.call @S314(%arg1, %arg2, %arg3, %arg4, %alloc_282, %alloc_281) : (index, index, index, index, memref<64x960x7x7xf32>, memref<64x960x7x7xf32>) -> ()
          }
        }
      }
    }
    call @set_frequency_caps(%c5000000_i64, %c4600000_i64) : (i64, i64) -> ()
    affine.for %arg1 = 0 to 64 {
      affine.for %arg2 = 0 to 960 {
        affine.for %arg3 = 0 to 7 {
          affine.for %arg4 = 0 to 7 {
            func.call @S315(%arg1, %arg2, %arg3, %arg4, %alloc_255, %alloc_282) : (index, index, index, index, memref<64x960x7x7xf32>, memref<64x960x7x7xf32>) -> ()
          }
        }
      }
    }
    %alloc_283 = memref.alloc() {alignment = 64 : i64} : memref<64x960x7x7xf32>
    call @set_frequency_caps(%c5000000_i64, %c4600000_i64) : (i64, i64) -> ()
    affine.for %arg1 = 0 to 64 {
      affine.for %arg2 = 0 to 960 {
        affine.for %arg3 = 0 to 7 {
          affine.for %arg4 = 0 to 7 {
            func.call @S316(%arg1, %arg2, %arg3, %arg4, %alloc_283, %alloc_255) : (index, index, index, index, memref<64x960x7x7xf32>, memref<64x960x7x7xf32>) -> ()
          }
        }
      }
    }
    call @set_frequency_caps(%c5000000_i64, %c4600000_i64) : (i64, i64) -> ()
    affine.for %arg1 = 0 to 64 {
      affine.for %arg2 = 0 to 960 {
        affine.for %arg3 = 0 to 7 {
          affine.for %arg4 = 0 to 7 {
            func.call @S317(%arg1, %arg2, %arg3, %arg4, %alloc_255, %alloc_71, %alloc_283) : (index, index, index, index, memref<64x960x7x7xf32>, memref<f32>, memref<64x960x7x7xf32>) -> ()
          }
        }
      }
    }
    %alloc_284 = memref.alloc() {alignment = 64 : i64} : memref<64x960x7x7xf32>
    call @set_frequency_caps(%c5000000_i64, %c4600000_i64) : (i64, i64) -> ()
    affine.for %arg1 = 0 to 64 {
      affine.for %arg2 = 0 to 960 {
        affine.for %arg3 = 0 to 7 {
          affine.for %arg4 = 0 to 7 {
            func.call @S318(%arg1, %arg2, %arg3, %arg4, %alloc_284, %alloc_255) : (index, index, index, index, memref<64x960x7x7xf32>, memref<64x960x7x7xf32>) -> ()
          }
        }
      }
    }
    call @set_frequency_caps(%c5000000_i64, %c4600000_i64) : (i64, i64) -> ()
    affine.for %arg1 = 0 to 64 {
      affine.for %arg2 = 0 to 960 {
        affine.for %arg3 = 0 to 7 {
          affine.for %arg4 = 0 to 7 {
            func.call @S319(%arg1, %arg2, %arg3, %arg4, %alloc_255, %alloc_282, %alloc_284) : (index, index, index, index, memref<64x960x7x7xf32>, memref<64x960x7x7xf32>, memref<64x960x7x7xf32>) -> ()
          }
        }
      }
    }
    %alloc_285 = memref.alloc() {alignment = 64 : i64} : memref<64x960x11x11xf32>
    call @set_frequency_caps(%c5000000_i64, %c4600000_i64) : (i64, i64) -> ()
    affine.for %arg1 = 0 to 64 {
      affine.for %arg2 = 0 to 960 {
        affine.for %arg3 = 0 to 11 {
          affine.for %arg4 = 0 to 11 {
            func.call @S320(%arg1, %arg2, %arg3, %arg4, %alloc_285) : (index, index, index, index, memref<64x960x11x11xf32>) -> ()
          }
        }
      }
    }
    %subview_286 = memref.subview %alloc_285[0, 0, 2, 2] [64, 960, 7, 7] [1, 1, 1, 1] : memref<64x960x11x11xf32> to memref<64x960x7x7xf32, strided<[116160, 121, 11, 1], offset: 24>>
    memref.copy %alloc_255, %subview_286 : memref<64x960x7x7xf32> to memref<64x960x7x7xf32, strided<[116160, 121, 11, 1], offset: 24>>
    %alloc_287 = memref.alloc() {alignment = 64 : i64} : memref<64x960x7x7xf32>
    memref.copy %alloc_256, %alloc_287 : memref<64x960x7x7xf32> to memref<64x960x7x7xf32>
    call @set_frequency_caps(%c5000000_i64, %c799999_i64) : (i64, i64) -> ()
    affine.for %arg1 = 0 to 64 {
      affine.for %arg2 = 0 to 7 {
        affine.for %arg3 = 0 to 7 {
          affine.for %arg4 = 0 to 960 {
            affine.for %arg5 = 0 to 5 {
              affine.for %arg6 = 0 to 5 {
                func.call @S321(%arg1, %arg4, %arg2, %arg3, %alloc_287, %arg5, %arg6, %alloc_13, %alloc_285) : (index, index, index, index, memref<64x960x7x7xf32>, index, index, memref<960x5x5xf32>, memref<64x960x11x11xf32>) -> ()
              }
            }
          }
        }
      }
    }
    %alloc_288 = memref.alloc() {alignment = 64 : i64} : memref<64x960x7x7xf32>
    call @set_frequency_caps(%c5000000_i64, %c4600000_i64) : (i64, i64) -> ()
    affine.for %arg1 = 0 to 64 {
      affine.for %arg2 = 0 to 960 {
        affine.for %arg3 = 0 to 7 {
          affine.for %arg4 = 0 to 7 {
            func.call @S322(%arg1, %arg2, %arg3, %arg4, %alloc_288, %alloc_287) : (index, index, index, index, memref<64x960x7x7xf32>, memref<64x960x7x7xf32>) -> ()
          }
        }
      }
    }
    %alloc_289 = memref.alloc() {alignment = 64 : i64} : memref<64x960x7x7xf32>
    call @set_frequency_caps(%c5000000_i64, %c4600000_i64) : (i64, i64) -> ()
    affine.for %arg1 = 0 to 64 {
      affine.for %arg2 = 0 to 960 {
        affine.for %arg3 = 0 to 7 {
          affine.for %arg4 = 0 to 7 {
            func.call @S323(%arg1, %arg2, %arg3, %arg4, %alloc_289, %alloc_288) : (index, index, index, index, memref<64x960x7x7xf32>, memref<64x960x7x7xf32>) -> ()
          }
        }
      }
    }
    call @set_frequency_caps(%c5000000_i64, %c4600000_i64) : (i64, i64) -> ()
    affine.for %arg1 = 0 to 64 {
      affine.for %arg2 = 0 to 960 {
        affine.for %arg3 = 0 to 7 {
          affine.for %arg4 = 0 to 7 {
            func.call @S324(%arg1, %arg2, %arg3, %arg4, %alloc_255, %alloc_289) : (index, index, index, index, memref<64x960x7x7xf32>, memref<64x960x7x7xf32>) -> ()
          }
        }
      }
    }
    %alloc_290 = memref.alloc() {alignment = 64 : i64} : memref<64x960x7x7xf32>
    call @set_frequency_caps(%c5000000_i64, %c4600000_i64) : (i64, i64) -> ()
    affine.for %arg1 = 0 to 64 {
      affine.for %arg2 = 0 to 960 {
        affine.for %arg3 = 0 to 7 {
          affine.for %arg4 = 0 to 7 {
            func.call @S325(%arg1, %arg2, %arg3, %arg4, %alloc_290, %alloc_71, %alloc_255) : (index, index, index, index, memref<64x960x7x7xf32>, memref<f32>, memref<64x960x7x7xf32>) -> ()
          }
        }
      }
    }
    call @set_frequency_caps(%c5000000_i64, %c4600000_i64) : (i64, i64) -> ()
    affine.for %arg1 = 0 to 64 {
      affine.for %arg2 = 0 to 960 {
        affine.for %arg3 = 0 to 7 {
          affine.for %arg4 = 0 to 7 {
            func.call @S326(%arg1, %arg2, %arg3, %arg4, %alloc_255, %alloc_290) : (index, index, index, index, memref<64x960x7x7xf32>, memref<64x960x7x7xf32>) -> ()
          }
        }
      }
    }
    %alloc_291 = memref.alloc() {alignment = 64 : i64} : memref<64x960x7x7xf32>
    call @set_frequency_caps(%c5000000_i64, %c4600000_i64) : (i64, i64) -> ()
    affine.for %arg1 = 0 to 64 {
      affine.for %arg2 = 0 to 960 {
        affine.for %arg3 = 0 to 7 {
          affine.for %arg4 = 0 to 7 {
            func.call @S327(%arg1, %arg2, %arg3, %arg4, %alloc_291, %alloc_288, %alloc_255) : (index, index, index, index, memref<64x960x7x7xf32>, memref<64x960x7x7xf32>, memref<64x960x7x7xf32>) -> ()
          }
        }
      }
    }
    %alloc_292 = memref.alloc() {alignment = 64 : i64} : memref<64x960x1x1xf32>
    memref.copy %alloc_269, %alloc_292 : memref<64x960x1x1xf32> to memref<64x960x1x1xf32>
    call @set_frequency_caps(%c5000000_i64, %c4600000_i64) : (i64, i64) -> ()
    affine.for %arg1 = 0 to 64 {
      affine.for %arg2 = 0 to 960 {
        affine.for %arg3 = 0 to 1 {
          affine.for %arg4 = 0 to 1 {
            affine.for %arg5 = 0 to 7 {
              affine.for %arg6 = 0 to 7 {
                func.call @S328(%arg1, %arg2, %arg3, %arg4, %alloc_292, %arg5, %arg6, %alloc_291) : (index, index, index, index, memref<64x960x1x1xf32>, index, index, memref<64x960x7x7xf32>) -> ()
              }
            }
          }
        }
      }
    }
    call @set_frequency_caps(%c5000000_i64, %c4600000_i64) : (i64, i64) -> ()
    affine.for %arg1 = 0 to 64 {
      affine.for %arg2 = 0 to 960 {
        affine.for %arg3 = 0 to 1 {
          affine.for %arg4 = 0 to 1 {
            func.call @S329(%arg1, %arg2, %arg3, %arg4, %alloc_268, %alloc_292) : (index, index, index, index, memref<64x960x1x1xf32>, memref<64x960x1x1xf32>) -> ()
          }
        }
      }
    }
    call @set_frequency_caps(%c5000000_i64, %c799999_i64) : (i64, i64) -> ()
    affine.for %arg1 = 0 to 64 {
      affine.for %arg2 = 0 to 240 {
        affine.for %arg3 = 0 to 1 {
          affine.for %arg4 = 0 to 1 {
            affine.for %arg5 = 0 to 960 {
              affine.for %arg6 = 0 to 1 {
                affine.for %arg7 = 0 to 1 {
                  func.call @S330(%arg1, %arg2, %arg3, %arg4, %alloc_272, %arg5, %arg6, %arg7, %alloc_19, %alloc_268) : (index, index, index, index, memref<64x240x1x1xf32>, index, index, index, memref<240x960x1x1xf32>, memref<64x960x1x1xf32>) -> ()
                }
              }
            }
          }
        }
      }
    }
    call @set_frequency_caps(%c5000000_i64, %c799999_i64) : (i64, i64) -> ()
    affine.for %arg1 = 0 to 64 {
      affine.for %arg2 = 0 to 240 {
        affine.for %arg3 = 0 to 1 {
          affine.for %arg4 = 0 to 1 {
            func.call @S331(%arg1, %arg2, %arg3, %arg4, %alloc_271, %alloc_272) : (index, index, index, index, memref<64x240x1x1xf32>, memref<64x240x1x1xf32>) -> ()
          }
        }
      }
    }
    call @set_frequency_caps(%c5000000_i64, %c4600000_i64) : (i64, i64) -> ()
    affine.for %arg1 = 0 to 64 {
      affine.for %arg2 = 0 to 960 {
        affine.for %arg3 = 0 to 1 {
          affine.for %arg4 = 0 to 1 {
            affine.for %arg5 = 0 to 240 {
              affine.for %arg6 = 0 to 1 {
                affine.for %arg7 = 0 to 1 {
                  func.call @S332(%arg1, %arg2, %arg3, %arg4, %alloc_274, %arg5, %arg6, %arg7, %alloc_18, %alloc_271) : (index, index, index, index, memref<64x960x1x1xf32>, index, index, index, memref<960x240x1x1xf32>, memref<64x240x1x1xf32>) -> ()
                }
              }
            }
          }
        }
      }
    }
    %alloc_293 = memref.alloc() {alignment = 64 : i64} : memref<64x960x1x1xf32>
    call @set_frequency_caps(%c5000000_i64, %c799999_i64) : (i64, i64) -> ()
    affine.for %arg1 = 0 to 64 {
      affine.for %arg2 = 0 to 960 {
        affine.for %arg3 = 0 to 1 {
          affine.for %arg4 = 0 to 1 {
            func.call @S333(%arg1, %arg2, %arg3, %arg4, %alloc_293, %alloc_274) : (index, index, index, index, memref<64x960x1x1xf32>, memref<64x960x1x1xf32>) -> ()
          }
        }
      }
    }
    call @set_frequency_caps(%c5000000_i64, %c799999_i64) : (i64, i64) -> ()
    affine.for %arg1 = 0 to 64 {
      affine.for %arg2 = 0 to 960 {
        affine.for %arg3 = 0 to 1 {
          affine.for %arg4 = 0 to 1 {
            func.call @S334(%arg1, %arg2, %arg3, %arg4, %alloc_268, %alloc_293) : (index, index, index, index, memref<64x960x1x1xf32>, memref<64x960x1x1xf32>) -> ()
          }
        }
      }
    }
    %alloc_294 = memref.alloc() {alignment = 64 : i64} : memref<64x960x1x1xf32>
    call @set_frequency_caps(%c5000000_i64, %c4600000_i64) : (i64, i64) -> ()
    affine.for %arg1 = 0 to 64 {
      affine.for %arg2 = 0 to 960 {
        affine.for %arg3 = 0 to 1 {
          affine.for %arg4 = 0 to 1 {
            func.call @S335(%arg1, %arg2, %arg3, %arg4, %alloc_294, %alloc_268, %alloc_108) : (index, index, index, index, memref<64x960x1x1xf32>, memref<64x960x1x1xf32>, memref<f32>) -> ()
          }
        }
      }
    }
    call @set_frequency_caps(%c5000000_i64, %c799999_i64) : (i64, i64) -> ()
    affine.for %arg1 = 0 to 64 {
      affine.for %arg2 = 0 to 960 {
        affine.for %arg3 = 0 to 1 {
          affine.for %arg4 = 0 to 1 {
            func.call @S336(%arg1, %arg2, %arg3, %arg4, %alloc_268, %alloc_294, %alloc_70) : (index, index, index, index, memref<64x960x1x1xf32>, memref<64x960x1x1xf32>, memref<f32>) -> ()
          }
        }
      }
    }
    call @set_frequency_caps(%c5000000_i64, %c4600000_i64) : (i64, i64) -> ()
    affine.for %arg1 = 0 to 64 {
      affine.for %arg2 = 0 to 960 {
        affine.for %arg3 = 0 to 7 {
          affine.for %arg4 = 0 to 7 {
            func.call @S337(%arg1, %arg2, %arg3, %arg4, %alloc_255, %alloc_291, %alloc_268) : (index, index, index, index, memref<64x960x7x7xf32>, memref<64x960x7x7xf32>, memref<64x960x1x1xf32>) -> ()
          }
        }
      }
    }
    call @set_frequency_caps(%c5000000_i64, %c800000_i64) : (i64, i64) -> ()
    affine.for %arg1 = 0 to 64 {
      affine.for %arg2 = 0 to 160 {
        affine.for %arg3 = 0 to 7 {
          affine.for %arg4 = 0 to 7 {
            affine.for %arg5 = 0 to 960 {
              affine.for %arg6 = 0 to 1 {
                affine.for %arg7 = 0 to 1 {
                  func.call @S338(%arg1, %arg2, %arg3, %arg4, %alloc_252, %arg5, %arg6, %arg7, %alloc_17, %alloc_255) : (index, index, index, index, memref<64x160x7x7xf32>, index, index, index, memref<160x960x1x1xf32>, memref<64x960x7x7xf32>) -> ()
                }
              }
            }
          }
        }
      }
    }
    %alloc_295 = memref.alloc() {alignment = 64 : i64} : memref<64x160x7x7xf32>
    call @set_frequency_caps(%c5000000_i64, %c4600000_i64) : (i64, i64) -> ()
    affine.for %arg1 = 0 to 64 {
      affine.for %arg2 = 0 to 160 {
        affine.for %arg3 = 0 to 7 {
          affine.for %arg4 = 0 to 7 {
            func.call @S339(%arg1, %arg2, %arg3, %arg4, %alloc_295, %alloc_252) : (index, index, index, index, memref<64x160x7x7xf32>, memref<64x160x7x7xf32>) -> ()
          }
        }
      }
    }
    call @set_frequency_caps(%c5000000_i64, %c4600000_i64) : (i64, i64) -> ()
    affine.for %arg1 = 0 to 64 {
      affine.for %arg2 = 0 to 160 {
        affine.for %arg3 = 0 to 7 {
          affine.for %arg4 = 0 to 7 {
            func.call @S340(%arg1, %arg2, %arg3, %arg4, %alloc_252, %alloc_280, %alloc_295) : (index, index, index, index, memref<64x160x7x7xf32>, memref<64x160x7x7xf32>, memref<64x160x7x7xf32>) -> ()
          }
        }
      }
    }
    call @set_frequency_caps(%c5000000_i64, %c799999_i64) : (i64, i64) -> ()
    affine.for %arg1 = 0 to 64 {
      affine.for %arg2 = 0 to 960 {
        affine.for %arg3 = 0 to 7 {
          affine.for %arg4 = 0 to 7 {
            affine.for %arg5 = 0 to 160 {
              affine.for %arg6 = 0 to 1 {
                affine.for %arg7 = 0 to 1 {
                  func.call @S341(%arg1, %arg2, %arg3, %arg4, %alloc_256, %arg5, %arg6, %arg7, %alloc_16, %alloc_252) : (index, index, index, index, memref<64x960x7x7xf32>, index, index, index, memref<960x160x1x1xf32>, memref<64x160x7x7xf32>) -> ()
                }
              }
            }
          }
        }
      }
    }
    %alloc_296 = memref.alloc() {alignment = 64 : i64} : memref<64x960x7x7xf32>
    call @set_frequency_caps(%c5000000_i64, %c4600000_i64) : (i64, i64) -> ()
    affine.for %arg1 = 0 to 64 {
      affine.for %arg2 = 0 to 960 {
        affine.for %arg3 = 0 to 7 {
          affine.for %arg4 = 0 to 7 {
            func.call @S342(%arg1, %arg2, %arg3, %arg4, %alloc_296, %alloc_256) : (index, index, index, index, memref<64x960x7x7xf32>, memref<64x960x7x7xf32>) -> ()
          }
        }
      }
    }
    call @set_frequency_caps(%c5000000_i64, %c4600000_i64) : (i64, i64) -> ()
    affine.for %arg1 = 0 to 64 {
      affine.for %arg2 = 0 to 960 {
        affine.for %arg3 = 0 to 7 {
          affine.for %arg4 = 0 to 7 {
            func.call @S343(%arg1, %arg2, %arg3, %arg4, %alloc_255, %alloc_296) : (index, index, index, index, memref<64x960x7x7xf32>, memref<64x960x7x7xf32>) -> ()
          }
        }
      }
    }
    %alloc_297 = memref.alloc() {alignment = 64 : i64} : memref<64x960x7x7xf32>
    call @set_frequency_caps(%c5000000_i64, %c4600000_i64) : (i64, i64) -> ()
    affine.for %arg1 = 0 to 64 {
      affine.for %arg2 = 0 to 960 {
        affine.for %arg3 = 0 to 7 {
          affine.for %arg4 = 0 to 7 {
            func.call @S344(%arg1, %arg2, %arg3, %arg4, %alloc_297, %alloc_255) : (index, index, index, index, memref<64x960x7x7xf32>, memref<64x960x7x7xf32>) -> ()
          }
        }
      }
    }
    call @set_frequency_caps(%c5000000_i64, %c4600000_i64) : (i64, i64) -> ()
    affine.for %arg1 = 0 to 64 {
      affine.for %arg2 = 0 to 960 {
        affine.for %arg3 = 0 to 7 {
          affine.for %arg4 = 0 to 7 {
            func.call @S345(%arg1, %arg2, %arg3, %arg4, %alloc_255, %alloc_71, %alloc_297) : (index, index, index, index, memref<64x960x7x7xf32>, memref<f32>, memref<64x960x7x7xf32>) -> ()
          }
        }
      }
    }
    %alloc_298 = memref.alloc() {alignment = 64 : i64} : memref<64x960x7x7xf32>
    call @set_frequency_caps(%c5000000_i64, %c4600000_i64) : (i64, i64) -> ()
    affine.for %arg1 = 0 to 64 {
      affine.for %arg2 = 0 to 960 {
        affine.for %arg3 = 0 to 7 {
          affine.for %arg4 = 0 to 7 {
            func.call @S346(%arg1, %arg2, %arg3, %arg4, %alloc_298, %alloc_255) : (index, index, index, index, memref<64x960x7x7xf32>, memref<64x960x7x7xf32>) -> ()
          }
        }
      }
    }
    call @set_frequency_caps(%c5000000_i64, %c4600000_i64) : (i64, i64) -> ()
    affine.for %arg1 = 0 to 64 {
      affine.for %arg2 = 0 to 960 {
        affine.for %arg3 = 0 to 7 {
          affine.for %arg4 = 0 to 7 {
            func.call @S347(%arg1, %arg2, %arg3, %arg4, %alloc_255, %alloc_296, %alloc_298) : (index, index, index, index, memref<64x960x7x7xf32>, memref<64x960x7x7xf32>, memref<64x960x7x7xf32>) -> ()
          }
        }
      }
    }
    call @set_frequency_caps(%c5000000_i64, %c4600000_i64) : (i64, i64) -> ()
    affine.for %arg1 = 0 to 64 {
      affine.for %arg2 = 0 to 960 {
        affine.for %arg3 = 0 to 1 {
          affine.for %arg4 = 0 to 1 {
            affine.for %arg5 = 0 to 7 {
              affine.for %arg6 = 0 to 7 {
                func.call @S348(%arg1, %arg2, %arg3, %arg4, %alloc_269, %arg5, %arg6, %alloc_255) : (index, index, index, index, memref<64x960x1x1xf32>, index, index, memref<64x960x7x7xf32>) -> ()
              }
            }
          }
        }
      }
    }
    call @set_frequency_caps(%c5000000_i64, %c4600000_i64) : (i64, i64) -> ()
    affine.for %arg1 = 0 to 64 {
      affine.for %arg2 = 0 to 960 {
        affine.for %arg3 = 0 to 1 {
          affine.for %arg4 = 0 to 1 {
            func.call @S349(%arg1, %arg2, %arg3, %arg4, %alloc_268, %alloc_269) : (index, index, index, index, memref<64x960x1x1xf32>, memref<64x960x1x1xf32>) -> ()
          }
        }
      }
    }
    %alloc_299 = memref.alloc() : memref<64x960xf32>
    %collapse_shape = memref.collapse_shape %alloc_268 [[0], [1, 2, 3]] : memref<64x960x1x1xf32> into memref<64x960xf32>
    affine.for %arg1 = 0 to 64 {
      affine.for %arg2 = 0 to 960 {
        %0 = memref.load %collapse_shape[%arg1, %arg2] : memref<64x960xf32>
        memref.store %0, %alloc_299[%arg1, %arg2] : memref<64x960xf32>
      }
    }
    %alloc_300 = memref.alloc() {alignment = 64 : i64} : memref<960x1280xf32>
    call @set_frequency_caps(%c5000000_i64, %c4600000_i64) : (i64, i64) -> ()
    affine.for %arg1 = 0 to 1280 {
      affine.for %arg2 = 0 to 960 {
        func.call @S350(%arg2, %arg1, %alloc_300, %alloc_15) : (index, index, memref<960x1280xf32>, memref<1280x960xf32>) -> ()
      }
    }
    %alloc_301 = memref.alloc() {alignment = 64 : i64} : memref<64x1280xf32>
    call @set_frequency_caps(%c5000000_i64, %c4600000_i64) : (i64, i64) -> ()
    affine.for %arg1 = 0 to 64 {
      affine.for %arg2 = 0 to 1280 {
        func.call @S351(%arg1, %arg2, %alloc_301) : (index, index, memref<64x1280xf32>) -> ()
      }
    }
    call @set_frequency_caps(%c5000000_i64, %c799999_i64) : (i64, i64) -> ()
    affine.for %arg1 = 0 to 64 {
      affine.for %arg2 = 0 to 1280 {
        affine.for %arg3 = 0 to 960 {
          func.call @S352(%arg1, %arg2, %alloc_301, %arg3, %alloc_300, %alloc_299) : (index, index, memref<64x1280xf32>, index, memref<960x1280xf32>, memref<64x960xf32>) -> ()
        }
      }
    }
    %alloc_302 = memref.alloc() {alignment = 64 : i64} : memref<64x1280xf32>
    call @set_frequency_caps(%c5000000_i64, %c4600000_i64) : (i64, i64) -> ()
    affine.for %arg1 = 0 to 64 {
      affine.for %arg2 = 0 to 1280 {
        func.call @S353(%arg1, %arg2, %alloc_302, %alloc_301) : (index, index, memref<64x1280xf32>, memref<64x1280xf32>) -> ()
      }
    }
    call @set_frequency_caps(%c5000000_i64, %c799999_i64) : (i64, i64) -> ()
    affine.for %arg1 = 0 to 64 {
      affine.for %arg2 = 0 to 1280 {
        func.call @S354(%arg1, %arg2, %alloc_301, %alloc_302) : (index, index, memref<64x1280xf32>, memref<64x1280xf32>) -> ()
      }
    }
    %alloc_303 = memref.alloc() {alignment = 64 : i64} : memref<64x1280xf32>
    call @set_frequency_caps(%c5000000_i64, %c4600000_i64) : (i64, i64) -> ()
    affine.for %arg1 = 0 to 64 {
      affine.for %arg2 = 0 to 1280 {
        func.call @S355(%arg1, %arg2, %alloc_303, %alloc_301) : (index, index, memref<64x1280xf32>, memref<64x1280xf32>) -> ()
      }
    }
    call @set_frequency_caps(%c5000000_i64, %c799999_i64) : (i64, i64) -> ()
    affine.for %arg1 = 0 to 64 {
      affine.for %arg2 = 0 to 1280 {
        func.call @S356(%arg1, %arg2, %alloc_301, %alloc_71, %alloc_303) : (index, index, memref<64x1280xf32>, memref<f32>, memref<64x1280xf32>) -> ()
      }
    }
    %alloc_304 = memref.alloc() {alignment = 64 : i64} : memref<64x1280xf32>
    call @set_frequency_caps(%c5000000_i64, %c4600000_i64) : (i64, i64) -> ()
    affine.for %arg1 = 0 to 64 {
      affine.for %arg2 = 0 to 1280 {
        func.call @S357(%arg1, %arg2, %alloc_304, %alloc_301) : (index, index, memref<64x1280xf32>, memref<64x1280xf32>) -> ()
      }
    }
    call @set_frequency_caps(%c5000000_i64, %c799999_i64) : (i64, i64) -> ()
    affine.for %arg1 = 0 to 64 {
      affine.for %arg2 = 0 to 1280 {
        func.call @S358(%arg1, %arg2, %alloc_301, %alloc_302, %alloc_304) : (index, index, memref<64x1280xf32>, memref<64x1280xf32>, memref<64x1280xf32>) -> ()
      }
    }
    %alloc_305 = memref.alloc() {alignment = 64 : i64} : memref<1280x1000xf32>
    call @set_frequency_caps(%c5000000_i64, %c4600000_i64) : (i64, i64) -> ()
    affine.for %arg1 = 0 to 1000 {
      affine.for %arg2 = 0 to 1280 {
        func.call @S359(%arg2, %arg1, %alloc_305, %alloc_14) : (index, index, memref<1280x1000xf32>, memref<1000x1280xf32>) -> ()
      }
    }
    %alloc_306 = memref.alloc() {alignment = 64 : i64} : memref<64x1000xf32>
    %alloc_307 = memref.alloc() {alignment = 64 : i64} : memref<64x1000xf32>
    call @set_frequency_caps(%c5000000_i64, %c4600000_i64) : (i64, i64) -> ()
    affine.for %arg1 = 0 to 64 {
      affine.for %arg2 = 0 to 1000 {
        func.call @S360(%arg1, %arg2, %alloc_307) : (index, index, memref<64x1000xf32>) -> ()
      }
    }
    call @set_frequency_caps(%c5000000_i64, %c799999_i64) : (i64, i64) -> ()
    affine.for %arg1 = 0 to 64 {
      affine.for %arg2 = 0 to 1000 {
        affine.for %arg3 = 0 to 1280 {
          func.call @S361(%arg1, %arg2, %alloc_307, %arg3, %alloc_305, %alloc_301) : (index, index, memref<64x1000xf32>, index, memref<1280x1000xf32>, memref<64x1280xf32>) -> ()
        }
      }
    }
    call @set_frequency_caps(%c5000000_i64, %c4600000_i64) : (i64, i64) -> ()
    affine.for %arg1 = 0 to 64 {
      affine.for %arg2 = 0 to 1000 {
        func.call @S362(%arg1, %arg2, %alloc_306, %alloc_307) : (index, index, memref<64x1000xf32>, memref<64x1000xf32>) -> ()
      }
    }
    memref.dealloc %alloc_64 : memref<64x16x112x112xf32>
    memref.dealloc %alloc_65 : memref<64x16x112x112xf32>
    memref.dealloc %alloc_66 : memref<64x16x112x112xf32>
    memref.dealloc %alloc_67 : memref<64x16x112x112xf32>
    memref.dealloc %alloc_68 : memref<64x16x112x112xf32>
    memref.dealloc %alloc_69 : memref<i64>
    memref.dealloc %alloc_70 : memref<f32>
    memref.dealloc %alloc_71 : memref<f32>
    memref.dealloc %alloc_72 : memref<64x16x112x112xf32>
    memref.dealloc %alloc_73 : memref<64x16x112x112xf32>
    memref.dealloc %alloc_76 : memref<64x16x112x112xf32>
    memref.dealloc %alloc_77 : memref<64x16x112x112xf32>
    memref.dealloc %alloc_78 : memref<64x16x112x112xf32>
    memref.dealloc %alloc_79 : memref<64x64x112x112xf32>
    memref.dealloc %alloc_80 : memref<64x64x112x112xf32>
    memref.dealloc %alloc_83 : memref<64x64x56x56xf32>
    memref.dealloc %alloc_84 : memref<64x64x56x56xf32>
    memref.dealloc %alloc_85 : memref<64x24x56x56xf32>
    memref.dealloc %alloc_86 : memref<64x24x56x56xf32>
    memref.dealloc %alloc_87 : memref<64x24x56x56xf32>
    memref.dealloc %alloc_88 : memref<64x72x56x56xf32>
    memref.dealloc %alloc_89 : memref<64x72x56x56xf32>
    memref.dealloc %alloc_90 : memref<64x72x56x56xf32>
    memref.dealloc %alloc_91 : memref<64x72x56x56xf32>
    memref.dealloc %alloc_94 : memref<64x72x56x56xf32>
    memref.dealloc %alloc_95 : memref<64x72x56x56xf32>
    memref.dealloc %alloc_96 : memref<64x24x56x56xf32>
    memref.dealloc %alloc_97 : memref<64x72x56x56xf32>
    memref.dealloc %alloc_100 : memref<64x72x28x28xf32>
    memref.dealloc %alloc_101 : memref<64x72x28x28xf32>
    memref.dealloc %alloc_102 : memref<64x72x28x28xf32>
    memref.dealloc %alloc_103 : memref<64x72x1x1xf32>
    memref.dealloc %alloc_104 : memref<64x72x1x1xf32>
    memref.dealloc %alloc_105 : memref<64x24x1x1xf32>
    memref.dealloc %alloc_106 : memref<64x24x1x1xf32>
    memref.dealloc %alloc_107 : memref<64x72x1x1xf32>
    memref.dealloc %alloc_108 : memref<f32>
    memref.dealloc %alloc_109 : memref<64x72x1x1xf32>
    memref.dealloc %alloc_110 : memref<64x40x28x28xf32>
    memref.dealloc %alloc_111 : memref<64x40x28x28xf32>
    memref.dealloc %alloc_112 : memref<64x40x28x28xf32>
    memref.dealloc %alloc_113 : memref<64x120x28x28xf32>
    memref.dealloc %alloc_114 : memref<64x120x28x28xf32>
    memref.dealloc %alloc_115 : memref<64x120x28x28xf32>
    memref.dealloc %alloc_116 : memref<64x120x28x28xf32>
    memref.dealloc %alloc_119 : memref<64x120x28x28xf32>
    memref.dealloc %alloc_120 : memref<64x120x28x28xf32>
    memref.dealloc %alloc_121 : memref<64x120x28x28xf32>
    memref.dealloc %alloc_122 : memref<64x120x1x1xf32>
    memref.dealloc %alloc_123 : memref<64x120x1x1xf32>
    memref.dealloc %alloc_124 : memref<64x120x1x1xf32>
    memref.dealloc %alloc_125 : memref<64x32x1x1xf32>
    memref.dealloc %alloc_126 : memref<64x32x1x1xf32>
    memref.dealloc %alloc_127 : memref<64x32x1x1xf32>
    memref.dealloc %alloc_128 : memref<64x120x1x1xf32>
    memref.dealloc %alloc_129 : memref<64x120x1x1xf32>
    memref.dealloc %alloc_130 : memref<64x120x1x1xf32>
    memref.dealloc %alloc_131 : memref<64x120x1x1xf32>
    memref.dealloc %alloc_132 : memref<64x40x28x28xf32>
    memref.dealloc %alloc_133 : memref<64x40x28x28xf32>
    memref.dealloc %alloc_134 : memref<64x40x28x28xf32>
    memref.dealloc %alloc_135 : memref<64x120x28x28xf32>
    memref.dealloc %alloc_136 : memref<64x120x28x28xf32>
    memref.dealloc %alloc_139 : memref<64x120x28x28xf32>
    memref.dealloc %alloc_140 : memref<64x120x28x28xf32>
    memref.dealloc %alloc_141 : memref<64x120x1x1xf32>
    memref.dealloc %alloc_142 : memref<64x120x1x1xf32>
    memref.dealloc %alloc_143 : memref<64x120x1x1xf32>
    memref.dealloc %alloc_144 : memref<64x40x28x28xf32>
    memref.dealloc %alloc_145 : memref<64x240x28x28xf32>
    memref.dealloc %alloc_146 : memref<64x240x28x28xf32>
    memref.dealloc %alloc_147 : memref<64x240x28x28xf32>
    memref.dealloc %alloc_148 : memref<64x240x28x28xf32>
    memref.dealloc %alloc_151 : memref<64x240x14x14xf32>
    memref.dealloc %alloc_152 : memref<64x240x14x14xf32>
    memref.dealloc %alloc_153 : memref<64x240x14x14xf32>
    memref.dealloc %alloc_154 : memref<64x240x14x14xf32>
    memref.dealloc %alloc_155 : memref<64x80x14x14xf32>
    memref.dealloc %alloc_156 : memref<64x80x14x14xf32>
    memref.dealloc %alloc_157 : memref<64x80x14x14xf32>
    memref.dealloc %alloc_158 : memref<64x80x14x14xf32>
    memref.dealloc %alloc_159 : memref<64x200x14x14xf32>
    memref.dealloc %alloc_160 : memref<64x200x14x14xf32>
    memref.dealloc %alloc_161 : memref<64x200x14x14xf32>
    memref.dealloc %alloc_162 : memref<64x200x14x14xf32>
    memref.dealloc %alloc_163 : memref<64x200x14x14xf32>
    memref.dealloc %alloc_164 : memref<64x200x14x14xf32>
    memref.dealloc %alloc_167 : memref<64x200x14x14xf32>
    memref.dealloc %alloc_168 : memref<64x200x14x14xf32>
    memref.dealloc %alloc_169 : memref<64x200x14x14xf32>
    memref.dealloc %alloc_170 : memref<64x80x14x14xf32>
    memref.dealloc %alloc_171 : memref<64x80x14x14xf32>
    memref.dealloc %alloc_172 : memref<64x184x14x14xf32>
    memref.dealloc %alloc_173 : memref<64x184x14x14xf32>
    memref.dealloc %alloc_174 : memref<64x184x14x14xf32>
    memref.dealloc %alloc_175 : memref<64x184x14x14xf32>
    memref.dealloc %alloc_176 : memref<64x184x14x14xf32>
    memref.dealloc %alloc_177 : memref<64x184x14x14xf32>
    memref.dealloc %alloc_180 : memref<64x184x14x14xf32>
    memref.dealloc %alloc_181 : memref<64x184x14x14xf32>
    memref.dealloc %alloc_182 : memref<64x184x14x14xf32>
    memref.dealloc %alloc_183 : memref<64x184x14x14xf32>
    memref.dealloc %alloc_184 : memref<64x80x14x14xf32>
    memref.dealloc %alloc_185 : memref<64x80x14x14xf32>
    memref.dealloc %alloc_186 : memref<64x80x14x14xf32>
    memref.dealloc %alloc_187 : memref<64x184x14x14xf32>
    memref.dealloc %alloc_188 : memref<64x184x14x14xf32>
    memref.dealloc %alloc_189 : memref<64x184x14x14xf32>
    memref.dealloc %alloc_190 : memref<64x184x14x14xf32>
    memref.dealloc %alloc_193 : memref<64x184x14x14xf32>
    memref.dealloc %alloc_194 : memref<64x184x14x14xf32>
    memref.dealloc %alloc_195 : memref<64x184x14x14xf32>
    memref.dealloc %alloc_196 : memref<64x80x14x14xf32>
    memref.dealloc %alloc_197 : memref<64x480x14x14xf32>
    memref.dealloc %alloc_198 : memref<64x480x14x14xf32>
    memref.dealloc %alloc_199 : memref<64x480x14x14xf32>
    memref.dealloc %alloc_200 : memref<64x480x14x14xf32>
    memref.dealloc %alloc_201 : memref<64x480x14x14xf32>
    memref.dealloc %alloc_202 : memref<64x480x14x14xf32>
    memref.dealloc %alloc_205 : memref<64x480x14x14xf32>
    memref.dealloc %alloc_206 : memref<64x480x14x14xf32>
    memref.dealloc %alloc_207 : memref<64x480x14x14xf32>
    memref.dealloc %alloc_208 : memref<64x480x14x14xf32>
    memref.dealloc %alloc_209 : memref<64x480x1x1xf32>
    memref.dealloc %alloc_210 : memref<64x480x1x1xf32>
    memref.dealloc %alloc_211 : memref<64x480x1x1xf32>
    memref.dealloc %alloc_212 : memref<64x480x1x1xf32>
    memref.dealloc %alloc_213 : memref<64x112x14x14xf32>
    memref.dealloc %alloc_214 : memref<64x112x14x14xf32>
    memref.dealloc %alloc_215 : memref<64x112x14x14xf32>
    memref.dealloc %alloc_216 : memref<64x672x14x14xf32>
    memref.dealloc %alloc_217 : memref<64x672x14x14xf32>
    memref.dealloc %alloc_218 : memref<64x672x14x14xf32>
    memref.dealloc %alloc_219 : memref<64x672x14x14xf32>
    memref.dealloc %alloc_220 : memref<64x672x14x14xf32>
    memref.dealloc %alloc_221 : memref<64x672x14x14xf32>
    memref.dealloc %alloc_224 : memref<64x672x14x14xf32>
    memref.dealloc %alloc_225 : memref<64x672x14x14xf32>
    memref.dealloc %alloc_226 : memref<64x672x14x14xf32>
    memref.dealloc %alloc_227 : memref<64x672x14x14xf32>
    memref.dealloc %alloc_228 : memref<64x672x14x14xf32>
    memref.dealloc %alloc_229 : memref<64x672x1x1xf32>
    memref.dealloc %alloc_230 : memref<64x672x1x1xf32>
    memref.dealloc %alloc_231 : memref<64x672x1x1xf32>
    memref.dealloc %alloc_232 : memref<64x168x1x1xf32>
    memref.dealloc %alloc_233 : memref<64x168x1x1xf32>
    memref.dealloc %alloc_234 : memref<64x168x1x1xf32>
    memref.dealloc %alloc_235 : memref<64x672x1x1xf32>
    memref.dealloc %alloc_236 : memref<64x672x1x1xf32>
    memref.dealloc %alloc_237 : memref<64x672x1x1xf32>
    memref.dealloc %alloc_238 : memref<64x672x1x1xf32>
    memref.dealloc %alloc_239 : memref<64x112x14x14xf32>
    memref.dealloc %alloc_240 : memref<64x672x14x14xf32>
    memref.dealloc %alloc_241 : memref<64x672x14x14xf32>
    memref.dealloc %alloc_242 : memref<64x672x14x14xf32>
    memref.dealloc %alloc_245 : memref<64x672x7x7xf32>
    memref.dealloc %alloc_246 : memref<64x672x7x7xf32>
    memref.dealloc %alloc_247 : memref<64x672x7x7xf32>
    memref.dealloc %alloc_248 : memref<64x672x7x7xf32>
    memref.dealloc %alloc_249 : memref<64x672x7x7xf32>
    memref.dealloc %alloc_250 : memref<64x672x1x1xf32>
    memref.dealloc %alloc_251 : memref<64x672x1x1xf32>
    memref.dealloc %alloc_252 : memref<64x160x7x7xf32>
    memref.dealloc %alloc_253 : memref<64x160x7x7xf32>
    memref.dealloc %alloc_254 : memref<64x160x7x7xf32>
    memref.dealloc %alloc_255 : memref<64x960x7x7xf32>
    memref.dealloc %alloc_256 : memref<64x960x7x7xf32>
    memref.dealloc %alloc_257 : memref<64x960x7x7xf32>
    memref.dealloc %alloc_258 : memref<64x960x7x7xf32>
    memref.dealloc %alloc_259 : memref<64x960x7x7xf32>
    memref.dealloc %alloc_260 : memref<64x960x7x7xf32>
    memref.dealloc %alloc_263 : memref<64x960x7x7xf32>
    memref.dealloc %alloc_264 : memref<64x960x7x7xf32>
    memref.dealloc %alloc_265 : memref<64x960x7x7xf32>
    memref.dealloc %alloc_266 : memref<64x960x7x7xf32>
    memref.dealloc %alloc_267 : memref<64x960x7x7xf32>
    memref.dealloc %alloc_268 : memref<64x960x1x1xf32>
    memref.dealloc %alloc_269 : memref<64x960x1x1xf32>
    memref.dealloc %alloc_270 : memref<64x960x1x1xf32>
    memref.dealloc %alloc_271 : memref<64x240x1x1xf32>
    memref.dealloc %alloc_272 : memref<64x240x1x1xf32>
    memref.dealloc %alloc_273 : memref<64x240x1x1xf32>
    memref.dealloc %alloc_274 : memref<64x960x1x1xf32>
    memref.dealloc %alloc_275 : memref<64x960x1x1xf32>
    memref.dealloc %alloc_276 : memref<64x960x1x1xf32>
    memref.dealloc %alloc_277 : memref<64x960x1x1xf32>
    memref.dealloc %alloc_278 : memref<64x160x7x7xf32>
    memref.dealloc %alloc_279 : memref<64x160x7x7xf32>
    memref.dealloc %alloc_280 : memref<64x160x7x7xf32>
    memref.dealloc %alloc_281 : memref<64x960x7x7xf32>
    memref.dealloc %alloc_282 : memref<64x960x7x7xf32>
    memref.dealloc %alloc_283 : memref<64x960x7x7xf32>
    memref.dealloc %alloc_284 : memref<64x960x7x7xf32>
    memref.dealloc %alloc_287 : memref<64x960x7x7xf32>
    memref.dealloc %alloc_288 : memref<64x960x7x7xf32>
    memref.dealloc %alloc_289 : memref<64x960x7x7xf32>
    memref.dealloc %alloc_290 : memref<64x960x7x7xf32>
    memref.dealloc %alloc_291 : memref<64x960x7x7xf32>
    memref.dealloc %alloc_292 : memref<64x960x1x1xf32>
    memref.dealloc %alloc_293 : memref<64x960x1x1xf32>
    memref.dealloc %alloc_294 : memref<64x960x1x1xf32>
    memref.dealloc %alloc_295 : memref<64x160x7x7xf32>
    memref.dealloc %alloc_296 : memref<64x960x7x7xf32>
    memref.dealloc %alloc_297 : memref<64x960x7x7xf32>
    memref.dealloc %alloc_298 : memref<64x960x7x7xf32>
    memref.dealloc %alloc_300 : memref<960x1280xf32>
    memref.dealloc %alloc_301 : memref<64x1280xf32>
    memref.dealloc %alloc_302 : memref<64x1280xf32>
    memref.dealloc %alloc_303 : memref<64x1280xf32>
    memref.dealloc %alloc_304 : memref<64x1280xf32>
    memref.dealloc %alloc_305 : memref<1280x1000xf32>
    memref.dealloc %alloc_306 : memref<64x1000xf32>
    memref.dealloc %alloc_307 : memref<64x1000xf32>
    memref.dealloc %alloc_63 : memref<64x3x226x226xf32>
    memref.dealloc %alloc_74 : memref<64x16x114x114xf32>
    memref.dealloc %alloc_81 : memref<64x64x114x114xf32>
    memref.dealloc %alloc_92 : memref<64x72x58x58xf32>
    memref.dealloc %alloc_98 : memref<64x72x60x60xf32>
    memref.dealloc %alloc_117 : memref<64x120x32x32xf32>
    memref.dealloc %alloc_137 : memref<64x120x32x32xf32>
    memref.dealloc %alloc_149 : memref<64x240x30x30xf32>
    memref.dealloc %alloc_165 : memref<64x200x16x16xf32>
    memref.dealloc %alloc_178 : memref<64x184x16x16xf32>
    memref.dealloc %alloc_191 : memref<64x184x16x16xf32>
    memref.dealloc %alloc_203 : memref<64x480x16x16xf32>
    memref.dealloc %alloc_222 : memref<64x672x16x16xf32>
    memref.dealloc %alloc_243 : memref<64x672x18x18xf32>
    memref.dealloc %alloc_261 : memref<64x960x11x11xf32>
    memref.dealloc %alloc_285 : memref<64x960x11x11xf32>
    return %alloc_306 : memref<64x1000xf32>
  }
  func.func @main() -> i32 {
    %c0_i32 = arith.constant 0 : i32
    %cst = arith.constant 0.000000e+00 : f32
    %alloc = memref.alloc() : memref<64x3x224x224xf32>
    affine.for %arg0 = 0 to 64 {
      affine.for %arg1 = 0 to 3 {
        affine.for %arg2 = 0 to 224 {
          affine.for %arg3 = 0 to 224 {
            affine.store %cst, %alloc[%arg0, %arg1, %arg2, %arg3] : memref<64x3x224x224xf32>
          }
        }
      }
    }
    call @start_energy_time() : () -> ()
    %0 = call @forward(%alloc) : (memref<64x3x224x224xf32>) -> memref<64x1000xf32>
    call @stop_energy_time() : () -> ()
    call @print_energy_time() : () -> ()
    return %c0_i32 : i32
  }
}

