module attributes {torch.debug_module_name = "ResNet"} {
  func.func private @start_energy_time()
  func.func private @stop_energy_time()
  func.func private @print_energy_time()
  func.func private @set_frequency_caps(i64, i64)
  func.func private @S0(%arg0: index, %arg1: index, %arg2: index, %arg3: index, %arg4: memref<64x3x230x230xf32>) attributes {scop.stmt} {
    %cst = arith.constant 0.000000e+00 : f32
    affine.store %cst, %arg4[symbol(%arg0), symbol(%arg1), symbol(%arg2), symbol(%arg3)] : memref<64x3x230x230xf32>
    return
  }
  func.func private @S1(%arg0: index, %arg1: index, %arg2: index, %arg3: index, %arg4: memref<64x64x112x112xf32>) attributes {scop.stmt} {
    %cst = arith.constant 0.000000e+00 : f32
    affine.store %cst, %arg4[symbol(%arg0), symbol(%arg1), symbol(%arg2), symbol(%arg3)] : memref<64x64x112x112xf32>
    return
  }
  func.func private @S2(%arg0: index, %arg1: index, %arg2: index, %arg3: index, %arg4: memref<64x64x112x112xf32>, %arg5: index, %arg6: index, %arg7: index, %arg8: memref<64x3x7x7xf32>, %arg9: memref<64x3x230x230xf32>) attributes {scop.stmt} {
    %0 = affine.load %arg4[symbol(%arg0), symbol(%arg1), symbol(%arg2), symbol(%arg3)] : memref<64x64x112x112xf32>
    %1 = affine.load %arg9[symbol(%arg0), symbol(%arg5), symbol(%arg2) * 2 + symbol(%arg6), symbol(%arg3) * 2 + symbol(%arg7)] : memref<64x3x230x230xf32>
    %2 = affine.load %arg8[symbol(%arg1), symbol(%arg5), symbol(%arg6), symbol(%arg7)] : memref<64x3x7x7xf32>
    %3 = arith.mulf %1, %2 : f32
    %4 = arith.addf %0, %3 : f32
    affine.store %4, %arg4[symbol(%arg0), symbol(%arg1), symbol(%arg2), symbol(%arg3)] : memref<64x64x112x112xf32>
    return
  }
  func.func private @S3(%arg0: index, %arg1: index, %arg2: index, %arg3: index, %arg4: memref<64x64x112x112xf32>, %arg5: memref<64x64x112x112xf32>) attributes {scop.stmt} {
    %cst = arith.constant 0.000000e+00 : f32
    %cst_0 = arith.constant 1.000000e+00 : f32
    %cst_1 = arith.constant 1.000000e-05 : f64
    %0 = affine.load %arg5[symbol(%arg0), symbol(%arg1), symbol(%arg2), symbol(%arg3)] : memref<64x64x112x112xf32>
    %1 = arith.truncf %cst_1 : f64 to f32
    %2 = arith.addf %1, %cst_0 : f32
    %3 = math.rsqrt %2 : f32
    %4 = arith.mulf %0, %3 : f32
    %5 = arith.addf %4, %cst : f32
    affine.store %5, %arg4[symbol(%arg0), symbol(%arg1), symbol(%arg2), symbol(%arg3)] : memref<64x64x112x112xf32>
    return
  }
  func.func private @S4(%arg0: index, %arg1: index, %arg2: index, %arg3: index, %arg4: memref<64x64x112x112xf32>, %arg5: memref<64x64x112x112xf32>) attributes {scop.stmt} {
    %cst = arith.constant 0.000000e+00 : f32
    %0 = affine.load %arg5[symbol(%arg0), symbol(%arg1), symbol(%arg2), symbol(%arg3)] : memref<64x64x112x112xf32>
    %1 = arith.cmpf ugt, %0, %cst : f32
    %2 = arith.select %1, %0, %cst : f32
    affine.store %2, %arg4[symbol(%arg0), symbol(%arg1), symbol(%arg2), symbol(%arg3)] : memref<64x64x112x112xf32>
    return
  }
  func.func private @S5(%arg0: index, %arg1: index, %arg2: index, %arg3: index, %arg4: memref<64x64x114x114xf32>) attributes {scop.stmt} {
    %cst = arith.constant -3.40282347E+38 : f32
    affine.store %cst, %arg4[symbol(%arg0), symbol(%arg1), symbol(%arg2), symbol(%arg3)] : memref<64x64x114x114xf32>
    return
  }
  func.func private @S6(%arg0: index, %arg1: index, %arg2: index, %arg3: index, %arg4: memref<64x64x56x56xf32>) attributes {scop.stmt} {
    %cst = arith.constant -3.40282347E+38 : f32
    affine.store %cst, %arg4[symbol(%arg0), symbol(%arg1), symbol(%arg2), symbol(%arg3)] : memref<64x64x56x56xf32>
    return
  }
  func.func private @S7(%arg0: index, %arg1: index, %arg2: index, %arg3: index, %arg4: memref<64x64x56x56xf32>, %arg5: index, %arg6: index, %arg7: memref<64x64x114x114xf32>) attributes {scop.stmt} {
    %0 = affine.load %arg4[symbol(%arg0), symbol(%arg1), symbol(%arg2), symbol(%arg3)] : memref<64x64x56x56xf32>
    %1 = affine.load %arg7[symbol(%arg0), symbol(%arg1), symbol(%arg2) * 2 + symbol(%arg5), symbol(%arg3) * 2 + symbol(%arg6)] : memref<64x64x114x114xf32>
    %2 = arith.maximumf %0, %1 : f32
    affine.store %2, %arg4[symbol(%arg0), symbol(%arg1), symbol(%arg2), symbol(%arg3)] : memref<64x64x56x56xf32>
    return
  }
  func.func private @S8(%arg0: index, %arg1: index, %arg2: index, %arg3: index, %arg4: memref<64x64x56x56xf32>) attributes {scop.stmt} {
    %cst = arith.constant 0.000000e+00 : f32
    affine.store %cst, %arg4[symbol(%arg0), symbol(%arg1), symbol(%arg2), symbol(%arg3)] : memref<64x64x56x56xf32>
    return
  }
  func.func private @S9(%arg0: index, %arg1: index, %arg2: index, %arg3: index, %arg4: memref<64x64x56x56xf32>, %arg5: index, %arg6: index, %arg7: index, %arg8: memref<64x64x1x1xf32>, %arg9: memref<64x64x56x56xf32>) attributes {scop.stmt} {
    %0 = affine.load %arg4[symbol(%arg0), symbol(%arg1), symbol(%arg2), symbol(%arg3)] : memref<64x64x56x56xf32>
    %1 = affine.load %arg9[symbol(%arg0), symbol(%arg5), symbol(%arg2) + symbol(%arg6), symbol(%arg3) + symbol(%arg7)] : memref<64x64x56x56xf32>
    %2 = affine.load %arg8[symbol(%arg1), symbol(%arg5), symbol(%arg6), symbol(%arg7)] : memref<64x64x1x1xf32>
    %3 = arith.mulf %1, %2 : f32
    %4 = arith.addf %0, %3 : f32
    affine.store %4, %arg4[symbol(%arg0), symbol(%arg1), symbol(%arg2), symbol(%arg3)] : memref<64x64x56x56xf32>
    return
  }
  func.func private @S10(%arg0: index, %arg1: index, %arg2: index, %arg3: index, %arg4: memref<64x64x56x56xf32>, %arg5: memref<64x64x56x56xf32>) attributes {scop.stmt} {
    %cst = arith.constant 0.000000e+00 : f32
    %cst_0 = arith.constant 1.000000e+00 : f32
    %cst_1 = arith.constant 1.000000e-05 : f64
    %0 = affine.load %arg5[symbol(%arg0), symbol(%arg1), symbol(%arg2), symbol(%arg3)] : memref<64x64x56x56xf32>
    %1 = arith.truncf %cst_1 : f64 to f32
    %2 = arith.addf %1, %cst_0 : f32
    %3 = math.rsqrt %2 : f32
    %4 = arith.mulf %0, %3 : f32
    %5 = arith.addf %4, %cst : f32
    affine.store %5, %arg4[symbol(%arg0), symbol(%arg1), symbol(%arg2), symbol(%arg3)] : memref<64x64x56x56xf32>
    return
  }
  func.func private @S11(%arg0: index, %arg1: index, %arg2: index, %arg3: index, %arg4: memref<64x64x56x56xf32>, %arg5: memref<64x64x56x56xf32>) attributes {scop.stmt} {
    %cst = arith.constant 0.000000e+00 : f32
    %0 = affine.load %arg5[symbol(%arg0), symbol(%arg1), symbol(%arg2), symbol(%arg3)] : memref<64x64x56x56xf32>
    %1 = arith.cmpf ugt, %0, %cst : f32
    %2 = arith.select %1, %0, %cst : f32
    affine.store %2, %arg4[symbol(%arg0), symbol(%arg1), symbol(%arg2), symbol(%arg3)] : memref<64x64x56x56xf32>
    return
  }
  func.func private @S12(%arg0: index, %arg1: index, %arg2: index, %arg3: index, %arg4: memref<64x64x58x58xf32>) attributes {scop.stmt} {
    %cst = arith.constant 0.000000e+00 : f32
    affine.store %cst, %arg4[symbol(%arg0), symbol(%arg1), symbol(%arg2), symbol(%arg3)] : memref<64x64x58x58xf32>
    return
  }
  func.func private @S13(%arg0: index, %arg1: index, %arg2: index, %arg3: index, %arg4: memref<64x64x56x56xf32>, %arg5: index, %arg6: index, %arg7: index, %arg8: memref<64x64x3x3xf32>, %arg9: memref<64x64x58x58xf32>) attributes {scop.stmt} {
    %0 = affine.load %arg4[symbol(%arg0), symbol(%arg1), symbol(%arg2), symbol(%arg3)] : memref<64x64x56x56xf32>
    %1 = affine.load %arg9[symbol(%arg0), symbol(%arg5), symbol(%arg2) + symbol(%arg6), symbol(%arg3) + symbol(%arg7)] : memref<64x64x58x58xf32>
    %2 = affine.load %arg8[symbol(%arg1), symbol(%arg5), symbol(%arg6), symbol(%arg7)] : memref<64x64x3x3xf32>
    %3 = arith.mulf %1, %2 : f32
    %4 = arith.addf %0, %3 : f32
    affine.store %4, %arg4[symbol(%arg0), symbol(%arg1), symbol(%arg2), symbol(%arg3)] : memref<64x64x56x56xf32>
    return
  }
  func.func private @S14(%arg0: index, %arg1: index, %arg2: index, %arg3: index, %arg4: memref<64x64x56x56xf32>, %arg5: memref<64x64x56x56xf32>) attributes {scop.stmt} {
    %cst = arith.constant 0.000000e+00 : f32
    %cst_0 = arith.constant 1.000000e+00 : f32
    %cst_1 = arith.constant 1.000000e-05 : f64
    %0 = affine.load %arg5[symbol(%arg0), symbol(%arg1), symbol(%arg2), symbol(%arg3)] : memref<64x64x56x56xf32>
    %1 = arith.truncf %cst_1 : f64 to f32
    %2 = arith.addf %1, %cst_0 : f32
    %3 = math.rsqrt %2 : f32
    %4 = arith.mulf %0, %3 : f32
    %5 = arith.addf %4, %cst : f32
    affine.store %5, %arg4[symbol(%arg0), symbol(%arg1), symbol(%arg2), symbol(%arg3)] : memref<64x64x56x56xf32>
    return
  }
  func.func private @S15(%arg0: index, %arg1: index, %arg2: index, %arg3: index, %arg4: memref<64x64x56x56xf32>, %arg5: memref<64x64x56x56xf32>) attributes {scop.stmt} {
    %cst = arith.constant 0.000000e+00 : f32
    %0 = affine.load %arg5[symbol(%arg0), symbol(%arg1), symbol(%arg2), symbol(%arg3)] : memref<64x64x56x56xf32>
    %1 = arith.cmpf ugt, %0, %cst : f32
    %2 = arith.select %1, %0, %cst : f32
    affine.store %2, %arg4[symbol(%arg0), symbol(%arg1), symbol(%arg2), symbol(%arg3)] : memref<64x64x56x56xf32>
    return
  }
  func.func private @S16(%arg0: index, %arg1: index, %arg2: index, %arg3: index, %arg4: memref<64x256x56x56xf32>) attributes {scop.stmt} {
    %cst = arith.constant 0.000000e+00 : f32
    affine.store %cst, %arg4[symbol(%arg0), symbol(%arg1), symbol(%arg2), symbol(%arg3)] : memref<64x256x56x56xf32>
    return
  }
  func.func private @S17(%arg0: index, %arg1: index, %arg2: index, %arg3: index, %arg4: memref<64x256x56x56xf32>, %arg5: index, %arg6: index, %arg7: index, %arg8: memref<256x64x1x1xf32>, %arg9: memref<64x64x56x56xf32>) attributes {scop.stmt} {
    %0 = affine.load %arg4[symbol(%arg0), symbol(%arg1), symbol(%arg2), symbol(%arg3)] : memref<64x256x56x56xf32>
    %1 = affine.load %arg9[symbol(%arg0), symbol(%arg5), symbol(%arg2) + symbol(%arg6), symbol(%arg3) + symbol(%arg7)] : memref<64x64x56x56xf32>
    %2 = affine.load %arg8[symbol(%arg1), symbol(%arg5), symbol(%arg6), symbol(%arg7)] : memref<256x64x1x1xf32>
    %3 = arith.mulf %1, %2 : f32
    %4 = arith.addf %0, %3 : f32
    affine.store %4, %arg4[symbol(%arg0), symbol(%arg1), symbol(%arg2), symbol(%arg3)] : memref<64x256x56x56xf32>
    return
  }
  func.func private @S18(%arg0: index, %arg1: index, %arg2: index, %arg3: index, %arg4: memref<64x256x56x56xf32>, %arg5: memref<64x256x56x56xf32>) attributes {scop.stmt} {
    %cst = arith.constant 0.000000e+00 : f32
    %cst_0 = arith.constant 1.000000e+00 : f32
    %cst_1 = arith.constant 1.000000e-05 : f64
    %0 = affine.load %arg5[symbol(%arg0), symbol(%arg1), symbol(%arg2), symbol(%arg3)] : memref<64x256x56x56xf32>
    %1 = arith.truncf %cst_1 : f64 to f32
    %2 = arith.addf %1, %cst_0 : f32
    %3 = math.rsqrt %2 : f32
    %4 = arith.mulf %0, %3 : f32
    %5 = arith.addf %4, %cst : f32
    affine.store %5, %arg4[symbol(%arg0), symbol(%arg1), symbol(%arg2), symbol(%arg3)] : memref<64x256x56x56xf32>
    return
  }
  func.func private @S19(%arg0: index, %arg1: index, %arg2: index, %arg3: index, %arg4: memref<64x256x56x56xf32>, %arg5: index, %arg6: index, %arg7: index, %arg8: memref<256x64x1x1xf32>, %arg9: memref<64x64x56x56xf32>) attributes {scop.stmt} {
    %0 = affine.load %arg4[symbol(%arg0), symbol(%arg1), symbol(%arg2), symbol(%arg3)] : memref<64x256x56x56xf32>
    %1 = affine.load %arg9[symbol(%arg0), symbol(%arg5), symbol(%arg2) + symbol(%arg6), symbol(%arg3) + symbol(%arg7)] : memref<64x64x56x56xf32>
    %2 = affine.load %arg8[symbol(%arg1), symbol(%arg5), symbol(%arg6), symbol(%arg7)] : memref<256x64x1x1xf32>
    %3 = arith.mulf %1, %2 : f32
    %4 = arith.addf %0, %3 : f32
    affine.store %4, %arg4[symbol(%arg0), symbol(%arg1), symbol(%arg2), symbol(%arg3)] : memref<64x256x56x56xf32>
    return
  }
  func.func private @S20(%arg0: index, %arg1: index, %arg2: index, %arg3: index, %arg4: memref<64x256x56x56xf32>, %arg5: memref<64x256x56x56xf32>) attributes {scop.stmt} {
    %cst = arith.constant 0.000000e+00 : f32
    %cst_0 = arith.constant 1.000000e+00 : f32
    %cst_1 = arith.constant 1.000000e-05 : f64
    %0 = affine.load %arg5[symbol(%arg0), symbol(%arg1), symbol(%arg2), symbol(%arg3)] : memref<64x256x56x56xf32>
    %1 = arith.truncf %cst_1 : f64 to f32
    %2 = arith.addf %1, %cst_0 : f32
    %3 = math.rsqrt %2 : f32
    %4 = arith.mulf %0, %3 : f32
    %5 = arith.addf %4, %cst : f32
    affine.store %5, %arg4[symbol(%arg0), symbol(%arg1), symbol(%arg2), symbol(%arg3)] : memref<64x256x56x56xf32>
    return
  }
  func.func private @S21(%arg0: index, %arg1: index, %arg2: index, %arg3: index, %arg4: memref<64x256x56x56xf32>, %arg5: memref<64x256x56x56xf32>, %arg6: memref<64x256x56x56xf32>) attributes {scop.stmt} {
    %0 = affine.load %arg6[symbol(%arg0), symbol(%arg1), symbol(%arg2), symbol(%arg3)] : memref<64x256x56x56xf32>
    %1 = affine.load %arg5[symbol(%arg0), symbol(%arg1), symbol(%arg2), symbol(%arg3)] : memref<64x256x56x56xf32>
    %2 = arith.addf %0, %1 : f32
    affine.store %2, %arg4[symbol(%arg0), symbol(%arg1), symbol(%arg2), symbol(%arg3)] : memref<64x256x56x56xf32>
    return
  }
  func.func private @S22(%arg0: index, %arg1: index, %arg2: index, %arg3: index, %arg4: memref<64x256x56x56xf32>, %arg5: memref<64x256x56x56xf32>) attributes {scop.stmt} {
    %cst = arith.constant 0.000000e+00 : f32
    %0 = affine.load %arg5[symbol(%arg0), symbol(%arg1), symbol(%arg2), symbol(%arg3)] : memref<64x256x56x56xf32>
    %1 = arith.cmpf ugt, %0, %cst : f32
    %2 = arith.select %1, %0, %cst : f32
    affine.store %2, %arg4[symbol(%arg0), symbol(%arg1), symbol(%arg2), symbol(%arg3)] : memref<64x256x56x56xf32>
    return
  }
  func.func private @S23(%arg0: index, %arg1: index, %arg2: index, %arg3: index, %arg4: memref<64x64x56x56xf32>, %arg5: index, %arg6: index, %arg7: index, %arg8: memref<64x256x1x1xf32>, %arg9: memref<64x256x56x56xf32>) attributes {scop.stmt} {
    %0 = affine.load %arg4[symbol(%arg0), symbol(%arg1), symbol(%arg2), symbol(%arg3)] : memref<64x64x56x56xf32>
    %1 = affine.load %arg9[symbol(%arg0), symbol(%arg5), symbol(%arg2) + symbol(%arg6), symbol(%arg3) + symbol(%arg7)] : memref<64x256x56x56xf32>
    %2 = affine.load %arg8[symbol(%arg1), symbol(%arg5), symbol(%arg6), symbol(%arg7)] : memref<64x256x1x1xf32>
    %3 = arith.mulf %1, %2 : f32
    %4 = arith.addf %0, %3 : f32
    affine.store %4, %arg4[symbol(%arg0), symbol(%arg1), symbol(%arg2), symbol(%arg3)] : memref<64x64x56x56xf32>
    return
  }
  func.func private @S24(%arg0: index, %arg1: index, %arg2: index, %arg3: index, %arg4: memref<64x64x56x56xf32>, %arg5: memref<64x64x56x56xf32>) attributes {scop.stmt} {
    %cst = arith.constant 0.000000e+00 : f32
    %cst_0 = arith.constant 1.000000e+00 : f32
    %cst_1 = arith.constant 1.000000e-05 : f64
    %0 = affine.load %arg5[symbol(%arg0), symbol(%arg1), symbol(%arg2), symbol(%arg3)] : memref<64x64x56x56xf32>
    %1 = arith.truncf %cst_1 : f64 to f32
    %2 = arith.addf %1, %cst_0 : f32
    %3 = math.rsqrt %2 : f32
    %4 = arith.mulf %0, %3 : f32
    %5 = arith.addf %4, %cst : f32
    affine.store %5, %arg4[symbol(%arg0), symbol(%arg1), symbol(%arg2), symbol(%arg3)] : memref<64x64x56x56xf32>
    return
  }
  func.func private @S25(%arg0: index, %arg1: index, %arg2: index, %arg3: index, %arg4: memref<64x64x56x56xf32>, %arg5: memref<64x64x56x56xf32>) attributes {scop.stmt} {
    %cst = arith.constant 0.000000e+00 : f32
    %0 = affine.load %arg5[symbol(%arg0), symbol(%arg1), symbol(%arg2), symbol(%arg3)] : memref<64x64x56x56xf32>
    %1 = arith.cmpf ugt, %0, %cst : f32
    %2 = arith.select %1, %0, %cst : f32
    affine.store %2, %arg4[symbol(%arg0), symbol(%arg1), symbol(%arg2), symbol(%arg3)] : memref<64x64x56x56xf32>
    return
  }
  func.func private @S26(%arg0: index, %arg1: index, %arg2: index, %arg3: index, %arg4: memref<64x64x58x58xf32>) attributes {scop.stmt} {
    %cst = arith.constant 0.000000e+00 : f32
    affine.store %cst, %arg4[symbol(%arg0), symbol(%arg1), symbol(%arg2), symbol(%arg3)] : memref<64x64x58x58xf32>
    return
  }
  func.func private @S27(%arg0: index, %arg1: index, %arg2: index, %arg3: index, %arg4: memref<64x64x56x56xf32>, %arg5: index, %arg6: index, %arg7: index, %arg8: memref<64x64x3x3xf32>, %arg9: memref<64x64x58x58xf32>) attributes {scop.stmt} {
    %0 = affine.load %arg4[symbol(%arg0), symbol(%arg1), symbol(%arg2), symbol(%arg3)] : memref<64x64x56x56xf32>
    %1 = affine.load %arg9[symbol(%arg0), symbol(%arg5), symbol(%arg2) + symbol(%arg6), symbol(%arg3) + symbol(%arg7)] : memref<64x64x58x58xf32>
    %2 = affine.load %arg8[symbol(%arg1), symbol(%arg5), symbol(%arg6), symbol(%arg7)] : memref<64x64x3x3xf32>
    %3 = arith.mulf %1, %2 : f32
    %4 = arith.addf %0, %3 : f32
    affine.store %4, %arg4[symbol(%arg0), symbol(%arg1), symbol(%arg2), symbol(%arg3)] : memref<64x64x56x56xf32>
    return
  }
  func.func private @S28(%arg0: index, %arg1: index, %arg2: index, %arg3: index, %arg4: memref<64x64x56x56xf32>, %arg5: memref<64x64x56x56xf32>) attributes {scop.stmt} {
    %cst = arith.constant 0.000000e+00 : f32
    %cst_0 = arith.constant 1.000000e+00 : f32
    %cst_1 = arith.constant 1.000000e-05 : f64
    %0 = affine.load %arg5[symbol(%arg0), symbol(%arg1), symbol(%arg2), symbol(%arg3)] : memref<64x64x56x56xf32>
    %1 = arith.truncf %cst_1 : f64 to f32
    %2 = arith.addf %1, %cst_0 : f32
    %3 = math.rsqrt %2 : f32
    %4 = arith.mulf %0, %3 : f32
    %5 = arith.addf %4, %cst : f32
    affine.store %5, %arg4[symbol(%arg0), symbol(%arg1), symbol(%arg2), symbol(%arg3)] : memref<64x64x56x56xf32>
    return
  }
  func.func private @S29(%arg0: index, %arg1: index, %arg2: index, %arg3: index, %arg4: memref<64x64x56x56xf32>, %arg5: memref<64x64x56x56xf32>) attributes {scop.stmt} {
    %cst = arith.constant 0.000000e+00 : f32
    %0 = affine.load %arg5[symbol(%arg0), symbol(%arg1), symbol(%arg2), symbol(%arg3)] : memref<64x64x56x56xf32>
    %1 = arith.cmpf ugt, %0, %cst : f32
    %2 = arith.select %1, %0, %cst : f32
    affine.store %2, %arg4[symbol(%arg0), symbol(%arg1), symbol(%arg2), symbol(%arg3)] : memref<64x64x56x56xf32>
    return
  }
  func.func private @S30(%arg0: index, %arg1: index, %arg2: index, %arg3: index, %arg4: memref<64x256x56x56xf32>, %arg5: index, %arg6: index, %arg7: index, %arg8: memref<256x64x1x1xf32>, %arg9: memref<64x64x56x56xf32>) attributes {scop.stmt} {
    %0 = affine.load %arg4[symbol(%arg0), symbol(%arg1), symbol(%arg2), symbol(%arg3)] : memref<64x256x56x56xf32>
    %1 = affine.load %arg9[symbol(%arg0), symbol(%arg5), symbol(%arg2) + symbol(%arg6), symbol(%arg3) + symbol(%arg7)] : memref<64x64x56x56xf32>
    %2 = affine.load %arg8[symbol(%arg1), symbol(%arg5), symbol(%arg6), symbol(%arg7)] : memref<256x64x1x1xf32>
    %3 = arith.mulf %1, %2 : f32
    %4 = arith.addf %0, %3 : f32
    affine.store %4, %arg4[symbol(%arg0), symbol(%arg1), symbol(%arg2), symbol(%arg3)] : memref<64x256x56x56xf32>
    return
  }
  func.func private @S31(%arg0: index, %arg1: index, %arg2: index, %arg3: index, %arg4: memref<64x256x56x56xf32>, %arg5: memref<64x256x56x56xf32>) attributes {scop.stmt} {
    %cst = arith.constant 0.000000e+00 : f32
    %cst_0 = arith.constant 1.000000e+00 : f32
    %cst_1 = arith.constant 1.000000e-05 : f64
    %0 = affine.load %arg5[symbol(%arg0), symbol(%arg1), symbol(%arg2), symbol(%arg3)] : memref<64x256x56x56xf32>
    %1 = arith.truncf %cst_1 : f64 to f32
    %2 = arith.addf %1, %cst_0 : f32
    %3 = math.rsqrt %2 : f32
    %4 = arith.mulf %0, %3 : f32
    %5 = arith.addf %4, %cst : f32
    affine.store %5, %arg4[symbol(%arg0), symbol(%arg1), symbol(%arg2), symbol(%arg3)] : memref<64x256x56x56xf32>
    return
  }
  func.func private @S32(%arg0: index, %arg1: index, %arg2: index, %arg3: index, %arg4: memref<64x256x56x56xf32>, %arg5: memref<64x256x56x56xf32>, %arg6: memref<64x256x56x56xf32>) attributes {scop.stmt} {
    %0 = affine.load %arg6[symbol(%arg0), symbol(%arg1), symbol(%arg2), symbol(%arg3)] : memref<64x256x56x56xf32>
    %1 = affine.load %arg5[symbol(%arg0), symbol(%arg1), symbol(%arg2), symbol(%arg3)] : memref<64x256x56x56xf32>
    %2 = arith.addf %0, %1 : f32
    affine.store %2, %arg4[symbol(%arg0), symbol(%arg1), symbol(%arg2), symbol(%arg3)] : memref<64x256x56x56xf32>
    return
  }
  func.func private @S33(%arg0: index, %arg1: index, %arg2: index, %arg3: index, %arg4: memref<64x256x56x56xf32>, %arg5: memref<64x256x56x56xf32>) attributes {scop.stmt} {
    %cst = arith.constant 0.000000e+00 : f32
    %0 = affine.load %arg5[symbol(%arg0), symbol(%arg1), symbol(%arg2), symbol(%arg3)] : memref<64x256x56x56xf32>
    %1 = arith.cmpf ugt, %0, %cst : f32
    %2 = arith.select %1, %0, %cst : f32
    affine.store %2, %arg4[symbol(%arg0), symbol(%arg1), symbol(%arg2), symbol(%arg3)] : memref<64x256x56x56xf32>
    return
  }
  func.func private @S34(%arg0: index, %arg1: index, %arg2: index, %arg3: index, %arg4: memref<64x64x56x56xf32>, %arg5: index, %arg6: index, %arg7: index, %arg8: memref<64x256x1x1xf32>, %arg9: memref<64x256x56x56xf32>) attributes {scop.stmt} {
    %0 = affine.load %arg4[symbol(%arg0), symbol(%arg1), symbol(%arg2), symbol(%arg3)] : memref<64x64x56x56xf32>
    %1 = affine.load %arg9[symbol(%arg0), symbol(%arg5), symbol(%arg2) + symbol(%arg6), symbol(%arg3) + symbol(%arg7)] : memref<64x256x56x56xf32>
    %2 = affine.load %arg8[symbol(%arg1), symbol(%arg5), symbol(%arg6), symbol(%arg7)] : memref<64x256x1x1xf32>
    %3 = arith.mulf %1, %2 : f32
    %4 = arith.addf %0, %3 : f32
    affine.store %4, %arg4[symbol(%arg0), symbol(%arg1), symbol(%arg2), symbol(%arg3)] : memref<64x64x56x56xf32>
    return
  }
  func.func private @S35(%arg0: index, %arg1: index, %arg2: index, %arg3: index, %arg4: memref<64x64x56x56xf32>, %arg5: memref<64x64x56x56xf32>) attributes {scop.stmt} {
    %cst = arith.constant 0.000000e+00 : f32
    %cst_0 = arith.constant 1.000000e+00 : f32
    %cst_1 = arith.constant 1.000000e-05 : f64
    %0 = affine.load %arg5[symbol(%arg0), symbol(%arg1), symbol(%arg2), symbol(%arg3)] : memref<64x64x56x56xf32>
    %1 = arith.truncf %cst_1 : f64 to f32
    %2 = arith.addf %1, %cst_0 : f32
    %3 = math.rsqrt %2 : f32
    %4 = arith.mulf %0, %3 : f32
    %5 = arith.addf %4, %cst : f32
    affine.store %5, %arg4[symbol(%arg0), symbol(%arg1), symbol(%arg2), symbol(%arg3)] : memref<64x64x56x56xf32>
    return
  }
  func.func private @S36(%arg0: index, %arg1: index, %arg2: index, %arg3: index, %arg4: memref<64x64x56x56xf32>, %arg5: memref<64x64x56x56xf32>) attributes {scop.stmt} {
    %cst = arith.constant 0.000000e+00 : f32
    %0 = affine.load %arg5[symbol(%arg0), symbol(%arg1), symbol(%arg2), symbol(%arg3)] : memref<64x64x56x56xf32>
    %1 = arith.cmpf ugt, %0, %cst : f32
    %2 = arith.select %1, %0, %cst : f32
    affine.store %2, %arg4[symbol(%arg0), symbol(%arg1), symbol(%arg2), symbol(%arg3)] : memref<64x64x56x56xf32>
    return
  }
  func.func private @S37(%arg0: index, %arg1: index, %arg2: index, %arg3: index, %arg4: memref<64x64x58x58xf32>) attributes {scop.stmt} {
    %cst = arith.constant 0.000000e+00 : f32
    affine.store %cst, %arg4[symbol(%arg0), symbol(%arg1), symbol(%arg2), symbol(%arg3)] : memref<64x64x58x58xf32>
    return
  }
  func.func private @S38(%arg0: index, %arg1: index, %arg2: index, %arg3: index, %arg4: memref<64x64x56x56xf32>, %arg5: index, %arg6: index, %arg7: index, %arg8: memref<64x64x3x3xf32>, %arg9: memref<64x64x58x58xf32>) attributes {scop.stmt} {
    %0 = affine.load %arg4[symbol(%arg0), symbol(%arg1), symbol(%arg2), symbol(%arg3)] : memref<64x64x56x56xf32>
    %1 = affine.load %arg9[symbol(%arg0), symbol(%arg5), symbol(%arg2) + symbol(%arg6), symbol(%arg3) + symbol(%arg7)] : memref<64x64x58x58xf32>
    %2 = affine.load %arg8[symbol(%arg1), symbol(%arg5), symbol(%arg6), symbol(%arg7)] : memref<64x64x3x3xf32>
    %3 = arith.mulf %1, %2 : f32
    %4 = arith.addf %0, %3 : f32
    affine.store %4, %arg4[symbol(%arg0), symbol(%arg1), symbol(%arg2), symbol(%arg3)] : memref<64x64x56x56xf32>
    return
  }
  func.func private @S39(%arg0: index, %arg1: index, %arg2: index, %arg3: index, %arg4: memref<64x64x56x56xf32>, %arg5: memref<64x64x56x56xf32>) attributes {scop.stmt} {
    %cst = arith.constant 0.000000e+00 : f32
    %cst_0 = arith.constant 1.000000e+00 : f32
    %cst_1 = arith.constant 1.000000e-05 : f64
    %0 = affine.load %arg5[symbol(%arg0), symbol(%arg1), symbol(%arg2), symbol(%arg3)] : memref<64x64x56x56xf32>
    %1 = arith.truncf %cst_1 : f64 to f32
    %2 = arith.addf %1, %cst_0 : f32
    %3 = math.rsqrt %2 : f32
    %4 = arith.mulf %0, %3 : f32
    %5 = arith.addf %4, %cst : f32
    affine.store %5, %arg4[symbol(%arg0), symbol(%arg1), symbol(%arg2), symbol(%arg3)] : memref<64x64x56x56xf32>
    return
  }
  func.func private @S40(%arg0: index, %arg1: index, %arg2: index, %arg3: index, %arg4: memref<64x64x56x56xf32>, %arg5: memref<64x64x56x56xf32>) attributes {scop.stmt} {
    %cst = arith.constant 0.000000e+00 : f32
    %0 = affine.load %arg5[symbol(%arg0), symbol(%arg1), symbol(%arg2), symbol(%arg3)] : memref<64x64x56x56xf32>
    %1 = arith.cmpf ugt, %0, %cst : f32
    %2 = arith.select %1, %0, %cst : f32
    affine.store %2, %arg4[symbol(%arg0), symbol(%arg1), symbol(%arg2), symbol(%arg3)] : memref<64x64x56x56xf32>
    return
  }
  func.func private @S41(%arg0: index, %arg1: index, %arg2: index, %arg3: index, %arg4: memref<64x256x56x56xf32>, %arg5: index, %arg6: index, %arg7: index, %arg8: memref<256x64x1x1xf32>, %arg9: memref<64x64x56x56xf32>) attributes {scop.stmt} {
    %0 = affine.load %arg4[symbol(%arg0), symbol(%arg1), symbol(%arg2), symbol(%arg3)] : memref<64x256x56x56xf32>
    %1 = affine.load %arg9[symbol(%arg0), symbol(%arg5), symbol(%arg2) + symbol(%arg6), symbol(%arg3) + symbol(%arg7)] : memref<64x64x56x56xf32>
    %2 = affine.load %arg8[symbol(%arg1), symbol(%arg5), symbol(%arg6), symbol(%arg7)] : memref<256x64x1x1xf32>
    %3 = arith.mulf %1, %2 : f32
    %4 = arith.addf %0, %3 : f32
    affine.store %4, %arg4[symbol(%arg0), symbol(%arg1), symbol(%arg2), symbol(%arg3)] : memref<64x256x56x56xf32>
    return
  }
  func.func private @S42(%arg0: index, %arg1: index, %arg2: index, %arg3: index, %arg4: memref<64x256x56x56xf32>, %arg5: memref<64x256x56x56xf32>) attributes {scop.stmt} {
    %cst = arith.constant 0.000000e+00 : f32
    %cst_0 = arith.constant 1.000000e+00 : f32
    %cst_1 = arith.constant 1.000000e-05 : f64
    %0 = affine.load %arg5[symbol(%arg0), symbol(%arg1), symbol(%arg2), symbol(%arg3)] : memref<64x256x56x56xf32>
    %1 = arith.truncf %cst_1 : f64 to f32
    %2 = arith.addf %1, %cst_0 : f32
    %3 = math.rsqrt %2 : f32
    %4 = arith.mulf %0, %3 : f32
    %5 = arith.addf %4, %cst : f32
    affine.store %5, %arg4[symbol(%arg0), symbol(%arg1), symbol(%arg2), symbol(%arg3)] : memref<64x256x56x56xf32>
    return
  }
  func.func private @S43(%arg0: index, %arg1: index, %arg2: index, %arg3: index, %arg4: memref<64x256x56x56xf32>, %arg5: memref<64x256x56x56xf32>, %arg6: memref<64x256x56x56xf32>) attributes {scop.stmt} {
    %0 = affine.load %arg6[symbol(%arg0), symbol(%arg1), symbol(%arg2), symbol(%arg3)] : memref<64x256x56x56xf32>
    %1 = affine.load %arg5[symbol(%arg0), symbol(%arg1), symbol(%arg2), symbol(%arg3)] : memref<64x256x56x56xf32>
    %2 = arith.addf %0, %1 : f32
    affine.store %2, %arg4[symbol(%arg0), symbol(%arg1), symbol(%arg2), symbol(%arg3)] : memref<64x256x56x56xf32>
    return
  }
  func.func private @S44(%arg0: index, %arg1: index, %arg2: index, %arg3: index, %arg4: memref<64x256x56x56xf32>, %arg5: memref<64x256x56x56xf32>) attributes {scop.stmt} {
    %cst = arith.constant 0.000000e+00 : f32
    %0 = affine.load %arg5[symbol(%arg0), symbol(%arg1), symbol(%arg2), symbol(%arg3)] : memref<64x256x56x56xf32>
    %1 = arith.cmpf ugt, %0, %cst : f32
    %2 = arith.select %1, %0, %cst : f32
    affine.store %2, %arg4[symbol(%arg0), symbol(%arg1), symbol(%arg2), symbol(%arg3)] : memref<64x256x56x56xf32>
    return
  }
  func.func private @S45(%arg0: index, %arg1: index, %arg2: index, %arg3: index, %arg4: memref<64x128x56x56xf32>) attributes {scop.stmt} {
    %cst = arith.constant 0.000000e+00 : f32
    affine.store %cst, %arg4[symbol(%arg0), symbol(%arg1), symbol(%arg2), symbol(%arg3)] : memref<64x128x56x56xf32>
    return
  }
  func.func private @S46(%arg0: index, %arg1: index, %arg2: index, %arg3: index, %arg4: memref<64x128x56x56xf32>, %arg5: index, %arg6: index, %arg7: index, %arg8: memref<128x256x1x1xf32>, %arg9: memref<64x256x56x56xf32>) attributes {scop.stmt} {
    %0 = affine.load %arg4[symbol(%arg0), symbol(%arg1), symbol(%arg2), symbol(%arg3)] : memref<64x128x56x56xf32>
    %1 = affine.load %arg9[symbol(%arg0), symbol(%arg5), symbol(%arg2) + symbol(%arg6), symbol(%arg3) + symbol(%arg7)] : memref<64x256x56x56xf32>
    %2 = affine.load %arg8[symbol(%arg1), symbol(%arg5), symbol(%arg6), symbol(%arg7)] : memref<128x256x1x1xf32>
    %3 = arith.mulf %1, %2 : f32
    %4 = arith.addf %0, %3 : f32
    affine.store %4, %arg4[symbol(%arg0), symbol(%arg1), symbol(%arg2), symbol(%arg3)] : memref<64x128x56x56xf32>
    return
  }
  func.func private @S47(%arg0: index, %arg1: index, %arg2: index, %arg3: index, %arg4: memref<64x128x56x56xf32>, %arg5: memref<64x128x56x56xf32>) attributes {scop.stmt} {
    %cst = arith.constant 0.000000e+00 : f32
    %cst_0 = arith.constant 1.000000e+00 : f32
    %cst_1 = arith.constant 1.000000e-05 : f64
    %0 = affine.load %arg5[symbol(%arg0), symbol(%arg1), symbol(%arg2), symbol(%arg3)] : memref<64x128x56x56xf32>
    %1 = arith.truncf %cst_1 : f64 to f32
    %2 = arith.addf %1, %cst_0 : f32
    %3 = math.rsqrt %2 : f32
    %4 = arith.mulf %0, %3 : f32
    %5 = arith.addf %4, %cst : f32
    affine.store %5, %arg4[symbol(%arg0), symbol(%arg1), symbol(%arg2), symbol(%arg3)] : memref<64x128x56x56xf32>
    return
  }
  func.func private @S48(%arg0: index, %arg1: index, %arg2: index, %arg3: index, %arg4: memref<64x128x56x56xf32>, %arg5: memref<64x128x56x56xf32>) attributes {scop.stmt} {
    %cst = arith.constant 0.000000e+00 : f32
    %0 = affine.load %arg5[symbol(%arg0), symbol(%arg1), symbol(%arg2), symbol(%arg3)] : memref<64x128x56x56xf32>
    %1 = arith.cmpf ugt, %0, %cst : f32
    %2 = arith.select %1, %0, %cst : f32
    affine.store %2, %arg4[symbol(%arg0), symbol(%arg1), symbol(%arg2), symbol(%arg3)] : memref<64x128x56x56xf32>
    return
  }
  func.func private @S49(%arg0: index, %arg1: index, %arg2: index, %arg3: index, %arg4: memref<64x128x58x58xf32>) attributes {scop.stmt} {
    %cst = arith.constant 0.000000e+00 : f32
    affine.store %cst, %arg4[symbol(%arg0), symbol(%arg1), symbol(%arg2), symbol(%arg3)] : memref<64x128x58x58xf32>
    return
  }
  func.func private @S50(%arg0: index, %arg1: index, %arg2: index, %arg3: index, %arg4: memref<64x128x28x28xf32>) attributes {scop.stmt} {
    %cst = arith.constant 0.000000e+00 : f32
    affine.store %cst, %arg4[symbol(%arg0), symbol(%arg1), symbol(%arg2), symbol(%arg3)] : memref<64x128x28x28xf32>
    return
  }
  func.func private @S51(%arg0: index, %arg1: index, %arg2: index, %arg3: index, %arg4: memref<64x128x28x28xf32>, %arg5: index, %arg6: index, %arg7: index, %arg8: memref<128x128x3x3xf32>, %arg9: memref<64x128x58x58xf32>) attributes {scop.stmt} {
    %0 = affine.load %arg4[symbol(%arg0), symbol(%arg1), symbol(%arg2), symbol(%arg3)] : memref<64x128x28x28xf32>
    %1 = affine.load %arg9[symbol(%arg0), symbol(%arg5), symbol(%arg2) * 2 + symbol(%arg6), symbol(%arg3) * 2 + symbol(%arg7)] : memref<64x128x58x58xf32>
    %2 = affine.load %arg8[symbol(%arg1), symbol(%arg5), symbol(%arg6), symbol(%arg7)] : memref<128x128x3x3xf32>
    %3 = arith.mulf %1, %2 : f32
    %4 = arith.addf %0, %3 : f32
    affine.store %4, %arg4[symbol(%arg0), symbol(%arg1), symbol(%arg2), symbol(%arg3)] : memref<64x128x28x28xf32>
    return
  }
  func.func private @S52(%arg0: index, %arg1: index, %arg2: index, %arg3: index, %arg4: memref<64x128x28x28xf32>, %arg5: memref<64x128x28x28xf32>) attributes {scop.stmt} {
    %cst = arith.constant 0.000000e+00 : f32
    %cst_0 = arith.constant 1.000000e+00 : f32
    %cst_1 = arith.constant 1.000000e-05 : f64
    %0 = affine.load %arg5[symbol(%arg0), symbol(%arg1), symbol(%arg2), symbol(%arg3)] : memref<64x128x28x28xf32>
    %1 = arith.truncf %cst_1 : f64 to f32
    %2 = arith.addf %1, %cst_0 : f32
    %3 = math.rsqrt %2 : f32
    %4 = arith.mulf %0, %3 : f32
    %5 = arith.addf %4, %cst : f32
    affine.store %5, %arg4[symbol(%arg0), symbol(%arg1), symbol(%arg2), symbol(%arg3)] : memref<64x128x28x28xf32>
    return
  }
  func.func private @S53(%arg0: index, %arg1: index, %arg2: index, %arg3: index, %arg4: memref<64x128x28x28xf32>, %arg5: memref<64x128x28x28xf32>) attributes {scop.stmt} {
    %cst = arith.constant 0.000000e+00 : f32
    %0 = affine.load %arg5[symbol(%arg0), symbol(%arg1), symbol(%arg2), symbol(%arg3)] : memref<64x128x28x28xf32>
    %1 = arith.cmpf ugt, %0, %cst : f32
    %2 = arith.select %1, %0, %cst : f32
    affine.store %2, %arg4[symbol(%arg0), symbol(%arg1), symbol(%arg2), symbol(%arg3)] : memref<64x128x28x28xf32>
    return
  }
  func.func private @S54(%arg0: index, %arg1: index, %arg2: index, %arg3: index, %arg4: memref<64x512x28x28xf32>) attributes {scop.stmt} {
    %cst = arith.constant 0.000000e+00 : f32
    affine.store %cst, %arg4[symbol(%arg0), symbol(%arg1), symbol(%arg2), symbol(%arg3)] : memref<64x512x28x28xf32>
    return
  }
  func.func private @S55(%arg0: index, %arg1: index, %arg2: index, %arg3: index, %arg4: memref<64x512x28x28xf32>, %arg5: index, %arg6: index, %arg7: index, %arg8: memref<512x128x1x1xf32>, %arg9: memref<64x128x28x28xf32>) attributes {scop.stmt} {
    %0 = affine.load %arg4[symbol(%arg0), symbol(%arg1), symbol(%arg2), symbol(%arg3)] : memref<64x512x28x28xf32>
    %1 = affine.load %arg9[symbol(%arg0), symbol(%arg5), symbol(%arg2) + symbol(%arg6), symbol(%arg3) + symbol(%arg7)] : memref<64x128x28x28xf32>
    %2 = affine.load %arg8[symbol(%arg1), symbol(%arg5), symbol(%arg6), symbol(%arg7)] : memref<512x128x1x1xf32>
    %3 = arith.mulf %1, %2 : f32
    %4 = arith.addf %0, %3 : f32
    affine.store %4, %arg4[symbol(%arg0), symbol(%arg1), symbol(%arg2), symbol(%arg3)] : memref<64x512x28x28xf32>
    return
  }
  func.func private @S56(%arg0: index, %arg1: index, %arg2: index, %arg3: index, %arg4: memref<64x512x28x28xf32>, %arg5: memref<64x512x28x28xf32>) attributes {scop.stmt} {
    %cst = arith.constant 0.000000e+00 : f32
    %cst_0 = arith.constant 1.000000e+00 : f32
    %cst_1 = arith.constant 1.000000e-05 : f64
    %0 = affine.load %arg5[symbol(%arg0), symbol(%arg1), symbol(%arg2), symbol(%arg3)] : memref<64x512x28x28xf32>
    %1 = arith.truncf %cst_1 : f64 to f32
    %2 = arith.addf %1, %cst_0 : f32
    %3 = math.rsqrt %2 : f32
    %4 = arith.mulf %0, %3 : f32
    %5 = arith.addf %4, %cst : f32
    affine.store %5, %arg4[symbol(%arg0), symbol(%arg1), symbol(%arg2), symbol(%arg3)] : memref<64x512x28x28xf32>
    return
  }
  func.func private @S57(%arg0: index, %arg1: index, %arg2: index, %arg3: index, %arg4: memref<64x512x28x28xf32>, %arg5: index, %arg6: index, %arg7: index, %arg8: memref<512x256x1x1xf32>, %arg9: memref<64x256x56x56xf32>) attributes {scop.stmt} {
    %0 = affine.load %arg4[symbol(%arg0), symbol(%arg1), symbol(%arg2), symbol(%arg3)] : memref<64x512x28x28xf32>
    %1 = affine.load %arg9[symbol(%arg0), symbol(%arg5), symbol(%arg2) * 2 + symbol(%arg6), symbol(%arg3) * 2 + symbol(%arg7)] : memref<64x256x56x56xf32>
    %2 = affine.load %arg8[symbol(%arg1), symbol(%arg5), symbol(%arg6), symbol(%arg7)] : memref<512x256x1x1xf32>
    %3 = arith.mulf %1, %2 : f32
    %4 = arith.addf %0, %3 : f32
    affine.store %4, %arg4[symbol(%arg0), symbol(%arg1), symbol(%arg2), symbol(%arg3)] : memref<64x512x28x28xf32>
    return
  }
  func.func private @S58(%arg0: index, %arg1: index, %arg2: index, %arg3: index, %arg4: memref<64x512x28x28xf32>, %arg5: memref<64x512x28x28xf32>) attributes {scop.stmt} {
    %cst = arith.constant 0.000000e+00 : f32
    %cst_0 = arith.constant 1.000000e+00 : f32
    %cst_1 = arith.constant 1.000000e-05 : f64
    %0 = affine.load %arg5[symbol(%arg0), symbol(%arg1), symbol(%arg2), symbol(%arg3)] : memref<64x512x28x28xf32>
    %1 = arith.truncf %cst_1 : f64 to f32
    %2 = arith.addf %1, %cst_0 : f32
    %3 = math.rsqrt %2 : f32
    %4 = arith.mulf %0, %3 : f32
    %5 = arith.addf %4, %cst : f32
    affine.store %5, %arg4[symbol(%arg0), symbol(%arg1), symbol(%arg2), symbol(%arg3)] : memref<64x512x28x28xf32>
    return
  }
  func.func private @S59(%arg0: index, %arg1: index, %arg2: index, %arg3: index, %arg4: memref<64x512x28x28xf32>, %arg5: memref<64x512x28x28xf32>, %arg6: memref<64x512x28x28xf32>) attributes {scop.stmt} {
    %0 = affine.load %arg6[symbol(%arg0), symbol(%arg1), symbol(%arg2), symbol(%arg3)] : memref<64x512x28x28xf32>
    %1 = affine.load %arg5[symbol(%arg0), symbol(%arg1), symbol(%arg2), symbol(%arg3)] : memref<64x512x28x28xf32>
    %2 = arith.addf %0, %1 : f32
    affine.store %2, %arg4[symbol(%arg0), symbol(%arg1), symbol(%arg2), symbol(%arg3)] : memref<64x512x28x28xf32>
    return
  }
  func.func private @S60(%arg0: index, %arg1: index, %arg2: index, %arg3: index, %arg4: memref<64x512x28x28xf32>, %arg5: memref<64x512x28x28xf32>) attributes {scop.stmt} {
    %cst = arith.constant 0.000000e+00 : f32
    %0 = affine.load %arg5[symbol(%arg0), symbol(%arg1), symbol(%arg2), symbol(%arg3)] : memref<64x512x28x28xf32>
    %1 = arith.cmpf ugt, %0, %cst : f32
    %2 = arith.select %1, %0, %cst : f32
    affine.store %2, %arg4[symbol(%arg0), symbol(%arg1), symbol(%arg2), symbol(%arg3)] : memref<64x512x28x28xf32>
    return
  }
  func.func private @S61(%arg0: index, %arg1: index, %arg2: index, %arg3: index, %arg4: memref<64x128x28x28xf32>, %arg5: index, %arg6: index, %arg7: index, %arg8: memref<128x512x1x1xf32>, %arg9: memref<64x512x28x28xf32>) attributes {scop.stmt} {
    %0 = affine.load %arg4[symbol(%arg0), symbol(%arg1), symbol(%arg2), symbol(%arg3)] : memref<64x128x28x28xf32>
    %1 = affine.load %arg9[symbol(%arg0), symbol(%arg5), symbol(%arg2) + symbol(%arg6), symbol(%arg3) + symbol(%arg7)] : memref<64x512x28x28xf32>
    %2 = affine.load %arg8[symbol(%arg1), symbol(%arg5), symbol(%arg6), symbol(%arg7)] : memref<128x512x1x1xf32>
    %3 = arith.mulf %1, %2 : f32
    %4 = arith.addf %0, %3 : f32
    affine.store %4, %arg4[symbol(%arg0), symbol(%arg1), symbol(%arg2), symbol(%arg3)] : memref<64x128x28x28xf32>
    return
  }
  func.func private @S62(%arg0: index, %arg1: index, %arg2: index, %arg3: index, %arg4: memref<64x128x28x28xf32>, %arg5: memref<64x128x28x28xf32>) attributes {scop.stmt} {
    %cst = arith.constant 0.000000e+00 : f32
    %cst_0 = arith.constant 1.000000e+00 : f32
    %cst_1 = arith.constant 1.000000e-05 : f64
    %0 = affine.load %arg5[symbol(%arg0), symbol(%arg1), symbol(%arg2), symbol(%arg3)] : memref<64x128x28x28xf32>
    %1 = arith.truncf %cst_1 : f64 to f32
    %2 = arith.addf %1, %cst_0 : f32
    %3 = math.rsqrt %2 : f32
    %4 = arith.mulf %0, %3 : f32
    %5 = arith.addf %4, %cst : f32
    affine.store %5, %arg4[symbol(%arg0), symbol(%arg1), symbol(%arg2), symbol(%arg3)] : memref<64x128x28x28xf32>
    return
  }
  func.func private @S63(%arg0: index, %arg1: index, %arg2: index, %arg3: index, %arg4: memref<64x128x28x28xf32>, %arg5: memref<64x128x28x28xf32>) attributes {scop.stmt} {
    %cst = arith.constant 0.000000e+00 : f32
    %0 = affine.load %arg5[symbol(%arg0), symbol(%arg1), symbol(%arg2), symbol(%arg3)] : memref<64x128x28x28xf32>
    %1 = arith.cmpf ugt, %0, %cst : f32
    %2 = arith.select %1, %0, %cst : f32
    affine.store %2, %arg4[symbol(%arg0), symbol(%arg1), symbol(%arg2), symbol(%arg3)] : memref<64x128x28x28xf32>
    return
  }
  func.func private @S64(%arg0: index, %arg1: index, %arg2: index, %arg3: index, %arg4: memref<64x128x30x30xf32>) attributes {scop.stmt} {
    %cst = arith.constant 0.000000e+00 : f32
    affine.store %cst, %arg4[symbol(%arg0), symbol(%arg1), symbol(%arg2), symbol(%arg3)] : memref<64x128x30x30xf32>
    return
  }
  func.func private @S65(%arg0: index, %arg1: index, %arg2: index, %arg3: index, %arg4: memref<64x128x28x28xf32>, %arg5: index, %arg6: index, %arg7: index, %arg8: memref<128x128x3x3xf32>, %arg9: memref<64x128x30x30xf32>) attributes {scop.stmt} {
    %0 = affine.load %arg4[symbol(%arg0), symbol(%arg1), symbol(%arg2), symbol(%arg3)] : memref<64x128x28x28xf32>
    %1 = affine.load %arg9[symbol(%arg0), symbol(%arg5), symbol(%arg2) + symbol(%arg6), symbol(%arg3) + symbol(%arg7)] : memref<64x128x30x30xf32>
    %2 = affine.load %arg8[symbol(%arg1), symbol(%arg5), symbol(%arg6), symbol(%arg7)] : memref<128x128x3x3xf32>
    %3 = arith.mulf %1, %2 : f32
    %4 = arith.addf %0, %3 : f32
    affine.store %4, %arg4[symbol(%arg0), symbol(%arg1), symbol(%arg2), symbol(%arg3)] : memref<64x128x28x28xf32>
    return
  }
  func.func private @S66(%arg0: index, %arg1: index, %arg2: index, %arg3: index, %arg4: memref<64x128x28x28xf32>, %arg5: memref<64x128x28x28xf32>) attributes {scop.stmt} {
    %cst = arith.constant 0.000000e+00 : f32
    %cst_0 = arith.constant 1.000000e+00 : f32
    %cst_1 = arith.constant 1.000000e-05 : f64
    %0 = affine.load %arg5[symbol(%arg0), symbol(%arg1), symbol(%arg2), symbol(%arg3)] : memref<64x128x28x28xf32>
    %1 = arith.truncf %cst_1 : f64 to f32
    %2 = arith.addf %1, %cst_0 : f32
    %3 = math.rsqrt %2 : f32
    %4 = arith.mulf %0, %3 : f32
    %5 = arith.addf %4, %cst : f32
    affine.store %5, %arg4[symbol(%arg0), symbol(%arg1), symbol(%arg2), symbol(%arg3)] : memref<64x128x28x28xf32>
    return
  }
  func.func private @S67(%arg0: index, %arg1: index, %arg2: index, %arg3: index, %arg4: memref<64x128x28x28xf32>, %arg5: memref<64x128x28x28xf32>) attributes {scop.stmt} {
    %cst = arith.constant 0.000000e+00 : f32
    %0 = affine.load %arg5[symbol(%arg0), symbol(%arg1), symbol(%arg2), symbol(%arg3)] : memref<64x128x28x28xf32>
    %1 = arith.cmpf ugt, %0, %cst : f32
    %2 = arith.select %1, %0, %cst : f32
    affine.store %2, %arg4[symbol(%arg0), symbol(%arg1), symbol(%arg2), symbol(%arg3)] : memref<64x128x28x28xf32>
    return
  }
  func.func private @S68(%arg0: index, %arg1: index, %arg2: index, %arg3: index, %arg4: memref<64x512x28x28xf32>, %arg5: index, %arg6: index, %arg7: index, %arg8: memref<512x128x1x1xf32>, %arg9: memref<64x128x28x28xf32>) attributes {scop.stmt} {
    %0 = affine.load %arg4[symbol(%arg0), symbol(%arg1), symbol(%arg2), symbol(%arg3)] : memref<64x512x28x28xf32>
    %1 = affine.load %arg9[symbol(%arg0), symbol(%arg5), symbol(%arg2) + symbol(%arg6), symbol(%arg3) + symbol(%arg7)] : memref<64x128x28x28xf32>
    %2 = affine.load %arg8[symbol(%arg1), symbol(%arg5), symbol(%arg6), symbol(%arg7)] : memref<512x128x1x1xf32>
    %3 = arith.mulf %1, %2 : f32
    %4 = arith.addf %0, %3 : f32
    affine.store %4, %arg4[symbol(%arg0), symbol(%arg1), symbol(%arg2), symbol(%arg3)] : memref<64x512x28x28xf32>
    return
  }
  func.func private @S69(%arg0: index, %arg1: index, %arg2: index, %arg3: index, %arg4: memref<64x512x28x28xf32>, %arg5: memref<64x512x28x28xf32>) attributes {scop.stmt} {
    %cst = arith.constant 0.000000e+00 : f32
    %cst_0 = arith.constant 1.000000e+00 : f32
    %cst_1 = arith.constant 1.000000e-05 : f64
    %0 = affine.load %arg5[symbol(%arg0), symbol(%arg1), symbol(%arg2), symbol(%arg3)] : memref<64x512x28x28xf32>
    %1 = arith.truncf %cst_1 : f64 to f32
    %2 = arith.addf %1, %cst_0 : f32
    %3 = math.rsqrt %2 : f32
    %4 = arith.mulf %0, %3 : f32
    %5 = arith.addf %4, %cst : f32
    affine.store %5, %arg4[symbol(%arg0), symbol(%arg1), symbol(%arg2), symbol(%arg3)] : memref<64x512x28x28xf32>
    return
  }
  func.func private @S70(%arg0: index, %arg1: index, %arg2: index, %arg3: index, %arg4: memref<64x512x28x28xf32>, %arg5: memref<64x512x28x28xf32>, %arg6: memref<64x512x28x28xf32>) attributes {scop.stmt} {
    %0 = affine.load %arg6[symbol(%arg0), symbol(%arg1), symbol(%arg2), symbol(%arg3)] : memref<64x512x28x28xf32>
    %1 = affine.load %arg5[symbol(%arg0), symbol(%arg1), symbol(%arg2), symbol(%arg3)] : memref<64x512x28x28xf32>
    %2 = arith.addf %0, %1 : f32
    affine.store %2, %arg4[symbol(%arg0), symbol(%arg1), symbol(%arg2), symbol(%arg3)] : memref<64x512x28x28xf32>
    return
  }
  func.func private @S71(%arg0: index, %arg1: index, %arg2: index, %arg3: index, %arg4: memref<64x512x28x28xf32>, %arg5: memref<64x512x28x28xf32>) attributes {scop.stmt} {
    %cst = arith.constant 0.000000e+00 : f32
    %0 = affine.load %arg5[symbol(%arg0), symbol(%arg1), symbol(%arg2), symbol(%arg3)] : memref<64x512x28x28xf32>
    %1 = arith.cmpf ugt, %0, %cst : f32
    %2 = arith.select %1, %0, %cst : f32
    affine.store %2, %arg4[symbol(%arg0), symbol(%arg1), symbol(%arg2), symbol(%arg3)] : memref<64x512x28x28xf32>
    return
  }
  func.func private @S72(%arg0: index, %arg1: index, %arg2: index, %arg3: index, %arg4: memref<64x128x28x28xf32>, %arg5: index, %arg6: index, %arg7: index, %arg8: memref<128x512x1x1xf32>, %arg9: memref<64x512x28x28xf32>) attributes {scop.stmt} {
    %0 = affine.load %arg4[symbol(%arg0), symbol(%arg1), symbol(%arg2), symbol(%arg3)] : memref<64x128x28x28xf32>
    %1 = affine.load %arg9[symbol(%arg0), symbol(%arg5), symbol(%arg2) + symbol(%arg6), symbol(%arg3) + symbol(%arg7)] : memref<64x512x28x28xf32>
    %2 = affine.load %arg8[symbol(%arg1), symbol(%arg5), symbol(%arg6), symbol(%arg7)] : memref<128x512x1x1xf32>
    %3 = arith.mulf %1, %2 : f32
    %4 = arith.addf %0, %3 : f32
    affine.store %4, %arg4[symbol(%arg0), symbol(%arg1), symbol(%arg2), symbol(%arg3)] : memref<64x128x28x28xf32>
    return
  }
  func.func private @S73(%arg0: index, %arg1: index, %arg2: index, %arg3: index, %arg4: memref<64x128x28x28xf32>, %arg5: memref<64x128x28x28xf32>) attributes {scop.stmt} {
    %cst = arith.constant 0.000000e+00 : f32
    %cst_0 = arith.constant 1.000000e+00 : f32
    %cst_1 = arith.constant 1.000000e-05 : f64
    %0 = affine.load %arg5[symbol(%arg0), symbol(%arg1), symbol(%arg2), symbol(%arg3)] : memref<64x128x28x28xf32>
    %1 = arith.truncf %cst_1 : f64 to f32
    %2 = arith.addf %1, %cst_0 : f32
    %3 = math.rsqrt %2 : f32
    %4 = arith.mulf %0, %3 : f32
    %5 = arith.addf %4, %cst : f32
    affine.store %5, %arg4[symbol(%arg0), symbol(%arg1), symbol(%arg2), symbol(%arg3)] : memref<64x128x28x28xf32>
    return
  }
  func.func private @S74(%arg0: index, %arg1: index, %arg2: index, %arg3: index, %arg4: memref<64x128x28x28xf32>, %arg5: memref<64x128x28x28xf32>) attributes {scop.stmt} {
    %cst = arith.constant 0.000000e+00 : f32
    %0 = affine.load %arg5[symbol(%arg0), symbol(%arg1), symbol(%arg2), symbol(%arg3)] : memref<64x128x28x28xf32>
    %1 = arith.cmpf ugt, %0, %cst : f32
    %2 = arith.select %1, %0, %cst : f32
    affine.store %2, %arg4[symbol(%arg0), symbol(%arg1), symbol(%arg2), symbol(%arg3)] : memref<64x128x28x28xf32>
    return
  }
  func.func private @S75(%arg0: index, %arg1: index, %arg2: index, %arg3: index, %arg4: memref<64x128x30x30xf32>) attributes {scop.stmt} {
    %cst = arith.constant 0.000000e+00 : f32
    affine.store %cst, %arg4[symbol(%arg0), symbol(%arg1), symbol(%arg2), symbol(%arg3)] : memref<64x128x30x30xf32>
    return
  }
  func.func private @S76(%arg0: index, %arg1: index, %arg2: index, %arg3: index, %arg4: memref<64x128x28x28xf32>, %arg5: index, %arg6: index, %arg7: index, %arg8: memref<128x128x3x3xf32>, %arg9: memref<64x128x30x30xf32>) attributes {scop.stmt} {
    %0 = affine.load %arg4[symbol(%arg0), symbol(%arg1), symbol(%arg2), symbol(%arg3)] : memref<64x128x28x28xf32>
    %1 = affine.load %arg9[symbol(%arg0), symbol(%arg5), symbol(%arg2) + symbol(%arg6), symbol(%arg3) + symbol(%arg7)] : memref<64x128x30x30xf32>
    %2 = affine.load %arg8[symbol(%arg1), symbol(%arg5), symbol(%arg6), symbol(%arg7)] : memref<128x128x3x3xf32>
    %3 = arith.mulf %1, %2 : f32
    %4 = arith.addf %0, %3 : f32
    affine.store %4, %arg4[symbol(%arg0), symbol(%arg1), symbol(%arg2), symbol(%arg3)] : memref<64x128x28x28xf32>
    return
  }
  func.func private @S77(%arg0: index, %arg1: index, %arg2: index, %arg3: index, %arg4: memref<64x128x28x28xf32>, %arg5: memref<64x128x28x28xf32>) attributes {scop.stmt} {
    %cst = arith.constant 0.000000e+00 : f32
    %cst_0 = arith.constant 1.000000e+00 : f32
    %cst_1 = arith.constant 1.000000e-05 : f64
    %0 = affine.load %arg5[symbol(%arg0), symbol(%arg1), symbol(%arg2), symbol(%arg3)] : memref<64x128x28x28xf32>
    %1 = arith.truncf %cst_1 : f64 to f32
    %2 = arith.addf %1, %cst_0 : f32
    %3 = math.rsqrt %2 : f32
    %4 = arith.mulf %0, %3 : f32
    %5 = arith.addf %4, %cst : f32
    affine.store %5, %arg4[symbol(%arg0), symbol(%arg1), symbol(%arg2), symbol(%arg3)] : memref<64x128x28x28xf32>
    return
  }
  func.func private @S78(%arg0: index, %arg1: index, %arg2: index, %arg3: index, %arg4: memref<64x128x28x28xf32>, %arg5: memref<64x128x28x28xf32>) attributes {scop.stmt} {
    %cst = arith.constant 0.000000e+00 : f32
    %0 = affine.load %arg5[symbol(%arg0), symbol(%arg1), symbol(%arg2), symbol(%arg3)] : memref<64x128x28x28xf32>
    %1 = arith.cmpf ugt, %0, %cst : f32
    %2 = arith.select %1, %0, %cst : f32
    affine.store %2, %arg4[symbol(%arg0), symbol(%arg1), symbol(%arg2), symbol(%arg3)] : memref<64x128x28x28xf32>
    return
  }
  func.func private @S79(%arg0: index, %arg1: index, %arg2: index, %arg3: index, %arg4: memref<64x512x28x28xf32>, %arg5: index, %arg6: index, %arg7: index, %arg8: memref<512x128x1x1xf32>, %arg9: memref<64x128x28x28xf32>) attributes {scop.stmt} {
    %0 = affine.load %arg4[symbol(%arg0), symbol(%arg1), symbol(%arg2), symbol(%arg3)] : memref<64x512x28x28xf32>
    %1 = affine.load %arg9[symbol(%arg0), symbol(%arg5), symbol(%arg2) + symbol(%arg6), symbol(%arg3) + symbol(%arg7)] : memref<64x128x28x28xf32>
    %2 = affine.load %arg8[symbol(%arg1), symbol(%arg5), symbol(%arg6), symbol(%arg7)] : memref<512x128x1x1xf32>
    %3 = arith.mulf %1, %2 : f32
    %4 = arith.addf %0, %3 : f32
    affine.store %4, %arg4[symbol(%arg0), symbol(%arg1), symbol(%arg2), symbol(%arg3)] : memref<64x512x28x28xf32>
    return
  }
  func.func private @S80(%arg0: index, %arg1: index, %arg2: index, %arg3: index, %arg4: memref<64x512x28x28xf32>, %arg5: memref<64x512x28x28xf32>) attributes {scop.stmt} {
    %cst = arith.constant 0.000000e+00 : f32
    %cst_0 = arith.constant 1.000000e+00 : f32
    %cst_1 = arith.constant 1.000000e-05 : f64
    %0 = affine.load %arg5[symbol(%arg0), symbol(%arg1), symbol(%arg2), symbol(%arg3)] : memref<64x512x28x28xf32>
    %1 = arith.truncf %cst_1 : f64 to f32
    %2 = arith.addf %1, %cst_0 : f32
    %3 = math.rsqrt %2 : f32
    %4 = arith.mulf %0, %3 : f32
    %5 = arith.addf %4, %cst : f32
    affine.store %5, %arg4[symbol(%arg0), symbol(%arg1), symbol(%arg2), symbol(%arg3)] : memref<64x512x28x28xf32>
    return
  }
  func.func private @S81(%arg0: index, %arg1: index, %arg2: index, %arg3: index, %arg4: memref<64x512x28x28xf32>, %arg5: memref<64x512x28x28xf32>, %arg6: memref<64x512x28x28xf32>) attributes {scop.stmt} {
    %0 = affine.load %arg6[symbol(%arg0), symbol(%arg1), symbol(%arg2), symbol(%arg3)] : memref<64x512x28x28xf32>
    %1 = affine.load %arg5[symbol(%arg0), symbol(%arg1), symbol(%arg2), symbol(%arg3)] : memref<64x512x28x28xf32>
    %2 = arith.addf %0, %1 : f32
    affine.store %2, %arg4[symbol(%arg0), symbol(%arg1), symbol(%arg2), symbol(%arg3)] : memref<64x512x28x28xf32>
    return
  }
  func.func private @S82(%arg0: index, %arg1: index, %arg2: index, %arg3: index, %arg4: memref<64x512x28x28xf32>, %arg5: memref<64x512x28x28xf32>) attributes {scop.stmt} {
    %cst = arith.constant 0.000000e+00 : f32
    %0 = affine.load %arg5[symbol(%arg0), symbol(%arg1), symbol(%arg2), symbol(%arg3)] : memref<64x512x28x28xf32>
    %1 = arith.cmpf ugt, %0, %cst : f32
    %2 = arith.select %1, %0, %cst : f32
    affine.store %2, %arg4[symbol(%arg0), symbol(%arg1), symbol(%arg2), symbol(%arg3)] : memref<64x512x28x28xf32>
    return
  }
  func.func private @S83(%arg0: index, %arg1: index, %arg2: index, %arg3: index, %arg4: memref<64x128x28x28xf32>, %arg5: index, %arg6: index, %arg7: index, %arg8: memref<128x512x1x1xf32>, %arg9: memref<64x512x28x28xf32>) attributes {scop.stmt} {
    %0 = affine.load %arg4[symbol(%arg0), symbol(%arg1), symbol(%arg2), symbol(%arg3)] : memref<64x128x28x28xf32>
    %1 = affine.load %arg9[symbol(%arg0), symbol(%arg5), symbol(%arg2) + symbol(%arg6), symbol(%arg3) + symbol(%arg7)] : memref<64x512x28x28xf32>
    %2 = affine.load %arg8[symbol(%arg1), symbol(%arg5), symbol(%arg6), symbol(%arg7)] : memref<128x512x1x1xf32>
    %3 = arith.mulf %1, %2 : f32
    %4 = arith.addf %0, %3 : f32
    affine.store %4, %arg4[symbol(%arg0), symbol(%arg1), symbol(%arg2), symbol(%arg3)] : memref<64x128x28x28xf32>
    return
  }
  func.func private @S84(%arg0: index, %arg1: index, %arg2: index, %arg3: index, %arg4: memref<64x128x28x28xf32>, %arg5: memref<64x128x28x28xf32>) attributes {scop.stmt} {
    %cst = arith.constant 0.000000e+00 : f32
    %cst_0 = arith.constant 1.000000e+00 : f32
    %cst_1 = arith.constant 1.000000e-05 : f64
    %0 = affine.load %arg5[symbol(%arg0), symbol(%arg1), symbol(%arg2), symbol(%arg3)] : memref<64x128x28x28xf32>
    %1 = arith.truncf %cst_1 : f64 to f32
    %2 = arith.addf %1, %cst_0 : f32
    %3 = math.rsqrt %2 : f32
    %4 = arith.mulf %0, %3 : f32
    %5 = arith.addf %4, %cst : f32
    affine.store %5, %arg4[symbol(%arg0), symbol(%arg1), symbol(%arg2), symbol(%arg3)] : memref<64x128x28x28xf32>
    return
  }
  func.func private @S85(%arg0: index, %arg1: index, %arg2: index, %arg3: index, %arg4: memref<64x128x28x28xf32>, %arg5: memref<64x128x28x28xf32>) attributes {scop.stmt} {
    %cst = arith.constant 0.000000e+00 : f32
    %0 = affine.load %arg5[symbol(%arg0), symbol(%arg1), symbol(%arg2), symbol(%arg3)] : memref<64x128x28x28xf32>
    %1 = arith.cmpf ugt, %0, %cst : f32
    %2 = arith.select %1, %0, %cst : f32
    affine.store %2, %arg4[symbol(%arg0), symbol(%arg1), symbol(%arg2), symbol(%arg3)] : memref<64x128x28x28xf32>
    return
  }
  func.func private @S86(%arg0: index, %arg1: index, %arg2: index, %arg3: index, %arg4: memref<64x128x30x30xf32>) attributes {scop.stmt} {
    %cst = arith.constant 0.000000e+00 : f32
    affine.store %cst, %arg4[symbol(%arg0), symbol(%arg1), symbol(%arg2), symbol(%arg3)] : memref<64x128x30x30xf32>
    return
  }
  func.func private @S87(%arg0: index, %arg1: index, %arg2: index, %arg3: index, %arg4: memref<64x128x28x28xf32>, %arg5: index, %arg6: index, %arg7: index, %arg8: memref<128x128x3x3xf32>, %arg9: memref<64x128x30x30xf32>) attributes {scop.stmt} {
    %0 = affine.load %arg4[symbol(%arg0), symbol(%arg1), symbol(%arg2), symbol(%arg3)] : memref<64x128x28x28xf32>
    %1 = affine.load %arg9[symbol(%arg0), symbol(%arg5), symbol(%arg2) + symbol(%arg6), symbol(%arg3) + symbol(%arg7)] : memref<64x128x30x30xf32>
    %2 = affine.load %arg8[symbol(%arg1), symbol(%arg5), symbol(%arg6), symbol(%arg7)] : memref<128x128x3x3xf32>
    %3 = arith.mulf %1, %2 : f32
    %4 = arith.addf %0, %3 : f32
    affine.store %4, %arg4[symbol(%arg0), symbol(%arg1), symbol(%arg2), symbol(%arg3)] : memref<64x128x28x28xf32>
    return
  }
  func.func private @S88(%arg0: index, %arg1: index, %arg2: index, %arg3: index, %arg4: memref<64x128x28x28xf32>, %arg5: memref<64x128x28x28xf32>) attributes {scop.stmt} {
    %cst = arith.constant 0.000000e+00 : f32
    %cst_0 = arith.constant 1.000000e+00 : f32
    %cst_1 = arith.constant 1.000000e-05 : f64
    %0 = affine.load %arg5[symbol(%arg0), symbol(%arg1), symbol(%arg2), symbol(%arg3)] : memref<64x128x28x28xf32>
    %1 = arith.truncf %cst_1 : f64 to f32
    %2 = arith.addf %1, %cst_0 : f32
    %3 = math.rsqrt %2 : f32
    %4 = arith.mulf %0, %3 : f32
    %5 = arith.addf %4, %cst : f32
    affine.store %5, %arg4[symbol(%arg0), symbol(%arg1), symbol(%arg2), symbol(%arg3)] : memref<64x128x28x28xf32>
    return
  }
  func.func private @S89(%arg0: index, %arg1: index, %arg2: index, %arg3: index, %arg4: memref<64x128x28x28xf32>, %arg5: memref<64x128x28x28xf32>) attributes {scop.stmt} {
    %cst = arith.constant 0.000000e+00 : f32
    %0 = affine.load %arg5[symbol(%arg0), symbol(%arg1), symbol(%arg2), symbol(%arg3)] : memref<64x128x28x28xf32>
    %1 = arith.cmpf ugt, %0, %cst : f32
    %2 = arith.select %1, %0, %cst : f32
    affine.store %2, %arg4[symbol(%arg0), symbol(%arg1), symbol(%arg2), symbol(%arg3)] : memref<64x128x28x28xf32>
    return
  }
  func.func private @S90(%arg0: index, %arg1: index, %arg2: index, %arg3: index, %arg4: memref<64x512x28x28xf32>, %arg5: index, %arg6: index, %arg7: index, %arg8: memref<512x128x1x1xf32>, %arg9: memref<64x128x28x28xf32>) attributes {scop.stmt} {
    %0 = affine.load %arg4[symbol(%arg0), symbol(%arg1), symbol(%arg2), symbol(%arg3)] : memref<64x512x28x28xf32>
    %1 = affine.load %arg9[symbol(%arg0), symbol(%arg5), symbol(%arg2) + symbol(%arg6), symbol(%arg3) + symbol(%arg7)] : memref<64x128x28x28xf32>
    %2 = affine.load %arg8[symbol(%arg1), symbol(%arg5), symbol(%arg6), symbol(%arg7)] : memref<512x128x1x1xf32>
    %3 = arith.mulf %1, %2 : f32
    %4 = arith.addf %0, %3 : f32
    affine.store %4, %arg4[symbol(%arg0), symbol(%arg1), symbol(%arg2), symbol(%arg3)] : memref<64x512x28x28xf32>
    return
  }
  func.func private @S91(%arg0: index, %arg1: index, %arg2: index, %arg3: index, %arg4: memref<64x512x28x28xf32>, %arg5: memref<64x512x28x28xf32>) attributes {scop.stmt} {
    %cst = arith.constant 0.000000e+00 : f32
    %cst_0 = arith.constant 1.000000e+00 : f32
    %cst_1 = arith.constant 1.000000e-05 : f64
    %0 = affine.load %arg5[symbol(%arg0), symbol(%arg1), symbol(%arg2), symbol(%arg3)] : memref<64x512x28x28xf32>
    %1 = arith.truncf %cst_1 : f64 to f32
    %2 = arith.addf %1, %cst_0 : f32
    %3 = math.rsqrt %2 : f32
    %4 = arith.mulf %0, %3 : f32
    %5 = arith.addf %4, %cst : f32
    affine.store %5, %arg4[symbol(%arg0), symbol(%arg1), symbol(%arg2), symbol(%arg3)] : memref<64x512x28x28xf32>
    return
  }
  func.func private @S92(%arg0: index, %arg1: index, %arg2: index, %arg3: index, %arg4: memref<64x512x28x28xf32>, %arg5: memref<64x512x28x28xf32>, %arg6: memref<64x512x28x28xf32>) attributes {scop.stmt} {
    %0 = affine.load %arg6[symbol(%arg0), symbol(%arg1), symbol(%arg2), symbol(%arg3)] : memref<64x512x28x28xf32>
    %1 = affine.load %arg5[symbol(%arg0), symbol(%arg1), symbol(%arg2), symbol(%arg3)] : memref<64x512x28x28xf32>
    %2 = arith.addf %0, %1 : f32
    affine.store %2, %arg4[symbol(%arg0), symbol(%arg1), symbol(%arg2), symbol(%arg3)] : memref<64x512x28x28xf32>
    return
  }
  func.func private @S93(%arg0: index, %arg1: index, %arg2: index, %arg3: index, %arg4: memref<64x512x28x28xf32>, %arg5: memref<64x512x28x28xf32>) attributes {scop.stmt} {
    %cst = arith.constant 0.000000e+00 : f32
    %0 = affine.load %arg5[symbol(%arg0), symbol(%arg1), symbol(%arg2), symbol(%arg3)] : memref<64x512x28x28xf32>
    %1 = arith.cmpf ugt, %0, %cst : f32
    %2 = arith.select %1, %0, %cst : f32
    affine.store %2, %arg4[symbol(%arg0), symbol(%arg1), symbol(%arg2), symbol(%arg3)] : memref<64x512x28x28xf32>
    return
  }
  func.func private @S94(%arg0: index, %arg1: index, %arg2: index, %arg3: index, %arg4: memref<64x256x28x28xf32>) attributes {scop.stmt} {
    %cst = arith.constant 0.000000e+00 : f32
    affine.store %cst, %arg4[symbol(%arg0), symbol(%arg1), symbol(%arg2), symbol(%arg3)] : memref<64x256x28x28xf32>
    return
  }
  func.func private @S95(%arg0: index, %arg1: index, %arg2: index, %arg3: index, %arg4: memref<64x256x28x28xf32>, %arg5: index, %arg6: index, %arg7: index, %arg8: memref<256x512x1x1xf32>, %arg9: memref<64x512x28x28xf32>) attributes {scop.stmt} {
    %0 = affine.load %arg4[symbol(%arg0), symbol(%arg1), symbol(%arg2), symbol(%arg3)] : memref<64x256x28x28xf32>
    %1 = affine.load %arg9[symbol(%arg0), symbol(%arg5), symbol(%arg2) + symbol(%arg6), symbol(%arg3) + symbol(%arg7)] : memref<64x512x28x28xf32>
    %2 = affine.load %arg8[symbol(%arg1), symbol(%arg5), symbol(%arg6), symbol(%arg7)] : memref<256x512x1x1xf32>
    %3 = arith.mulf %1, %2 : f32
    %4 = arith.addf %0, %3 : f32
    affine.store %4, %arg4[symbol(%arg0), symbol(%arg1), symbol(%arg2), symbol(%arg3)] : memref<64x256x28x28xf32>
    return
  }
  func.func private @S96(%arg0: index, %arg1: index, %arg2: index, %arg3: index, %arg4: memref<64x256x28x28xf32>, %arg5: memref<64x256x28x28xf32>) attributes {scop.stmt} {
    %cst = arith.constant 0.000000e+00 : f32
    %cst_0 = arith.constant 1.000000e+00 : f32
    %cst_1 = arith.constant 1.000000e-05 : f64
    %0 = affine.load %arg5[symbol(%arg0), symbol(%arg1), symbol(%arg2), symbol(%arg3)] : memref<64x256x28x28xf32>
    %1 = arith.truncf %cst_1 : f64 to f32
    %2 = arith.addf %1, %cst_0 : f32
    %3 = math.rsqrt %2 : f32
    %4 = arith.mulf %0, %3 : f32
    %5 = arith.addf %4, %cst : f32
    affine.store %5, %arg4[symbol(%arg0), symbol(%arg1), symbol(%arg2), symbol(%arg3)] : memref<64x256x28x28xf32>
    return
  }
  func.func private @S97(%arg0: index, %arg1: index, %arg2: index, %arg3: index, %arg4: memref<64x256x28x28xf32>, %arg5: memref<64x256x28x28xf32>) attributes {scop.stmt} {
    %cst = arith.constant 0.000000e+00 : f32
    %0 = affine.load %arg5[symbol(%arg0), symbol(%arg1), symbol(%arg2), symbol(%arg3)] : memref<64x256x28x28xf32>
    %1 = arith.cmpf ugt, %0, %cst : f32
    %2 = arith.select %1, %0, %cst : f32
    affine.store %2, %arg4[symbol(%arg0), symbol(%arg1), symbol(%arg2), symbol(%arg3)] : memref<64x256x28x28xf32>
    return
  }
  func.func private @S98(%arg0: index, %arg1: index, %arg2: index, %arg3: index, %arg4: memref<64x256x30x30xf32>) attributes {scop.stmt} {
    %cst = arith.constant 0.000000e+00 : f32
    affine.store %cst, %arg4[symbol(%arg0), symbol(%arg1), symbol(%arg2), symbol(%arg3)] : memref<64x256x30x30xf32>
    return
  }
  func.func private @S99(%arg0: index, %arg1: index, %arg2: index, %arg3: index, %arg4: memref<64x256x14x14xf32>) attributes {scop.stmt} {
    %cst = arith.constant 0.000000e+00 : f32
    affine.store %cst, %arg4[symbol(%arg0), symbol(%arg1), symbol(%arg2), symbol(%arg3)] : memref<64x256x14x14xf32>
    return
  }
  func.func private @S100(%arg0: index, %arg1: index, %arg2: index, %arg3: index, %arg4: memref<64x256x14x14xf32>, %arg5: index, %arg6: index, %arg7: index, %arg8: memref<256x256x3x3xf32>, %arg9: memref<64x256x30x30xf32>) attributes {scop.stmt} {
    %0 = affine.load %arg4[symbol(%arg0), symbol(%arg1), symbol(%arg2), symbol(%arg3)] : memref<64x256x14x14xf32>
    %1 = affine.load %arg9[symbol(%arg0), symbol(%arg5), symbol(%arg2) * 2 + symbol(%arg6), symbol(%arg3) * 2 + symbol(%arg7)] : memref<64x256x30x30xf32>
    %2 = affine.load %arg8[symbol(%arg1), symbol(%arg5), symbol(%arg6), symbol(%arg7)] : memref<256x256x3x3xf32>
    %3 = arith.mulf %1, %2 : f32
    %4 = arith.addf %0, %3 : f32
    affine.store %4, %arg4[symbol(%arg0), symbol(%arg1), symbol(%arg2), symbol(%arg3)] : memref<64x256x14x14xf32>
    return
  }
  func.func private @S101(%arg0: index, %arg1: index, %arg2: index, %arg3: index, %arg4: memref<64x256x14x14xf32>, %arg5: memref<64x256x14x14xf32>) attributes {scop.stmt} {
    %cst = arith.constant 0.000000e+00 : f32
    %cst_0 = arith.constant 1.000000e+00 : f32
    %cst_1 = arith.constant 1.000000e-05 : f64
    %0 = affine.load %arg5[symbol(%arg0), symbol(%arg1), symbol(%arg2), symbol(%arg3)] : memref<64x256x14x14xf32>
    %1 = arith.truncf %cst_1 : f64 to f32
    %2 = arith.addf %1, %cst_0 : f32
    %3 = math.rsqrt %2 : f32
    %4 = arith.mulf %0, %3 : f32
    %5 = arith.addf %4, %cst : f32
    affine.store %5, %arg4[symbol(%arg0), symbol(%arg1), symbol(%arg2), symbol(%arg3)] : memref<64x256x14x14xf32>
    return
  }
  func.func private @S102(%arg0: index, %arg1: index, %arg2: index, %arg3: index, %arg4: memref<64x256x14x14xf32>, %arg5: memref<64x256x14x14xf32>) attributes {scop.stmt} {
    %cst = arith.constant 0.000000e+00 : f32
    %0 = affine.load %arg5[symbol(%arg0), symbol(%arg1), symbol(%arg2), symbol(%arg3)] : memref<64x256x14x14xf32>
    %1 = arith.cmpf ugt, %0, %cst : f32
    %2 = arith.select %1, %0, %cst : f32
    affine.store %2, %arg4[symbol(%arg0), symbol(%arg1), symbol(%arg2), symbol(%arg3)] : memref<64x256x14x14xf32>
    return
  }
  func.func private @S103(%arg0: index, %arg1: index, %arg2: index, %arg3: index, %arg4: memref<64x1024x14x14xf32>) attributes {scop.stmt} {
    %cst = arith.constant 0.000000e+00 : f32
    affine.store %cst, %arg4[symbol(%arg0), symbol(%arg1), symbol(%arg2), symbol(%arg3)] : memref<64x1024x14x14xf32>
    return
  }
  func.func private @S104(%arg0: index, %arg1: index, %arg2: index, %arg3: index, %arg4: memref<64x1024x14x14xf32>, %arg5: index, %arg6: index, %arg7: index, %arg8: memref<1024x256x1x1xf32>, %arg9: memref<64x256x14x14xf32>) attributes {scop.stmt} {
    %0 = affine.load %arg4[symbol(%arg0), symbol(%arg1), symbol(%arg2), symbol(%arg3)] : memref<64x1024x14x14xf32>
    %1 = affine.load %arg9[symbol(%arg0), symbol(%arg5), symbol(%arg2) + symbol(%arg6), symbol(%arg3) + symbol(%arg7)] : memref<64x256x14x14xf32>
    %2 = affine.load %arg8[symbol(%arg1), symbol(%arg5), symbol(%arg6), symbol(%arg7)] : memref<1024x256x1x1xf32>
    %3 = arith.mulf %1, %2 : f32
    %4 = arith.addf %0, %3 : f32
    affine.store %4, %arg4[symbol(%arg0), symbol(%arg1), symbol(%arg2), symbol(%arg3)] : memref<64x1024x14x14xf32>
    return
  }
  func.func private @S105(%arg0: index, %arg1: index, %arg2: index, %arg3: index, %arg4: memref<64x1024x14x14xf32>, %arg5: memref<64x1024x14x14xf32>) attributes {scop.stmt} {
    %cst = arith.constant 0.000000e+00 : f32
    %cst_0 = arith.constant 1.000000e+00 : f32
    %cst_1 = arith.constant 1.000000e-05 : f64
    %0 = affine.load %arg5[symbol(%arg0), symbol(%arg1), symbol(%arg2), symbol(%arg3)] : memref<64x1024x14x14xf32>
    %1 = arith.truncf %cst_1 : f64 to f32
    %2 = arith.addf %1, %cst_0 : f32
    %3 = math.rsqrt %2 : f32
    %4 = arith.mulf %0, %3 : f32
    %5 = arith.addf %4, %cst : f32
    affine.store %5, %arg4[symbol(%arg0), symbol(%arg1), symbol(%arg2), symbol(%arg3)] : memref<64x1024x14x14xf32>
    return
  }
  func.func private @S106(%arg0: index, %arg1: index, %arg2: index, %arg3: index, %arg4: memref<64x1024x14x14xf32>, %arg5: index, %arg6: index, %arg7: index, %arg8: memref<1024x512x1x1xf32>, %arg9: memref<64x512x28x28xf32>) attributes {scop.stmt} {
    %0 = affine.load %arg4[symbol(%arg0), symbol(%arg1), symbol(%arg2), symbol(%arg3)] : memref<64x1024x14x14xf32>
    %1 = affine.load %arg9[symbol(%arg0), symbol(%arg5), symbol(%arg2) * 2 + symbol(%arg6), symbol(%arg3) * 2 + symbol(%arg7)] : memref<64x512x28x28xf32>
    %2 = affine.load %arg8[symbol(%arg1), symbol(%arg5), symbol(%arg6), symbol(%arg7)] : memref<1024x512x1x1xf32>
    %3 = arith.mulf %1, %2 : f32
    %4 = arith.addf %0, %3 : f32
    affine.store %4, %arg4[symbol(%arg0), symbol(%arg1), symbol(%arg2), symbol(%arg3)] : memref<64x1024x14x14xf32>
    return
  }
  func.func private @S107(%arg0: index, %arg1: index, %arg2: index, %arg3: index, %arg4: memref<64x1024x14x14xf32>, %arg5: memref<64x1024x14x14xf32>) attributes {scop.stmt} {
    %cst = arith.constant 0.000000e+00 : f32
    %cst_0 = arith.constant 1.000000e+00 : f32
    %cst_1 = arith.constant 1.000000e-05 : f64
    %0 = affine.load %arg5[symbol(%arg0), symbol(%arg1), symbol(%arg2), symbol(%arg3)] : memref<64x1024x14x14xf32>
    %1 = arith.truncf %cst_1 : f64 to f32
    %2 = arith.addf %1, %cst_0 : f32
    %3 = math.rsqrt %2 : f32
    %4 = arith.mulf %0, %3 : f32
    %5 = arith.addf %4, %cst : f32
    affine.store %5, %arg4[symbol(%arg0), symbol(%arg1), symbol(%arg2), symbol(%arg3)] : memref<64x1024x14x14xf32>
    return
  }
  func.func private @S108(%arg0: index, %arg1: index, %arg2: index, %arg3: index, %arg4: memref<64x1024x14x14xf32>, %arg5: memref<64x1024x14x14xf32>, %arg6: memref<64x1024x14x14xf32>) attributes {scop.stmt} {
    %0 = affine.load %arg6[symbol(%arg0), symbol(%arg1), symbol(%arg2), symbol(%arg3)] : memref<64x1024x14x14xf32>
    %1 = affine.load %arg5[symbol(%arg0), symbol(%arg1), symbol(%arg2), symbol(%arg3)] : memref<64x1024x14x14xf32>
    %2 = arith.addf %0, %1 : f32
    affine.store %2, %arg4[symbol(%arg0), symbol(%arg1), symbol(%arg2), symbol(%arg3)] : memref<64x1024x14x14xf32>
    return
  }
  func.func private @S109(%arg0: index, %arg1: index, %arg2: index, %arg3: index, %arg4: memref<64x1024x14x14xf32>, %arg5: memref<64x1024x14x14xf32>) attributes {scop.stmt} {
    %cst = arith.constant 0.000000e+00 : f32
    %0 = affine.load %arg5[symbol(%arg0), symbol(%arg1), symbol(%arg2), symbol(%arg3)] : memref<64x1024x14x14xf32>
    %1 = arith.cmpf ugt, %0, %cst : f32
    %2 = arith.select %1, %0, %cst : f32
    affine.store %2, %arg4[symbol(%arg0), symbol(%arg1), symbol(%arg2), symbol(%arg3)] : memref<64x1024x14x14xf32>
    return
  }
  func.func private @S110(%arg0: index, %arg1: index, %arg2: index, %arg3: index, %arg4: memref<64x256x14x14xf32>, %arg5: index, %arg6: index, %arg7: index, %arg8: memref<256x1024x1x1xf32>, %arg9: memref<64x1024x14x14xf32>) attributes {scop.stmt} {
    %0 = affine.load %arg4[symbol(%arg0), symbol(%arg1), symbol(%arg2), symbol(%arg3)] : memref<64x256x14x14xf32>
    %1 = affine.load %arg9[symbol(%arg0), symbol(%arg5), symbol(%arg2) + symbol(%arg6), symbol(%arg3) + symbol(%arg7)] : memref<64x1024x14x14xf32>
    %2 = affine.load %arg8[symbol(%arg1), symbol(%arg5), symbol(%arg6), symbol(%arg7)] : memref<256x1024x1x1xf32>
    %3 = arith.mulf %1, %2 : f32
    %4 = arith.addf %0, %3 : f32
    affine.store %4, %arg4[symbol(%arg0), symbol(%arg1), symbol(%arg2), symbol(%arg3)] : memref<64x256x14x14xf32>
    return
  }
  func.func private @S111(%arg0: index, %arg1: index, %arg2: index, %arg3: index, %arg4: memref<64x256x14x14xf32>, %arg5: memref<64x256x14x14xf32>) attributes {scop.stmt} {
    %cst = arith.constant 0.000000e+00 : f32
    %cst_0 = arith.constant 1.000000e+00 : f32
    %cst_1 = arith.constant 1.000000e-05 : f64
    %0 = affine.load %arg5[symbol(%arg0), symbol(%arg1), symbol(%arg2), symbol(%arg3)] : memref<64x256x14x14xf32>
    %1 = arith.truncf %cst_1 : f64 to f32
    %2 = arith.addf %1, %cst_0 : f32
    %3 = math.rsqrt %2 : f32
    %4 = arith.mulf %0, %3 : f32
    %5 = arith.addf %4, %cst : f32
    affine.store %5, %arg4[symbol(%arg0), symbol(%arg1), symbol(%arg2), symbol(%arg3)] : memref<64x256x14x14xf32>
    return
  }
  func.func private @S112(%arg0: index, %arg1: index, %arg2: index, %arg3: index, %arg4: memref<64x256x14x14xf32>, %arg5: memref<64x256x14x14xf32>) attributes {scop.stmt} {
    %cst = arith.constant 0.000000e+00 : f32
    %0 = affine.load %arg5[symbol(%arg0), symbol(%arg1), symbol(%arg2), symbol(%arg3)] : memref<64x256x14x14xf32>
    %1 = arith.cmpf ugt, %0, %cst : f32
    %2 = arith.select %1, %0, %cst : f32
    affine.store %2, %arg4[symbol(%arg0), symbol(%arg1), symbol(%arg2), symbol(%arg3)] : memref<64x256x14x14xf32>
    return
  }
  func.func private @S113(%arg0: index, %arg1: index, %arg2: index, %arg3: index, %arg4: memref<64x256x16x16xf32>) attributes {scop.stmt} {
    %cst = arith.constant 0.000000e+00 : f32
    affine.store %cst, %arg4[symbol(%arg0), symbol(%arg1), symbol(%arg2), symbol(%arg3)] : memref<64x256x16x16xf32>
    return
  }
  func.func private @S114(%arg0: index, %arg1: index, %arg2: index, %arg3: index, %arg4: memref<64x256x14x14xf32>, %arg5: index, %arg6: index, %arg7: index, %arg8: memref<256x256x3x3xf32>, %arg9: memref<64x256x16x16xf32>) attributes {scop.stmt} {
    %0 = affine.load %arg4[symbol(%arg0), symbol(%arg1), symbol(%arg2), symbol(%arg3)] : memref<64x256x14x14xf32>
    %1 = affine.load %arg9[symbol(%arg0), symbol(%arg5), symbol(%arg2) + symbol(%arg6), symbol(%arg3) + symbol(%arg7)] : memref<64x256x16x16xf32>
    %2 = affine.load %arg8[symbol(%arg1), symbol(%arg5), symbol(%arg6), symbol(%arg7)] : memref<256x256x3x3xf32>
    %3 = arith.mulf %1, %2 : f32
    %4 = arith.addf %0, %3 : f32
    affine.store %4, %arg4[symbol(%arg0), symbol(%arg1), symbol(%arg2), symbol(%arg3)] : memref<64x256x14x14xf32>
    return
  }
  func.func private @S115(%arg0: index, %arg1: index, %arg2: index, %arg3: index, %arg4: memref<64x256x14x14xf32>, %arg5: memref<64x256x14x14xf32>) attributes {scop.stmt} {
    %cst = arith.constant 0.000000e+00 : f32
    %cst_0 = arith.constant 1.000000e+00 : f32
    %cst_1 = arith.constant 1.000000e-05 : f64
    %0 = affine.load %arg5[symbol(%arg0), symbol(%arg1), symbol(%arg2), symbol(%arg3)] : memref<64x256x14x14xf32>
    %1 = arith.truncf %cst_1 : f64 to f32
    %2 = arith.addf %1, %cst_0 : f32
    %3 = math.rsqrt %2 : f32
    %4 = arith.mulf %0, %3 : f32
    %5 = arith.addf %4, %cst : f32
    affine.store %5, %arg4[symbol(%arg0), symbol(%arg1), symbol(%arg2), symbol(%arg3)] : memref<64x256x14x14xf32>
    return
  }
  func.func private @S116(%arg0: index, %arg1: index, %arg2: index, %arg3: index, %arg4: memref<64x256x14x14xf32>, %arg5: memref<64x256x14x14xf32>) attributes {scop.stmt} {
    %cst = arith.constant 0.000000e+00 : f32
    %0 = affine.load %arg5[symbol(%arg0), symbol(%arg1), symbol(%arg2), symbol(%arg3)] : memref<64x256x14x14xf32>
    %1 = arith.cmpf ugt, %0, %cst : f32
    %2 = arith.select %1, %0, %cst : f32
    affine.store %2, %arg4[symbol(%arg0), symbol(%arg1), symbol(%arg2), symbol(%arg3)] : memref<64x256x14x14xf32>
    return
  }
  func.func private @S117(%arg0: index, %arg1: index, %arg2: index, %arg3: index, %arg4: memref<64x1024x14x14xf32>, %arg5: index, %arg6: index, %arg7: index, %arg8: memref<1024x256x1x1xf32>, %arg9: memref<64x256x14x14xf32>) attributes {scop.stmt} {
    %0 = affine.load %arg4[symbol(%arg0), symbol(%arg1), symbol(%arg2), symbol(%arg3)] : memref<64x1024x14x14xf32>
    %1 = affine.load %arg9[symbol(%arg0), symbol(%arg5), symbol(%arg2) + symbol(%arg6), symbol(%arg3) + symbol(%arg7)] : memref<64x256x14x14xf32>
    %2 = affine.load %arg8[symbol(%arg1), symbol(%arg5), symbol(%arg6), symbol(%arg7)] : memref<1024x256x1x1xf32>
    %3 = arith.mulf %1, %2 : f32
    %4 = arith.addf %0, %3 : f32
    affine.store %4, %arg4[symbol(%arg0), symbol(%arg1), symbol(%arg2), symbol(%arg3)] : memref<64x1024x14x14xf32>
    return
  }
  func.func private @S118(%arg0: index, %arg1: index, %arg2: index, %arg3: index, %arg4: memref<64x1024x14x14xf32>, %arg5: memref<64x1024x14x14xf32>) attributes {scop.stmt} {
    %cst = arith.constant 0.000000e+00 : f32
    %cst_0 = arith.constant 1.000000e+00 : f32
    %cst_1 = arith.constant 1.000000e-05 : f64
    %0 = affine.load %arg5[symbol(%arg0), symbol(%arg1), symbol(%arg2), symbol(%arg3)] : memref<64x1024x14x14xf32>
    %1 = arith.truncf %cst_1 : f64 to f32
    %2 = arith.addf %1, %cst_0 : f32
    %3 = math.rsqrt %2 : f32
    %4 = arith.mulf %0, %3 : f32
    %5 = arith.addf %4, %cst : f32
    affine.store %5, %arg4[symbol(%arg0), symbol(%arg1), symbol(%arg2), symbol(%arg3)] : memref<64x1024x14x14xf32>
    return
  }
  func.func private @S119(%arg0: index, %arg1: index, %arg2: index, %arg3: index, %arg4: memref<64x1024x14x14xf32>, %arg5: memref<64x1024x14x14xf32>, %arg6: memref<64x1024x14x14xf32>) attributes {scop.stmt} {
    %0 = affine.load %arg6[symbol(%arg0), symbol(%arg1), symbol(%arg2), symbol(%arg3)] : memref<64x1024x14x14xf32>
    %1 = affine.load %arg5[symbol(%arg0), symbol(%arg1), symbol(%arg2), symbol(%arg3)] : memref<64x1024x14x14xf32>
    %2 = arith.addf %0, %1 : f32
    affine.store %2, %arg4[symbol(%arg0), symbol(%arg1), symbol(%arg2), symbol(%arg3)] : memref<64x1024x14x14xf32>
    return
  }
  func.func private @S120(%arg0: index, %arg1: index, %arg2: index, %arg3: index, %arg4: memref<64x1024x14x14xf32>, %arg5: memref<64x1024x14x14xf32>) attributes {scop.stmt} {
    %cst = arith.constant 0.000000e+00 : f32
    %0 = affine.load %arg5[symbol(%arg0), symbol(%arg1), symbol(%arg2), symbol(%arg3)] : memref<64x1024x14x14xf32>
    %1 = arith.cmpf ugt, %0, %cst : f32
    %2 = arith.select %1, %0, %cst : f32
    affine.store %2, %arg4[symbol(%arg0), symbol(%arg1), symbol(%arg2), symbol(%arg3)] : memref<64x1024x14x14xf32>
    return
  }
  func.func private @S121(%arg0: index, %arg1: index, %arg2: index, %arg3: index, %arg4: memref<64x256x14x14xf32>, %arg5: index, %arg6: index, %arg7: index, %arg8: memref<256x1024x1x1xf32>, %arg9: memref<64x1024x14x14xf32>) attributes {scop.stmt} {
    %0 = affine.load %arg4[symbol(%arg0), symbol(%arg1), symbol(%arg2), symbol(%arg3)] : memref<64x256x14x14xf32>
    %1 = affine.load %arg9[symbol(%arg0), symbol(%arg5), symbol(%arg2) + symbol(%arg6), symbol(%arg3) + symbol(%arg7)] : memref<64x1024x14x14xf32>
    %2 = affine.load %arg8[symbol(%arg1), symbol(%arg5), symbol(%arg6), symbol(%arg7)] : memref<256x1024x1x1xf32>
    %3 = arith.mulf %1, %2 : f32
    %4 = arith.addf %0, %3 : f32
    affine.store %4, %arg4[symbol(%arg0), symbol(%arg1), symbol(%arg2), symbol(%arg3)] : memref<64x256x14x14xf32>
    return
  }
  func.func private @S122(%arg0: index, %arg1: index, %arg2: index, %arg3: index, %arg4: memref<64x256x14x14xf32>, %arg5: memref<64x256x14x14xf32>) attributes {scop.stmt} {
    %cst = arith.constant 0.000000e+00 : f32
    %cst_0 = arith.constant 1.000000e+00 : f32
    %cst_1 = arith.constant 1.000000e-05 : f64
    %0 = affine.load %arg5[symbol(%arg0), symbol(%arg1), symbol(%arg2), symbol(%arg3)] : memref<64x256x14x14xf32>
    %1 = arith.truncf %cst_1 : f64 to f32
    %2 = arith.addf %1, %cst_0 : f32
    %3 = math.rsqrt %2 : f32
    %4 = arith.mulf %0, %3 : f32
    %5 = arith.addf %4, %cst : f32
    affine.store %5, %arg4[symbol(%arg0), symbol(%arg1), symbol(%arg2), symbol(%arg3)] : memref<64x256x14x14xf32>
    return
  }
  func.func private @S123(%arg0: index, %arg1: index, %arg2: index, %arg3: index, %arg4: memref<64x256x14x14xf32>, %arg5: memref<64x256x14x14xf32>) attributes {scop.stmt} {
    %cst = arith.constant 0.000000e+00 : f32
    %0 = affine.load %arg5[symbol(%arg0), symbol(%arg1), symbol(%arg2), symbol(%arg3)] : memref<64x256x14x14xf32>
    %1 = arith.cmpf ugt, %0, %cst : f32
    %2 = arith.select %1, %0, %cst : f32
    affine.store %2, %arg4[symbol(%arg0), symbol(%arg1), symbol(%arg2), symbol(%arg3)] : memref<64x256x14x14xf32>
    return
  }
  func.func private @S124(%arg0: index, %arg1: index, %arg2: index, %arg3: index, %arg4: memref<64x256x16x16xf32>) attributes {scop.stmt} {
    %cst = arith.constant 0.000000e+00 : f32
    affine.store %cst, %arg4[symbol(%arg0), symbol(%arg1), symbol(%arg2), symbol(%arg3)] : memref<64x256x16x16xf32>
    return
  }
  func.func private @S125(%arg0: index, %arg1: index, %arg2: index, %arg3: index, %arg4: memref<64x256x14x14xf32>, %arg5: index, %arg6: index, %arg7: index, %arg8: memref<256x256x3x3xf32>, %arg9: memref<64x256x16x16xf32>) attributes {scop.stmt} {
    %0 = affine.load %arg4[symbol(%arg0), symbol(%arg1), symbol(%arg2), symbol(%arg3)] : memref<64x256x14x14xf32>
    %1 = affine.load %arg9[symbol(%arg0), symbol(%arg5), symbol(%arg2) + symbol(%arg6), symbol(%arg3) + symbol(%arg7)] : memref<64x256x16x16xf32>
    %2 = affine.load %arg8[symbol(%arg1), symbol(%arg5), symbol(%arg6), symbol(%arg7)] : memref<256x256x3x3xf32>
    %3 = arith.mulf %1, %2 : f32
    %4 = arith.addf %0, %3 : f32
    affine.store %4, %arg4[symbol(%arg0), symbol(%arg1), symbol(%arg2), symbol(%arg3)] : memref<64x256x14x14xf32>
    return
  }
  func.func private @S126(%arg0: index, %arg1: index, %arg2: index, %arg3: index, %arg4: memref<64x256x14x14xf32>, %arg5: memref<64x256x14x14xf32>) attributes {scop.stmt} {
    %cst = arith.constant 0.000000e+00 : f32
    %cst_0 = arith.constant 1.000000e+00 : f32
    %cst_1 = arith.constant 1.000000e-05 : f64
    %0 = affine.load %arg5[symbol(%arg0), symbol(%arg1), symbol(%arg2), symbol(%arg3)] : memref<64x256x14x14xf32>
    %1 = arith.truncf %cst_1 : f64 to f32
    %2 = arith.addf %1, %cst_0 : f32
    %3 = math.rsqrt %2 : f32
    %4 = arith.mulf %0, %3 : f32
    %5 = arith.addf %4, %cst : f32
    affine.store %5, %arg4[symbol(%arg0), symbol(%arg1), symbol(%arg2), symbol(%arg3)] : memref<64x256x14x14xf32>
    return
  }
  func.func private @S127(%arg0: index, %arg1: index, %arg2: index, %arg3: index, %arg4: memref<64x256x14x14xf32>, %arg5: memref<64x256x14x14xf32>) attributes {scop.stmt} {
    %cst = arith.constant 0.000000e+00 : f32
    %0 = affine.load %arg5[symbol(%arg0), symbol(%arg1), symbol(%arg2), symbol(%arg3)] : memref<64x256x14x14xf32>
    %1 = arith.cmpf ugt, %0, %cst : f32
    %2 = arith.select %1, %0, %cst : f32
    affine.store %2, %arg4[symbol(%arg0), symbol(%arg1), symbol(%arg2), symbol(%arg3)] : memref<64x256x14x14xf32>
    return
  }
  func.func private @S128(%arg0: index, %arg1: index, %arg2: index, %arg3: index, %arg4: memref<64x1024x14x14xf32>, %arg5: index, %arg6: index, %arg7: index, %arg8: memref<1024x256x1x1xf32>, %arg9: memref<64x256x14x14xf32>) attributes {scop.stmt} {
    %0 = affine.load %arg4[symbol(%arg0), symbol(%arg1), symbol(%arg2), symbol(%arg3)] : memref<64x1024x14x14xf32>
    %1 = affine.load %arg9[symbol(%arg0), symbol(%arg5), symbol(%arg2) + symbol(%arg6), symbol(%arg3) + symbol(%arg7)] : memref<64x256x14x14xf32>
    %2 = affine.load %arg8[symbol(%arg1), symbol(%arg5), symbol(%arg6), symbol(%arg7)] : memref<1024x256x1x1xf32>
    %3 = arith.mulf %1, %2 : f32
    %4 = arith.addf %0, %3 : f32
    affine.store %4, %arg4[symbol(%arg0), symbol(%arg1), symbol(%arg2), symbol(%arg3)] : memref<64x1024x14x14xf32>
    return
  }
  func.func private @S129(%arg0: index, %arg1: index, %arg2: index, %arg3: index, %arg4: memref<64x1024x14x14xf32>, %arg5: memref<64x1024x14x14xf32>) attributes {scop.stmt} {
    %cst = arith.constant 0.000000e+00 : f32
    %cst_0 = arith.constant 1.000000e+00 : f32
    %cst_1 = arith.constant 1.000000e-05 : f64
    %0 = affine.load %arg5[symbol(%arg0), symbol(%arg1), symbol(%arg2), symbol(%arg3)] : memref<64x1024x14x14xf32>
    %1 = arith.truncf %cst_1 : f64 to f32
    %2 = arith.addf %1, %cst_0 : f32
    %3 = math.rsqrt %2 : f32
    %4 = arith.mulf %0, %3 : f32
    %5 = arith.addf %4, %cst : f32
    affine.store %5, %arg4[symbol(%arg0), symbol(%arg1), symbol(%arg2), symbol(%arg3)] : memref<64x1024x14x14xf32>
    return
  }
  func.func private @S130(%arg0: index, %arg1: index, %arg2: index, %arg3: index, %arg4: memref<64x1024x14x14xf32>, %arg5: memref<64x1024x14x14xf32>, %arg6: memref<64x1024x14x14xf32>) attributes {scop.stmt} {
    %0 = affine.load %arg6[symbol(%arg0), symbol(%arg1), symbol(%arg2), symbol(%arg3)] : memref<64x1024x14x14xf32>
    %1 = affine.load %arg5[symbol(%arg0), symbol(%arg1), symbol(%arg2), symbol(%arg3)] : memref<64x1024x14x14xf32>
    %2 = arith.addf %0, %1 : f32
    affine.store %2, %arg4[symbol(%arg0), symbol(%arg1), symbol(%arg2), symbol(%arg3)] : memref<64x1024x14x14xf32>
    return
  }
  func.func private @S131(%arg0: index, %arg1: index, %arg2: index, %arg3: index, %arg4: memref<64x1024x14x14xf32>, %arg5: memref<64x1024x14x14xf32>) attributes {scop.stmt} {
    %cst = arith.constant 0.000000e+00 : f32
    %0 = affine.load %arg5[symbol(%arg0), symbol(%arg1), symbol(%arg2), symbol(%arg3)] : memref<64x1024x14x14xf32>
    %1 = arith.cmpf ugt, %0, %cst : f32
    %2 = arith.select %1, %0, %cst : f32
    affine.store %2, %arg4[symbol(%arg0), symbol(%arg1), symbol(%arg2), symbol(%arg3)] : memref<64x1024x14x14xf32>
    return
  }
  func.func private @S132(%arg0: index, %arg1: index, %arg2: index, %arg3: index, %arg4: memref<64x256x14x14xf32>, %arg5: index, %arg6: index, %arg7: index, %arg8: memref<256x1024x1x1xf32>, %arg9: memref<64x1024x14x14xf32>) attributes {scop.stmt} {
    %0 = affine.load %arg4[symbol(%arg0), symbol(%arg1), symbol(%arg2), symbol(%arg3)] : memref<64x256x14x14xf32>
    %1 = affine.load %arg9[symbol(%arg0), symbol(%arg5), symbol(%arg2) + symbol(%arg6), symbol(%arg3) + symbol(%arg7)] : memref<64x1024x14x14xf32>
    %2 = affine.load %arg8[symbol(%arg1), symbol(%arg5), symbol(%arg6), symbol(%arg7)] : memref<256x1024x1x1xf32>
    %3 = arith.mulf %1, %2 : f32
    %4 = arith.addf %0, %3 : f32
    affine.store %4, %arg4[symbol(%arg0), symbol(%arg1), symbol(%arg2), symbol(%arg3)] : memref<64x256x14x14xf32>
    return
  }
  func.func private @S133(%arg0: index, %arg1: index, %arg2: index, %arg3: index, %arg4: memref<64x256x14x14xf32>, %arg5: memref<64x256x14x14xf32>) attributes {scop.stmt} {
    %cst = arith.constant 0.000000e+00 : f32
    %cst_0 = arith.constant 1.000000e+00 : f32
    %cst_1 = arith.constant 1.000000e-05 : f64
    %0 = affine.load %arg5[symbol(%arg0), symbol(%arg1), symbol(%arg2), symbol(%arg3)] : memref<64x256x14x14xf32>
    %1 = arith.truncf %cst_1 : f64 to f32
    %2 = arith.addf %1, %cst_0 : f32
    %3 = math.rsqrt %2 : f32
    %4 = arith.mulf %0, %3 : f32
    %5 = arith.addf %4, %cst : f32
    affine.store %5, %arg4[symbol(%arg0), symbol(%arg1), symbol(%arg2), symbol(%arg3)] : memref<64x256x14x14xf32>
    return
  }
  func.func private @S134(%arg0: index, %arg1: index, %arg2: index, %arg3: index, %arg4: memref<64x256x14x14xf32>, %arg5: memref<64x256x14x14xf32>) attributes {scop.stmt} {
    %cst = arith.constant 0.000000e+00 : f32
    %0 = affine.load %arg5[symbol(%arg0), symbol(%arg1), symbol(%arg2), symbol(%arg3)] : memref<64x256x14x14xf32>
    %1 = arith.cmpf ugt, %0, %cst : f32
    %2 = arith.select %1, %0, %cst : f32
    affine.store %2, %arg4[symbol(%arg0), symbol(%arg1), symbol(%arg2), symbol(%arg3)] : memref<64x256x14x14xf32>
    return
  }
  func.func private @S135(%arg0: index, %arg1: index, %arg2: index, %arg3: index, %arg4: memref<64x256x16x16xf32>) attributes {scop.stmt} {
    %cst = arith.constant 0.000000e+00 : f32
    affine.store %cst, %arg4[symbol(%arg0), symbol(%arg1), symbol(%arg2), symbol(%arg3)] : memref<64x256x16x16xf32>
    return
  }
  func.func private @S136(%arg0: index, %arg1: index, %arg2: index, %arg3: index, %arg4: memref<64x256x14x14xf32>, %arg5: index, %arg6: index, %arg7: index, %arg8: memref<256x256x3x3xf32>, %arg9: memref<64x256x16x16xf32>) attributes {scop.stmt} {
    %0 = affine.load %arg4[symbol(%arg0), symbol(%arg1), symbol(%arg2), symbol(%arg3)] : memref<64x256x14x14xf32>
    %1 = affine.load %arg9[symbol(%arg0), symbol(%arg5), symbol(%arg2) + symbol(%arg6), symbol(%arg3) + symbol(%arg7)] : memref<64x256x16x16xf32>
    %2 = affine.load %arg8[symbol(%arg1), symbol(%arg5), symbol(%arg6), symbol(%arg7)] : memref<256x256x3x3xf32>
    %3 = arith.mulf %1, %2 : f32
    %4 = arith.addf %0, %3 : f32
    affine.store %4, %arg4[symbol(%arg0), symbol(%arg1), symbol(%arg2), symbol(%arg3)] : memref<64x256x14x14xf32>
    return
  }
  func.func private @S137(%arg0: index, %arg1: index, %arg2: index, %arg3: index, %arg4: memref<64x256x14x14xf32>, %arg5: memref<64x256x14x14xf32>) attributes {scop.stmt} {
    %cst = arith.constant 0.000000e+00 : f32
    %cst_0 = arith.constant 1.000000e+00 : f32
    %cst_1 = arith.constant 1.000000e-05 : f64
    %0 = affine.load %arg5[symbol(%arg0), symbol(%arg1), symbol(%arg2), symbol(%arg3)] : memref<64x256x14x14xf32>
    %1 = arith.truncf %cst_1 : f64 to f32
    %2 = arith.addf %1, %cst_0 : f32
    %3 = math.rsqrt %2 : f32
    %4 = arith.mulf %0, %3 : f32
    %5 = arith.addf %4, %cst : f32
    affine.store %5, %arg4[symbol(%arg0), symbol(%arg1), symbol(%arg2), symbol(%arg3)] : memref<64x256x14x14xf32>
    return
  }
  func.func private @S138(%arg0: index, %arg1: index, %arg2: index, %arg3: index, %arg4: memref<64x256x14x14xf32>, %arg5: memref<64x256x14x14xf32>) attributes {scop.stmt} {
    %cst = arith.constant 0.000000e+00 : f32
    %0 = affine.load %arg5[symbol(%arg0), symbol(%arg1), symbol(%arg2), symbol(%arg3)] : memref<64x256x14x14xf32>
    %1 = arith.cmpf ugt, %0, %cst : f32
    %2 = arith.select %1, %0, %cst : f32
    affine.store %2, %arg4[symbol(%arg0), symbol(%arg1), symbol(%arg2), symbol(%arg3)] : memref<64x256x14x14xf32>
    return
  }
  func.func private @S139(%arg0: index, %arg1: index, %arg2: index, %arg3: index, %arg4: memref<64x1024x14x14xf32>, %arg5: index, %arg6: index, %arg7: index, %arg8: memref<1024x256x1x1xf32>, %arg9: memref<64x256x14x14xf32>) attributes {scop.stmt} {
    %0 = affine.load %arg4[symbol(%arg0), symbol(%arg1), symbol(%arg2), symbol(%arg3)] : memref<64x1024x14x14xf32>
    %1 = affine.load %arg9[symbol(%arg0), symbol(%arg5), symbol(%arg2) + symbol(%arg6), symbol(%arg3) + symbol(%arg7)] : memref<64x256x14x14xf32>
    %2 = affine.load %arg8[symbol(%arg1), symbol(%arg5), symbol(%arg6), symbol(%arg7)] : memref<1024x256x1x1xf32>
    %3 = arith.mulf %1, %2 : f32
    %4 = arith.addf %0, %3 : f32
    affine.store %4, %arg4[symbol(%arg0), symbol(%arg1), symbol(%arg2), symbol(%arg3)] : memref<64x1024x14x14xf32>
    return
  }
  func.func private @S140(%arg0: index, %arg1: index, %arg2: index, %arg3: index, %arg4: memref<64x1024x14x14xf32>, %arg5: memref<64x1024x14x14xf32>) attributes {scop.stmt} {
    %cst = arith.constant 0.000000e+00 : f32
    %cst_0 = arith.constant 1.000000e+00 : f32
    %cst_1 = arith.constant 1.000000e-05 : f64
    %0 = affine.load %arg5[symbol(%arg0), symbol(%arg1), symbol(%arg2), symbol(%arg3)] : memref<64x1024x14x14xf32>
    %1 = arith.truncf %cst_1 : f64 to f32
    %2 = arith.addf %1, %cst_0 : f32
    %3 = math.rsqrt %2 : f32
    %4 = arith.mulf %0, %3 : f32
    %5 = arith.addf %4, %cst : f32
    affine.store %5, %arg4[symbol(%arg0), symbol(%arg1), symbol(%arg2), symbol(%arg3)] : memref<64x1024x14x14xf32>
    return
  }
  func.func private @S141(%arg0: index, %arg1: index, %arg2: index, %arg3: index, %arg4: memref<64x1024x14x14xf32>, %arg5: memref<64x1024x14x14xf32>, %arg6: memref<64x1024x14x14xf32>) attributes {scop.stmt} {
    %0 = affine.load %arg6[symbol(%arg0), symbol(%arg1), symbol(%arg2), symbol(%arg3)] : memref<64x1024x14x14xf32>
    %1 = affine.load %arg5[symbol(%arg0), symbol(%arg1), symbol(%arg2), symbol(%arg3)] : memref<64x1024x14x14xf32>
    %2 = arith.addf %0, %1 : f32
    affine.store %2, %arg4[symbol(%arg0), symbol(%arg1), symbol(%arg2), symbol(%arg3)] : memref<64x1024x14x14xf32>
    return
  }
  func.func private @S142(%arg0: index, %arg1: index, %arg2: index, %arg3: index, %arg4: memref<64x1024x14x14xf32>, %arg5: memref<64x1024x14x14xf32>) attributes {scop.stmt} {
    %cst = arith.constant 0.000000e+00 : f32
    %0 = affine.load %arg5[symbol(%arg0), symbol(%arg1), symbol(%arg2), symbol(%arg3)] : memref<64x1024x14x14xf32>
    %1 = arith.cmpf ugt, %0, %cst : f32
    %2 = arith.select %1, %0, %cst : f32
    affine.store %2, %arg4[symbol(%arg0), symbol(%arg1), symbol(%arg2), symbol(%arg3)] : memref<64x1024x14x14xf32>
    return
  }
  func.func private @S143(%arg0: index, %arg1: index, %arg2: index, %arg3: index, %arg4: memref<64x256x14x14xf32>, %arg5: index, %arg6: index, %arg7: index, %arg8: memref<256x1024x1x1xf32>, %arg9: memref<64x1024x14x14xf32>) attributes {scop.stmt} {
    %0 = affine.load %arg4[symbol(%arg0), symbol(%arg1), symbol(%arg2), symbol(%arg3)] : memref<64x256x14x14xf32>
    %1 = affine.load %arg9[symbol(%arg0), symbol(%arg5), symbol(%arg2) + symbol(%arg6), symbol(%arg3) + symbol(%arg7)] : memref<64x1024x14x14xf32>
    %2 = affine.load %arg8[symbol(%arg1), symbol(%arg5), symbol(%arg6), symbol(%arg7)] : memref<256x1024x1x1xf32>
    %3 = arith.mulf %1, %2 : f32
    %4 = arith.addf %0, %3 : f32
    affine.store %4, %arg4[symbol(%arg0), symbol(%arg1), symbol(%arg2), symbol(%arg3)] : memref<64x256x14x14xf32>
    return
  }
  func.func private @S144(%arg0: index, %arg1: index, %arg2: index, %arg3: index, %arg4: memref<64x256x14x14xf32>, %arg5: memref<64x256x14x14xf32>) attributes {scop.stmt} {
    %cst = arith.constant 0.000000e+00 : f32
    %cst_0 = arith.constant 1.000000e+00 : f32
    %cst_1 = arith.constant 1.000000e-05 : f64
    %0 = affine.load %arg5[symbol(%arg0), symbol(%arg1), symbol(%arg2), symbol(%arg3)] : memref<64x256x14x14xf32>
    %1 = arith.truncf %cst_1 : f64 to f32
    %2 = arith.addf %1, %cst_0 : f32
    %3 = math.rsqrt %2 : f32
    %4 = arith.mulf %0, %3 : f32
    %5 = arith.addf %4, %cst : f32
    affine.store %5, %arg4[symbol(%arg0), symbol(%arg1), symbol(%arg2), symbol(%arg3)] : memref<64x256x14x14xf32>
    return
  }
  func.func private @S145(%arg0: index, %arg1: index, %arg2: index, %arg3: index, %arg4: memref<64x256x14x14xf32>, %arg5: memref<64x256x14x14xf32>) attributes {scop.stmt} {
    %cst = arith.constant 0.000000e+00 : f32
    %0 = affine.load %arg5[symbol(%arg0), symbol(%arg1), symbol(%arg2), symbol(%arg3)] : memref<64x256x14x14xf32>
    %1 = arith.cmpf ugt, %0, %cst : f32
    %2 = arith.select %1, %0, %cst : f32
    affine.store %2, %arg4[symbol(%arg0), symbol(%arg1), symbol(%arg2), symbol(%arg3)] : memref<64x256x14x14xf32>
    return
  }
  func.func private @S146(%arg0: index, %arg1: index, %arg2: index, %arg3: index, %arg4: memref<64x256x16x16xf32>) attributes {scop.stmt} {
    %cst = arith.constant 0.000000e+00 : f32
    affine.store %cst, %arg4[symbol(%arg0), symbol(%arg1), symbol(%arg2), symbol(%arg3)] : memref<64x256x16x16xf32>
    return
  }
  func.func private @S147(%arg0: index, %arg1: index, %arg2: index, %arg3: index, %arg4: memref<64x256x14x14xf32>, %arg5: index, %arg6: index, %arg7: index, %arg8: memref<256x256x3x3xf32>, %arg9: memref<64x256x16x16xf32>) attributes {scop.stmt} {
    %0 = affine.load %arg4[symbol(%arg0), symbol(%arg1), symbol(%arg2), symbol(%arg3)] : memref<64x256x14x14xf32>
    %1 = affine.load %arg9[symbol(%arg0), symbol(%arg5), symbol(%arg2) + symbol(%arg6), symbol(%arg3) + symbol(%arg7)] : memref<64x256x16x16xf32>
    %2 = affine.load %arg8[symbol(%arg1), symbol(%arg5), symbol(%arg6), symbol(%arg7)] : memref<256x256x3x3xf32>
    %3 = arith.mulf %1, %2 : f32
    %4 = arith.addf %0, %3 : f32
    affine.store %4, %arg4[symbol(%arg0), symbol(%arg1), symbol(%arg2), symbol(%arg3)] : memref<64x256x14x14xf32>
    return
  }
  func.func private @S148(%arg0: index, %arg1: index, %arg2: index, %arg3: index, %arg4: memref<64x256x14x14xf32>, %arg5: memref<64x256x14x14xf32>) attributes {scop.stmt} {
    %cst = arith.constant 0.000000e+00 : f32
    %cst_0 = arith.constant 1.000000e+00 : f32
    %cst_1 = arith.constant 1.000000e-05 : f64
    %0 = affine.load %arg5[symbol(%arg0), symbol(%arg1), symbol(%arg2), symbol(%arg3)] : memref<64x256x14x14xf32>
    %1 = arith.truncf %cst_1 : f64 to f32
    %2 = arith.addf %1, %cst_0 : f32
    %3 = math.rsqrt %2 : f32
    %4 = arith.mulf %0, %3 : f32
    %5 = arith.addf %4, %cst : f32
    affine.store %5, %arg4[symbol(%arg0), symbol(%arg1), symbol(%arg2), symbol(%arg3)] : memref<64x256x14x14xf32>
    return
  }
  func.func private @S149(%arg0: index, %arg1: index, %arg2: index, %arg3: index, %arg4: memref<64x256x14x14xf32>, %arg5: memref<64x256x14x14xf32>) attributes {scop.stmt} {
    %cst = arith.constant 0.000000e+00 : f32
    %0 = affine.load %arg5[symbol(%arg0), symbol(%arg1), symbol(%arg2), symbol(%arg3)] : memref<64x256x14x14xf32>
    %1 = arith.cmpf ugt, %0, %cst : f32
    %2 = arith.select %1, %0, %cst : f32
    affine.store %2, %arg4[symbol(%arg0), symbol(%arg1), symbol(%arg2), symbol(%arg3)] : memref<64x256x14x14xf32>
    return
  }
  func.func private @S150(%arg0: index, %arg1: index, %arg2: index, %arg3: index, %arg4: memref<64x1024x14x14xf32>, %arg5: index, %arg6: index, %arg7: index, %arg8: memref<1024x256x1x1xf32>, %arg9: memref<64x256x14x14xf32>) attributes {scop.stmt} {
    %0 = affine.load %arg4[symbol(%arg0), symbol(%arg1), symbol(%arg2), symbol(%arg3)] : memref<64x1024x14x14xf32>
    %1 = affine.load %arg9[symbol(%arg0), symbol(%arg5), symbol(%arg2) + symbol(%arg6), symbol(%arg3) + symbol(%arg7)] : memref<64x256x14x14xf32>
    %2 = affine.load %arg8[symbol(%arg1), symbol(%arg5), symbol(%arg6), symbol(%arg7)] : memref<1024x256x1x1xf32>
    %3 = arith.mulf %1, %2 : f32
    %4 = arith.addf %0, %3 : f32
    affine.store %4, %arg4[symbol(%arg0), symbol(%arg1), symbol(%arg2), symbol(%arg3)] : memref<64x1024x14x14xf32>
    return
  }
  func.func private @S151(%arg0: index, %arg1: index, %arg2: index, %arg3: index, %arg4: memref<64x1024x14x14xf32>, %arg5: memref<64x1024x14x14xf32>) attributes {scop.stmt} {
    %cst = arith.constant 0.000000e+00 : f32
    %cst_0 = arith.constant 1.000000e+00 : f32
    %cst_1 = arith.constant 1.000000e-05 : f64
    %0 = affine.load %arg5[symbol(%arg0), symbol(%arg1), symbol(%arg2), symbol(%arg3)] : memref<64x1024x14x14xf32>
    %1 = arith.truncf %cst_1 : f64 to f32
    %2 = arith.addf %1, %cst_0 : f32
    %3 = math.rsqrt %2 : f32
    %4 = arith.mulf %0, %3 : f32
    %5 = arith.addf %4, %cst : f32
    affine.store %5, %arg4[symbol(%arg0), symbol(%arg1), symbol(%arg2), symbol(%arg3)] : memref<64x1024x14x14xf32>
    return
  }
  func.func private @S152(%arg0: index, %arg1: index, %arg2: index, %arg3: index, %arg4: memref<64x1024x14x14xf32>, %arg5: memref<64x1024x14x14xf32>, %arg6: memref<64x1024x14x14xf32>) attributes {scop.stmt} {
    %0 = affine.load %arg6[symbol(%arg0), symbol(%arg1), symbol(%arg2), symbol(%arg3)] : memref<64x1024x14x14xf32>
    %1 = affine.load %arg5[symbol(%arg0), symbol(%arg1), symbol(%arg2), symbol(%arg3)] : memref<64x1024x14x14xf32>
    %2 = arith.addf %0, %1 : f32
    affine.store %2, %arg4[symbol(%arg0), symbol(%arg1), symbol(%arg2), symbol(%arg3)] : memref<64x1024x14x14xf32>
    return
  }
  func.func private @S153(%arg0: index, %arg1: index, %arg2: index, %arg3: index, %arg4: memref<64x1024x14x14xf32>, %arg5: memref<64x1024x14x14xf32>) attributes {scop.stmt} {
    %cst = arith.constant 0.000000e+00 : f32
    %0 = affine.load %arg5[symbol(%arg0), symbol(%arg1), symbol(%arg2), symbol(%arg3)] : memref<64x1024x14x14xf32>
    %1 = arith.cmpf ugt, %0, %cst : f32
    %2 = arith.select %1, %0, %cst : f32
    affine.store %2, %arg4[symbol(%arg0), symbol(%arg1), symbol(%arg2), symbol(%arg3)] : memref<64x1024x14x14xf32>
    return
  }
  func.func private @S154(%arg0: index, %arg1: index, %arg2: index, %arg3: index, %arg4: memref<64x256x14x14xf32>, %arg5: index, %arg6: index, %arg7: index, %arg8: memref<256x1024x1x1xf32>, %arg9: memref<64x1024x14x14xf32>) attributes {scop.stmt} {
    %0 = affine.load %arg4[symbol(%arg0), symbol(%arg1), symbol(%arg2), symbol(%arg3)] : memref<64x256x14x14xf32>
    %1 = affine.load %arg9[symbol(%arg0), symbol(%arg5), symbol(%arg2) + symbol(%arg6), symbol(%arg3) + symbol(%arg7)] : memref<64x1024x14x14xf32>
    %2 = affine.load %arg8[symbol(%arg1), symbol(%arg5), symbol(%arg6), symbol(%arg7)] : memref<256x1024x1x1xf32>
    %3 = arith.mulf %1, %2 : f32
    %4 = arith.addf %0, %3 : f32
    affine.store %4, %arg4[symbol(%arg0), symbol(%arg1), symbol(%arg2), symbol(%arg3)] : memref<64x256x14x14xf32>
    return
  }
  func.func private @S155(%arg0: index, %arg1: index, %arg2: index, %arg3: index, %arg4: memref<64x256x14x14xf32>, %arg5: memref<64x256x14x14xf32>) attributes {scop.stmt} {
    %cst = arith.constant 0.000000e+00 : f32
    %cst_0 = arith.constant 1.000000e+00 : f32
    %cst_1 = arith.constant 1.000000e-05 : f64
    %0 = affine.load %arg5[symbol(%arg0), symbol(%arg1), symbol(%arg2), symbol(%arg3)] : memref<64x256x14x14xf32>
    %1 = arith.truncf %cst_1 : f64 to f32
    %2 = arith.addf %1, %cst_0 : f32
    %3 = math.rsqrt %2 : f32
    %4 = arith.mulf %0, %3 : f32
    %5 = arith.addf %4, %cst : f32
    affine.store %5, %arg4[symbol(%arg0), symbol(%arg1), symbol(%arg2), symbol(%arg3)] : memref<64x256x14x14xf32>
    return
  }
  func.func private @S156(%arg0: index, %arg1: index, %arg2: index, %arg3: index, %arg4: memref<64x256x14x14xf32>, %arg5: memref<64x256x14x14xf32>) attributes {scop.stmt} {
    %cst = arith.constant 0.000000e+00 : f32
    %0 = affine.load %arg5[symbol(%arg0), symbol(%arg1), symbol(%arg2), symbol(%arg3)] : memref<64x256x14x14xf32>
    %1 = arith.cmpf ugt, %0, %cst : f32
    %2 = arith.select %1, %0, %cst : f32
    affine.store %2, %arg4[symbol(%arg0), symbol(%arg1), symbol(%arg2), symbol(%arg3)] : memref<64x256x14x14xf32>
    return
  }
  func.func private @S157(%arg0: index, %arg1: index, %arg2: index, %arg3: index, %arg4: memref<64x256x16x16xf32>) attributes {scop.stmt} {
    %cst = arith.constant 0.000000e+00 : f32
    affine.store %cst, %arg4[symbol(%arg0), symbol(%arg1), symbol(%arg2), symbol(%arg3)] : memref<64x256x16x16xf32>
    return
  }
  func.func private @S158(%arg0: index, %arg1: index, %arg2: index, %arg3: index, %arg4: memref<64x256x14x14xf32>, %arg5: index, %arg6: index, %arg7: index, %arg8: memref<256x256x3x3xf32>, %arg9: memref<64x256x16x16xf32>) attributes {scop.stmt} {
    %0 = affine.load %arg4[symbol(%arg0), symbol(%arg1), symbol(%arg2), symbol(%arg3)] : memref<64x256x14x14xf32>
    %1 = affine.load %arg9[symbol(%arg0), symbol(%arg5), symbol(%arg2) + symbol(%arg6), symbol(%arg3) + symbol(%arg7)] : memref<64x256x16x16xf32>
    %2 = affine.load %arg8[symbol(%arg1), symbol(%arg5), symbol(%arg6), symbol(%arg7)] : memref<256x256x3x3xf32>
    %3 = arith.mulf %1, %2 : f32
    %4 = arith.addf %0, %3 : f32
    affine.store %4, %arg4[symbol(%arg0), symbol(%arg1), symbol(%arg2), symbol(%arg3)] : memref<64x256x14x14xf32>
    return
  }
  func.func private @S159(%arg0: index, %arg1: index, %arg2: index, %arg3: index, %arg4: memref<64x256x14x14xf32>, %arg5: memref<64x256x14x14xf32>) attributes {scop.stmt} {
    %cst = arith.constant 0.000000e+00 : f32
    %cst_0 = arith.constant 1.000000e+00 : f32
    %cst_1 = arith.constant 1.000000e-05 : f64
    %0 = affine.load %arg5[symbol(%arg0), symbol(%arg1), symbol(%arg2), symbol(%arg3)] : memref<64x256x14x14xf32>
    %1 = arith.truncf %cst_1 : f64 to f32
    %2 = arith.addf %1, %cst_0 : f32
    %3 = math.rsqrt %2 : f32
    %4 = arith.mulf %0, %3 : f32
    %5 = arith.addf %4, %cst : f32
    affine.store %5, %arg4[symbol(%arg0), symbol(%arg1), symbol(%arg2), symbol(%arg3)] : memref<64x256x14x14xf32>
    return
  }
  func.func private @S160(%arg0: index, %arg1: index, %arg2: index, %arg3: index, %arg4: memref<64x256x14x14xf32>, %arg5: memref<64x256x14x14xf32>) attributes {scop.stmt} {
    %cst = arith.constant 0.000000e+00 : f32
    %0 = affine.load %arg5[symbol(%arg0), symbol(%arg1), symbol(%arg2), symbol(%arg3)] : memref<64x256x14x14xf32>
    %1 = arith.cmpf ugt, %0, %cst : f32
    %2 = arith.select %1, %0, %cst : f32
    affine.store %2, %arg4[symbol(%arg0), symbol(%arg1), symbol(%arg2), symbol(%arg3)] : memref<64x256x14x14xf32>
    return
  }
  func.func private @S161(%arg0: index, %arg1: index, %arg2: index, %arg3: index, %arg4: memref<64x1024x14x14xf32>, %arg5: index, %arg6: index, %arg7: index, %arg8: memref<1024x256x1x1xf32>, %arg9: memref<64x256x14x14xf32>) attributes {scop.stmt} {
    %0 = affine.load %arg4[symbol(%arg0), symbol(%arg1), symbol(%arg2), symbol(%arg3)] : memref<64x1024x14x14xf32>
    %1 = affine.load %arg9[symbol(%arg0), symbol(%arg5), symbol(%arg2) + symbol(%arg6), symbol(%arg3) + symbol(%arg7)] : memref<64x256x14x14xf32>
    %2 = affine.load %arg8[symbol(%arg1), symbol(%arg5), symbol(%arg6), symbol(%arg7)] : memref<1024x256x1x1xf32>
    %3 = arith.mulf %1, %2 : f32
    %4 = arith.addf %0, %3 : f32
    affine.store %4, %arg4[symbol(%arg0), symbol(%arg1), symbol(%arg2), symbol(%arg3)] : memref<64x1024x14x14xf32>
    return
  }
  func.func private @S162(%arg0: index, %arg1: index, %arg2: index, %arg3: index, %arg4: memref<64x1024x14x14xf32>, %arg5: memref<64x1024x14x14xf32>) attributes {scop.stmt} {
    %cst = arith.constant 0.000000e+00 : f32
    %cst_0 = arith.constant 1.000000e+00 : f32
    %cst_1 = arith.constant 1.000000e-05 : f64
    %0 = affine.load %arg5[symbol(%arg0), symbol(%arg1), symbol(%arg2), symbol(%arg3)] : memref<64x1024x14x14xf32>
    %1 = arith.truncf %cst_1 : f64 to f32
    %2 = arith.addf %1, %cst_0 : f32
    %3 = math.rsqrt %2 : f32
    %4 = arith.mulf %0, %3 : f32
    %5 = arith.addf %4, %cst : f32
    affine.store %5, %arg4[symbol(%arg0), symbol(%arg1), symbol(%arg2), symbol(%arg3)] : memref<64x1024x14x14xf32>
    return
  }
  func.func private @S163(%arg0: index, %arg1: index, %arg2: index, %arg3: index, %arg4: memref<64x1024x14x14xf32>, %arg5: memref<64x1024x14x14xf32>, %arg6: memref<64x1024x14x14xf32>) attributes {scop.stmt} {
    %0 = affine.load %arg6[symbol(%arg0), symbol(%arg1), symbol(%arg2), symbol(%arg3)] : memref<64x1024x14x14xf32>
    %1 = affine.load %arg5[symbol(%arg0), symbol(%arg1), symbol(%arg2), symbol(%arg3)] : memref<64x1024x14x14xf32>
    %2 = arith.addf %0, %1 : f32
    affine.store %2, %arg4[symbol(%arg0), symbol(%arg1), symbol(%arg2), symbol(%arg3)] : memref<64x1024x14x14xf32>
    return
  }
  func.func private @S164(%arg0: index, %arg1: index, %arg2: index, %arg3: index, %arg4: memref<64x1024x14x14xf32>, %arg5: memref<64x1024x14x14xf32>) attributes {scop.stmt} {
    %cst = arith.constant 0.000000e+00 : f32
    %0 = affine.load %arg5[symbol(%arg0), symbol(%arg1), symbol(%arg2), symbol(%arg3)] : memref<64x1024x14x14xf32>
    %1 = arith.cmpf ugt, %0, %cst : f32
    %2 = arith.select %1, %0, %cst : f32
    affine.store %2, %arg4[symbol(%arg0), symbol(%arg1), symbol(%arg2), symbol(%arg3)] : memref<64x1024x14x14xf32>
    return
  }
  func.func private @S165(%arg0: index, %arg1: index, %arg2: index, %arg3: index, %arg4: memref<64x256x14x14xf32>, %arg5: index, %arg6: index, %arg7: index, %arg8: memref<256x1024x1x1xf32>, %arg9: memref<64x1024x14x14xf32>) attributes {scop.stmt} {
    %0 = affine.load %arg4[symbol(%arg0), symbol(%arg1), symbol(%arg2), symbol(%arg3)] : memref<64x256x14x14xf32>
    %1 = affine.load %arg9[symbol(%arg0), symbol(%arg5), symbol(%arg2) + symbol(%arg6), symbol(%arg3) + symbol(%arg7)] : memref<64x1024x14x14xf32>
    %2 = affine.load %arg8[symbol(%arg1), symbol(%arg5), symbol(%arg6), symbol(%arg7)] : memref<256x1024x1x1xf32>
    %3 = arith.mulf %1, %2 : f32
    %4 = arith.addf %0, %3 : f32
    affine.store %4, %arg4[symbol(%arg0), symbol(%arg1), symbol(%arg2), symbol(%arg3)] : memref<64x256x14x14xf32>
    return
  }
  func.func private @S166(%arg0: index, %arg1: index, %arg2: index, %arg3: index, %arg4: memref<64x256x14x14xf32>, %arg5: memref<64x256x14x14xf32>) attributes {scop.stmt} {
    %cst = arith.constant 0.000000e+00 : f32
    %cst_0 = arith.constant 1.000000e+00 : f32
    %cst_1 = arith.constant 1.000000e-05 : f64
    %0 = affine.load %arg5[symbol(%arg0), symbol(%arg1), symbol(%arg2), symbol(%arg3)] : memref<64x256x14x14xf32>
    %1 = arith.truncf %cst_1 : f64 to f32
    %2 = arith.addf %1, %cst_0 : f32
    %3 = math.rsqrt %2 : f32
    %4 = arith.mulf %0, %3 : f32
    %5 = arith.addf %4, %cst : f32
    affine.store %5, %arg4[symbol(%arg0), symbol(%arg1), symbol(%arg2), symbol(%arg3)] : memref<64x256x14x14xf32>
    return
  }
  func.func private @S167(%arg0: index, %arg1: index, %arg2: index, %arg3: index, %arg4: memref<64x256x14x14xf32>, %arg5: memref<64x256x14x14xf32>) attributes {scop.stmt} {
    %cst = arith.constant 0.000000e+00 : f32
    %0 = affine.load %arg5[symbol(%arg0), symbol(%arg1), symbol(%arg2), symbol(%arg3)] : memref<64x256x14x14xf32>
    %1 = arith.cmpf ugt, %0, %cst : f32
    %2 = arith.select %1, %0, %cst : f32
    affine.store %2, %arg4[symbol(%arg0), symbol(%arg1), symbol(%arg2), symbol(%arg3)] : memref<64x256x14x14xf32>
    return
  }
  func.func private @S168(%arg0: index, %arg1: index, %arg2: index, %arg3: index, %arg4: memref<64x256x16x16xf32>) attributes {scop.stmt} {
    %cst = arith.constant 0.000000e+00 : f32
    affine.store %cst, %arg4[symbol(%arg0), symbol(%arg1), symbol(%arg2), symbol(%arg3)] : memref<64x256x16x16xf32>
    return
  }
  func.func private @S169(%arg0: index, %arg1: index, %arg2: index, %arg3: index, %arg4: memref<64x256x14x14xf32>, %arg5: index, %arg6: index, %arg7: index, %arg8: memref<256x256x3x3xf32>, %arg9: memref<64x256x16x16xf32>) attributes {scop.stmt} {
    %0 = affine.load %arg4[symbol(%arg0), symbol(%arg1), symbol(%arg2), symbol(%arg3)] : memref<64x256x14x14xf32>
    %1 = affine.load %arg9[symbol(%arg0), symbol(%arg5), symbol(%arg2) + symbol(%arg6), symbol(%arg3) + symbol(%arg7)] : memref<64x256x16x16xf32>
    %2 = affine.load %arg8[symbol(%arg1), symbol(%arg5), symbol(%arg6), symbol(%arg7)] : memref<256x256x3x3xf32>
    %3 = arith.mulf %1, %2 : f32
    %4 = arith.addf %0, %3 : f32
    affine.store %4, %arg4[symbol(%arg0), symbol(%arg1), symbol(%arg2), symbol(%arg3)] : memref<64x256x14x14xf32>
    return
  }
  func.func private @S170(%arg0: index, %arg1: index, %arg2: index, %arg3: index, %arg4: memref<64x256x14x14xf32>, %arg5: memref<64x256x14x14xf32>) attributes {scop.stmt} {
    %cst = arith.constant 0.000000e+00 : f32
    %cst_0 = arith.constant 1.000000e+00 : f32
    %cst_1 = arith.constant 1.000000e-05 : f64
    %0 = affine.load %arg5[symbol(%arg0), symbol(%arg1), symbol(%arg2), symbol(%arg3)] : memref<64x256x14x14xf32>
    %1 = arith.truncf %cst_1 : f64 to f32
    %2 = arith.addf %1, %cst_0 : f32
    %3 = math.rsqrt %2 : f32
    %4 = arith.mulf %0, %3 : f32
    %5 = arith.addf %4, %cst : f32
    affine.store %5, %arg4[symbol(%arg0), symbol(%arg1), symbol(%arg2), symbol(%arg3)] : memref<64x256x14x14xf32>
    return
  }
  func.func private @S171(%arg0: index, %arg1: index, %arg2: index, %arg3: index, %arg4: memref<64x256x14x14xf32>, %arg5: memref<64x256x14x14xf32>) attributes {scop.stmt} {
    %cst = arith.constant 0.000000e+00 : f32
    %0 = affine.load %arg5[symbol(%arg0), symbol(%arg1), symbol(%arg2), symbol(%arg3)] : memref<64x256x14x14xf32>
    %1 = arith.cmpf ugt, %0, %cst : f32
    %2 = arith.select %1, %0, %cst : f32
    affine.store %2, %arg4[symbol(%arg0), symbol(%arg1), symbol(%arg2), symbol(%arg3)] : memref<64x256x14x14xf32>
    return
  }
  func.func private @S172(%arg0: index, %arg1: index, %arg2: index, %arg3: index, %arg4: memref<64x1024x14x14xf32>, %arg5: index, %arg6: index, %arg7: index, %arg8: memref<1024x256x1x1xf32>, %arg9: memref<64x256x14x14xf32>) attributes {scop.stmt} {
    %0 = affine.load %arg4[symbol(%arg0), symbol(%arg1), symbol(%arg2), symbol(%arg3)] : memref<64x1024x14x14xf32>
    %1 = affine.load %arg9[symbol(%arg0), symbol(%arg5), symbol(%arg2) + symbol(%arg6), symbol(%arg3) + symbol(%arg7)] : memref<64x256x14x14xf32>
    %2 = affine.load %arg8[symbol(%arg1), symbol(%arg5), symbol(%arg6), symbol(%arg7)] : memref<1024x256x1x1xf32>
    %3 = arith.mulf %1, %2 : f32
    %4 = arith.addf %0, %3 : f32
    affine.store %4, %arg4[symbol(%arg0), symbol(%arg1), symbol(%arg2), symbol(%arg3)] : memref<64x1024x14x14xf32>
    return
  }
  func.func private @S173(%arg0: index, %arg1: index, %arg2: index, %arg3: index, %arg4: memref<64x1024x14x14xf32>, %arg5: memref<64x1024x14x14xf32>) attributes {scop.stmt} {
    %cst = arith.constant 0.000000e+00 : f32
    %cst_0 = arith.constant 1.000000e+00 : f32
    %cst_1 = arith.constant 1.000000e-05 : f64
    %0 = affine.load %arg5[symbol(%arg0), symbol(%arg1), symbol(%arg2), symbol(%arg3)] : memref<64x1024x14x14xf32>
    %1 = arith.truncf %cst_1 : f64 to f32
    %2 = arith.addf %1, %cst_0 : f32
    %3 = math.rsqrt %2 : f32
    %4 = arith.mulf %0, %3 : f32
    %5 = arith.addf %4, %cst : f32
    affine.store %5, %arg4[symbol(%arg0), symbol(%arg1), symbol(%arg2), symbol(%arg3)] : memref<64x1024x14x14xf32>
    return
  }
  func.func private @S174(%arg0: index, %arg1: index, %arg2: index, %arg3: index, %arg4: memref<64x1024x14x14xf32>, %arg5: memref<64x1024x14x14xf32>, %arg6: memref<64x1024x14x14xf32>) attributes {scop.stmt} {
    %0 = affine.load %arg6[symbol(%arg0), symbol(%arg1), symbol(%arg2), symbol(%arg3)] : memref<64x1024x14x14xf32>
    %1 = affine.load %arg5[symbol(%arg0), symbol(%arg1), symbol(%arg2), symbol(%arg3)] : memref<64x1024x14x14xf32>
    %2 = arith.addf %0, %1 : f32
    affine.store %2, %arg4[symbol(%arg0), symbol(%arg1), symbol(%arg2), symbol(%arg3)] : memref<64x1024x14x14xf32>
    return
  }
  func.func private @S175(%arg0: index, %arg1: index, %arg2: index, %arg3: index, %arg4: memref<64x1024x14x14xf32>, %arg5: memref<64x1024x14x14xf32>) attributes {scop.stmt} {
    %cst = arith.constant 0.000000e+00 : f32
    %0 = affine.load %arg5[symbol(%arg0), symbol(%arg1), symbol(%arg2), symbol(%arg3)] : memref<64x1024x14x14xf32>
    %1 = arith.cmpf ugt, %0, %cst : f32
    %2 = arith.select %1, %0, %cst : f32
    affine.store %2, %arg4[symbol(%arg0), symbol(%arg1), symbol(%arg2), symbol(%arg3)] : memref<64x1024x14x14xf32>
    return
  }
  func.func private @S176(%arg0: index, %arg1: index, %arg2: index, %arg3: index, %arg4: memref<64x256x14x14xf32>, %arg5: index, %arg6: index, %arg7: index, %arg8: memref<256x1024x1x1xf32>, %arg9: memref<64x1024x14x14xf32>) attributes {scop.stmt} {
    %0 = affine.load %arg4[symbol(%arg0), symbol(%arg1), symbol(%arg2), symbol(%arg3)] : memref<64x256x14x14xf32>
    %1 = affine.load %arg9[symbol(%arg0), symbol(%arg5), symbol(%arg2) + symbol(%arg6), symbol(%arg3) + symbol(%arg7)] : memref<64x1024x14x14xf32>
    %2 = affine.load %arg8[symbol(%arg1), symbol(%arg5), symbol(%arg6), symbol(%arg7)] : memref<256x1024x1x1xf32>
    %3 = arith.mulf %1, %2 : f32
    %4 = arith.addf %0, %3 : f32
    affine.store %4, %arg4[symbol(%arg0), symbol(%arg1), symbol(%arg2), symbol(%arg3)] : memref<64x256x14x14xf32>
    return
  }
  func.func private @S177(%arg0: index, %arg1: index, %arg2: index, %arg3: index, %arg4: memref<64x256x14x14xf32>, %arg5: memref<64x256x14x14xf32>) attributes {scop.stmt} {
    %cst = arith.constant 0.000000e+00 : f32
    %cst_0 = arith.constant 1.000000e+00 : f32
    %cst_1 = arith.constant 1.000000e-05 : f64
    %0 = affine.load %arg5[symbol(%arg0), symbol(%arg1), symbol(%arg2), symbol(%arg3)] : memref<64x256x14x14xf32>
    %1 = arith.truncf %cst_1 : f64 to f32
    %2 = arith.addf %1, %cst_0 : f32
    %3 = math.rsqrt %2 : f32
    %4 = arith.mulf %0, %3 : f32
    %5 = arith.addf %4, %cst : f32
    affine.store %5, %arg4[symbol(%arg0), symbol(%arg1), symbol(%arg2), symbol(%arg3)] : memref<64x256x14x14xf32>
    return
  }
  func.func private @S178(%arg0: index, %arg1: index, %arg2: index, %arg3: index, %arg4: memref<64x256x14x14xf32>, %arg5: memref<64x256x14x14xf32>) attributes {scop.stmt} {
    %cst = arith.constant 0.000000e+00 : f32
    %0 = affine.load %arg5[symbol(%arg0), symbol(%arg1), symbol(%arg2), symbol(%arg3)] : memref<64x256x14x14xf32>
    %1 = arith.cmpf ugt, %0, %cst : f32
    %2 = arith.select %1, %0, %cst : f32
    affine.store %2, %arg4[symbol(%arg0), symbol(%arg1), symbol(%arg2), symbol(%arg3)] : memref<64x256x14x14xf32>
    return
  }
  func.func private @S179(%arg0: index, %arg1: index, %arg2: index, %arg3: index, %arg4: memref<64x256x16x16xf32>) attributes {scop.stmt} {
    %cst = arith.constant 0.000000e+00 : f32
    affine.store %cst, %arg4[symbol(%arg0), symbol(%arg1), symbol(%arg2), symbol(%arg3)] : memref<64x256x16x16xf32>
    return
  }
  func.func private @S180(%arg0: index, %arg1: index, %arg2: index, %arg3: index, %arg4: memref<64x256x14x14xf32>, %arg5: index, %arg6: index, %arg7: index, %arg8: memref<256x256x3x3xf32>, %arg9: memref<64x256x16x16xf32>) attributes {scop.stmt} {
    %0 = affine.load %arg4[symbol(%arg0), symbol(%arg1), symbol(%arg2), symbol(%arg3)] : memref<64x256x14x14xf32>
    %1 = affine.load %arg9[symbol(%arg0), symbol(%arg5), symbol(%arg2) + symbol(%arg6), symbol(%arg3) + symbol(%arg7)] : memref<64x256x16x16xf32>
    %2 = affine.load %arg8[symbol(%arg1), symbol(%arg5), symbol(%arg6), symbol(%arg7)] : memref<256x256x3x3xf32>
    %3 = arith.mulf %1, %2 : f32
    %4 = arith.addf %0, %3 : f32
    affine.store %4, %arg4[symbol(%arg0), symbol(%arg1), symbol(%arg2), symbol(%arg3)] : memref<64x256x14x14xf32>
    return
  }
  func.func private @S181(%arg0: index, %arg1: index, %arg2: index, %arg3: index, %arg4: memref<64x256x14x14xf32>, %arg5: memref<64x256x14x14xf32>) attributes {scop.stmt} {
    %cst = arith.constant 0.000000e+00 : f32
    %cst_0 = arith.constant 1.000000e+00 : f32
    %cst_1 = arith.constant 1.000000e-05 : f64
    %0 = affine.load %arg5[symbol(%arg0), symbol(%arg1), symbol(%arg2), symbol(%arg3)] : memref<64x256x14x14xf32>
    %1 = arith.truncf %cst_1 : f64 to f32
    %2 = arith.addf %1, %cst_0 : f32
    %3 = math.rsqrt %2 : f32
    %4 = arith.mulf %0, %3 : f32
    %5 = arith.addf %4, %cst : f32
    affine.store %5, %arg4[symbol(%arg0), symbol(%arg1), symbol(%arg2), symbol(%arg3)] : memref<64x256x14x14xf32>
    return
  }
  func.func private @S182(%arg0: index, %arg1: index, %arg2: index, %arg3: index, %arg4: memref<64x256x14x14xf32>, %arg5: memref<64x256x14x14xf32>) attributes {scop.stmt} {
    %cst = arith.constant 0.000000e+00 : f32
    %0 = affine.load %arg5[symbol(%arg0), symbol(%arg1), symbol(%arg2), symbol(%arg3)] : memref<64x256x14x14xf32>
    %1 = arith.cmpf ugt, %0, %cst : f32
    %2 = arith.select %1, %0, %cst : f32
    affine.store %2, %arg4[symbol(%arg0), symbol(%arg1), symbol(%arg2), symbol(%arg3)] : memref<64x256x14x14xf32>
    return
  }
  func.func private @S183(%arg0: index, %arg1: index, %arg2: index, %arg3: index, %arg4: memref<64x1024x14x14xf32>, %arg5: index, %arg6: index, %arg7: index, %arg8: memref<1024x256x1x1xf32>, %arg9: memref<64x256x14x14xf32>) attributes {scop.stmt} {
    %0 = affine.load %arg4[symbol(%arg0), symbol(%arg1), symbol(%arg2), symbol(%arg3)] : memref<64x1024x14x14xf32>
    %1 = affine.load %arg9[symbol(%arg0), symbol(%arg5), symbol(%arg2) + symbol(%arg6), symbol(%arg3) + symbol(%arg7)] : memref<64x256x14x14xf32>
    %2 = affine.load %arg8[symbol(%arg1), symbol(%arg5), symbol(%arg6), symbol(%arg7)] : memref<1024x256x1x1xf32>
    %3 = arith.mulf %1, %2 : f32
    %4 = arith.addf %0, %3 : f32
    affine.store %4, %arg4[symbol(%arg0), symbol(%arg1), symbol(%arg2), symbol(%arg3)] : memref<64x1024x14x14xf32>
    return
  }
  func.func private @S184(%arg0: index, %arg1: index, %arg2: index, %arg3: index, %arg4: memref<64x1024x14x14xf32>, %arg5: memref<64x1024x14x14xf32>) attributes {scop.stmt} {
    %cst = arith.constant 0.000000e+00 : f32
    %cst_0 = arith.constant 1.000000e+00 : f32
    %cst_1 = arith.constant 1.000000e-05 : f64
    %0 = affine.load %arg5[symbol(%arg0), symbol(%arg1), symbol(%arg2), symbol(%arg3)] : memref<64x1024x14x14xf32>
    %1 = arith.truncf %cst_1 : f64 to f32
    %2 = arith.addf %1, %cst_0 : f32
    %3 = math.rsqrt %2 : f32
    %4 = arith.mulf %0, %3 : f32
    %5 = arith.addf %4, %cst : f32
    affine.store %5, %arg4[symbol(%arg0), symbol(%arg1), symbol(%arg2), symbol(%arg3)] : memref<64x1024x14x14xf32>
    return
  }
  func.func private @S185(%arg0: index, %arg1: index, %arg2: index, %arg3: index, %arg4: memref<64x1024x14x14xf32>, %arg5: memref<64x1024x14x14xf32>, %arg6: memref<64x1024x14x14xf32>) attributes {scop.stmt} {
    %0 = affine.load %arg6[symbol(%arg0), symbol(%arg1), symbol(%arg2), symbol(%arg3)] : memref<64x1024x14x14xf32>
    %1 = affine.load %arg5[symbol(%arg0), symbol(%arg1), symbol(%arg2), symbol(%arg3)] : memref<64x1024x14x14xf32>
    %2 = arith.addf %0, %1 : f32
    affine.store %2, %arg4[symbol(%arg0), symbol(%arg1), symbol(%arg2), symbol(%arg3)] : memref<64x1024x14x14xf32>
    return
  }
  func.func private @S186(%arg0: index, %arg1: index, %arg2: index, %arg3: index, %arg4: memref<64x1024x14x14xf32>, %arg5: memref<64x1024x14x14xf32>) attributes {scop.stmt} {
    %cst = arith.constant 0.000000e+00 : f32
    %0 = affine.load %arg5[symbol(%arg0), symbol(%arg1), symbol(%arg2), symbol(%arg3)] : memref<64x1024x14x14xf32>
    %1 = arith.cmpf ugt, %0, %cst : f32
    %2 = arith.select %1, %0, %cst : f32
    affine.store %2, %arg4[symbol(%arg0), symbol(%arg1), symbol(%arg2), symbol(%arg3)] : memref<64x1024x14x14xf32>
    return
  }
  func.func private @S187(%arg0: index, %arg1: index, %arg2: index, %arg3: index, %arg4: memref<64x256x14x14xf32>, %arg5: index, %arg6: index, %arg7: index, %arg8: memref<256x1024x1x1xf32>, %arg9: memref<64x1024x14x14xf32>) attributes {scop.stmt} {
    %0 = affine.load %arg4[symbol(%arg0), symbol(%arg1), symbol(%arg2), symbol(%arg3)] : memref<64x256x14x14xf32>
    %1 = affine.load %arg9[symbol(%arg0), symbol(%arg5), symbol(%arg2) + symbol(%arg6), symbol(%arg3) + symbol(%arg7)] : memref<64x1024x14x14xf32>
    %2 = affine.load %arg8[symbol(%arg1), symbol(%arg5), symbol(%arg6), symbol(%arg7)] : memref<256x1024x1x1xf32>
    %3 = arith.mulf %1, %2 : f32
    %4 = arith.addf %0, %3 : f32
    affine.store %4, %arg4[symbol(%arg0), symbol(%arg1), symbol(%arg2), symbol(%arg3)] : memref<64x256x14x14xf32>
    return
  }
  func.func private @S188(%arg0: index, %arg1: index, %arg2: index, %arg3: index, %arg4: memref<64x256x14x14xf32>, %arg5: memref<64x256x14x14xf32>) attributes {scop.stmt} {
    %cst = arith.constant 0.000000e+00 : f32
    %cst_0 = arith.constant 1.000000e+00 : f32
    %cst_1 = arith.constant 1.000000e-05 : f64
    %0 = affine.load %arg5[symbol(%arg0), symbol(%arg1), symbol(%arg2), symbol(%arg3)] : memref<64x256x14x14xf32>
    %1 = arith.truncf %cst_1 : f64 to f32
    %2 = arith.addf %1, %cst_0 : f32
    %3 = math.rsqrt %2 : f32
    %4 = arith.mulf %0, %3 : f32
    %5 = arith.addf %4, %cst : f32
    affine.store %5, %arg4[symbol(%arg0), symbol(%arg1), symbol(%arg2), symbol(%arg3)] : memref<64x256x14x14xf32>
    return
  }
  func.func private @S189(%arg0: index, %arg1: index, %arg2: index, %arg3: index, %arg4: memref<64x256x14x14xf32>, %arg5: memref<64x256x14x14xf32>) attributes {scop.stmt} {
    %cst = arith.constant 0.000000e+00 : f32
    %0 = affine.load %arg5[symbol(%arg0), symbol(%arg1), symbol(%arg2), symbol(%arg3)] : memref<64x256x14x14xf32>
    %1 = arith.cmpf ugt, %0, %cst : f32
    %2 = arith.select %1, %0, %cst : f32
    affine.store %2, %arg4[symbol(%arg0), symbol(%arg1), symbol(%arg2), symbol(%arg3)] : memref<64x256x14x14xf32>
    return
  }
  func.func private @S190(%arg0: index, %arg1: index, %arg2: index, %arg3: index, %arg4: memref<64x256x16x16xf32>) attributes {scop.stmt} {
    %cst = arith.constant 0.000000e+00 : f32
    affine.store %cst, %arg4[symbol(%arg0), symbol(%arg1), symbol(%arg2), symbol(%arg3)] : memref<64x256x16x16xf32>
    return
  }
  func.func private @S191(%arg0: index, %arg1: index, %arg2: index, %arg3: index, %arg4: memref<64x256x14x14xf32>, %arg5: index, %arg6: index, %arg7: index, %arg8: memref<256x256x3x3xf32>, %arg9: memref<64x256x16x16xf32>) attributes {scop.stmt} {
    %0 = affine.load %arg4[symbol(%arg0), symbol(%arg1), symbol(%arg2), symbol(%arg3)] : memref<64x256x14x14xf32>
    %1 = affine.load %arg9[symbol(%arg0), symbol(%arg5), symbol(%arg2) + symbol(%arg6), symbol(%arg3) + symbol(%arg7)] : memref<64x256x16x16xf32>
    %2 = affine.load %arg8[symbol(%arg1), symbol(%arg5), symbol(%arg6), symbol(%arg7)] : memref<256x256x3x3xf32>
    %3 = arith.mulf %1, %2 : f32
    %4 = arith.addf %0, %3 : f32
    affine.store %4, %arg4[symbol(%arg0), symbol(%arg1), symbol(%arg2), symbol(%arg3)] : memref<64x256x14x14xf32>
    return
  }
  func.func private @S192(%arg0: index, %arg1: index, %arg2: index, %arg3: index, %arg4: memref<64x256x14x14xf32>, %arg5: memref<64x256x14x14xf32>) attributes {scop.stmt} {
    %cst = arith.constant 0.000000e+00 : f32
    %cst_0 = arith.constant 1.000000e+00 : f32
    %cst_1 = arith.constant 1.000000e-05 : f64
    %0 = affine.load %arg5[symbol(%arg0), symbol(%arg1), symbol(%arg2), symbol(%arg3)] : memref<64x256x14x14xf32>
    %1 = arith.truncf %cst_1 : f64 to f32
    %2 = arith.addf %1, %cst_0 : f32
    %3 = math.rsqrt %2 : f32
    %4 = arith.mulf %0, %3 : f32
    %5 = arith.addf %4, %cst : f32
    affine.store %5, %arg4[symbol(%arg0), symbol(%arg1), symbol(%arg2), symbol(%arg3)] : memref<64x256x14x14xf32>
    return
  }
  func.func private @S193(%arg0: index, %arg1: index, %arg2: index, %arg3: index, %arg4: memref<64x256x14x14xf32>, %arg5: memref<64x256x14x14xf32>) attributes {scop.stmt} {
    %cst = arith.constant 0.000000e+00 : f32
    %0 = affine.load %arg5[symbol(%arg0), symbol(%arg1), symbol(%arg2), symbol(%arg3)] : memref<64x256x14x14xf32>
    %1 = arith.cmpf ugt, %0, %cst : f32
    %2 = arith.select %1, %0, %cst : f32
    affine.store %2, %arg4[symbol(%arg0), symbol(%arg1), symbol(%arg2), symbol(%arg3)] : memref<64x256x14x14xf32>
    return
  }
  func.func private @S194(%arg0: index, %arg1: index, %arg2: index, %arg3: index, %arg4: memref<64x1024x14x14xf32>, %arg5: index, %arg6: index, %arg7: index, %arg8: memref<1024x256x1x1xf32>, %arg9: memref<64x256x14x14xf32>) attributes {scop.stmt} {
    %0 = affine.load %arg4[symbol(%arg0), symbol(%arg1), symbol(%arg2), symbol(%arg3)] : memref<64x1024x14x14xf32>
    %1 = affine.load %arg9[symbol(%arg0), symbol(%arg5), symbol(%arg2) + symbol(%arg6), symbol(%arg3) + symbol(%arg7)] : memref<64x256x14x14xf32>
    %2 = affine.load %arg8[symbol(%arg1), symbol(%arg5), symbol(%arg6), symbol(%arg7)] : memref<1024x256x1x1xf32>
    %3 = arith.mulf %1, %2 : f32
    %4 = arith.addf %0, %3 : f32
    affine.store %4, %arg4[symbol(%arg0), symbol(%arg1), symbol(%arg2), symbol(%arg3)] : memref<64x1024x14x14xf32>
    return
  }
  func.func private @S195(%arg0: index, %arg1: index, %arg2: index, %arg3: index, %arg4: memref<64x1024x14x14xf32>, %arg5: memref<64x1024x14x14xf32>) attributes {scop.stmt} {
    %cst = arith.constant 0.000000e+00 : f32
    %cst_0 = arith.constant 1.000000e+00 : f32
    %cst_1 = arith.constant 1.000000e-05 : f64
    %0 = affine.load %arg5[symbol(%arg0), symbol(%arg1), symbol(%arg2), symbol(%arg3)] : memref<64x1024x14x14xf32>
    %1 = arith.truncf %cst_1 : f64 to f32
    %2 = arith.addf %1, %cst_0 : f32
    %3 = math.rsqrt %2 : f32
    %4 = arith.mulf %0, %3 : f32
    %5 = arith.addf %4, %cst : f32
    affine.store %5, %arg4[symbol(%arg0), symbol(%arg1), symbol(%arg2), symbol(%arg3)] : memref<64x1024x14x14xf32>
    return
  }
  func.func private @S196(%arg0: index, %arg1: index, %arg2: index, %arg3: index, %arg4: memref<64x1024x14x14xf32>, %arg5: memref<64x1024x14x14xf32>, %arg6: memref<64x1024x14x14xf32>) attributes {scop.stmt} {
    %0 = affine.load %arg6[symbol(%arg0), symbol(%arg1), symbol(%arg2), symbol(%arg3)] : memref<64x1024x14x14xf32>
    %1 = affine.load %arg5[symbol(%arg0), symbol(%arg1), symbol(%arg2), symbol(%arg3)] : memref<64x1024x14x14xf32>
    %2 = arith.addf %0, %1 : f32
    affine.store %2, %arg4[symbol(%arg0), symbol(%arg1), symbol(%arg2), symbol(%arg3)] : memref<64x1024x14x14xf32>
    return
  }
  func.func private @S197(%arg0: index, %arg1: index, %arg2: index, %arg3: index, %arg4: memref<64x1024x14x14xf32>, %arg5: memref<64x1024x14x14xf32>) attributes {scop.stmt} {
    %cst = arith.constant 0.000000e+00 : f32
    %0 = affine.load %arg5[symbol(%arg0), symbol(%arg1), symbol(%arg2), symbol(%arg3)] : memref<64x1024x14x14xf32>
    %1 = arith.cmpf ugt, %0, %cst : f32
    %2 = arith.select %1, %0, %cst : f32
    affine.store %2, %arg4[symbol(%arg0), symbol(%arg1), symbol(%arg2), symbol(%arg3)] : memref<64x1024x14x14xf32>
    return
  }
  func.func private @S198(%arg0: index, %arg1: index, %arg2: index, %arg3: index, %arg4: memref<64x256x14x14xf32>, %arg5: index, %arg6: index, %arg7: index, %arg8: memref<256x1024x1x1xf32>, %arg9: memref<64x1024x14x14xf32>) attributes {scop.stmt} {
    %0 = affine.load %arg4[symbol(%arg0), symbol(%arg1), symbol(%arg2), symbol(%arg3)] : memref<64x256x14x14xf32>
    %1 = affine.load %arg9[symbol(%arg0), symbol(%arg5), symbol(%arg2) + symbol(%arg6), symbol(%arg3) + symbol(%arg7)] : memref<64x1024x14x14xf32>
    %2 = affine.load %arg8[symbol(%arg1), symbol(%arg5), symbol(%arg6), symbol(%arg7)] : memref<256x1024x1x1xf32>
    %3 = arith.mulf %1, %2 : f32
    %4 = arith.addf %0, %3 : f32
    affine.store %4, %arg4[symbol(%arg0), symbol(%arg1), symbol(%arg2), symbol(%arg3)] : memref<64x256x14x14xf32>
    return
  }
  func.func private @S199(%arg0: index, %arg1: index, %arg2: index, %arg3: index, %arg4: memref<64x256x14x14xf32>, %arg5: memref<64x256x14x14xf32>) attributes {scop.stmt} {
    %cst = arith.constant 0.000000e+00 : f32
    %cst_0 = arith.constant 1.000000e+00 : f32
    %cst_1 = arith.constant 1.000000e-05 : f64
    %0 = affine.load %arg5[symbol(%arg0), symbol(%arg1), symbol(%arg2), symbol(%arg3)] : memref<64x256x14x14xf32>
    %1 = arith.truncf %cst_1 : f64 to f32
    %2 = arith.addf %1, %cst_0 : f32
    %3 = math.rsqrt %2 : f32
    %4 = arith.mulf %0, %3 : f32
    %5 = arith.addf %4, %cst : f32
    affine.store %5, %arg4[symbol(%arg0), symbol(%arg1), symbol(%arg2), symbol(%arg3)] : memref<64x256x14x14xf32>
    return
  }
  func.func private @S200(%arg0: index, %arg1: index, %arg2: index, %arg3: index, %arg4: memref<64x256x14x14xf32>, %arg5: memref<64x256x14x14xf32>) attributes {scop.stmt} {
    %cst = arith.constant 0.000000e+00 : f32
    %0 = affine.load %arg5[symbol(%arg0), symbol(%arg1), symbol(%arg2), symbol(%arg3)] : memref<64x256x14x14xf32>
    %1 = arith.cmpf ugt, %0, %cst : f32
    %2 = arith.select %1, %0, %cst : f32
    affine.store %2, %arg4[symbol(%arg0), symbol(%arg1), symbol(%arg2), symbol(%arg3)] : memref<64x256x14x14xf32>
    return
  }
  func.func private @S201(%arg0: index, %arg1: index, %arg2: index, %arg3: index, %arg4: memref<64x256x16x16xf32>) attributes {scop.stmt} {
    %cst = arith.constant 0.000000e+00 : f32
    affine.store %cst, %arg4[symbol(%arg0), symbol(%arg1), symbol(%arg2), symbol(%arg3)] : memref<64x256x16x16xf32>
    return
  }
  func.func private @S202(%arg0: index, %arg1: index, %arg2: index, %arg3: index, %arg4: memref<64x256x14x14xf32>, %arg5: index, %arg6: index, %arg7: index, %arg8: memref<256x256x3x3xf32>, %arg9: memref<64x256x16x16xf32>) attributes {scop.stmt} {
    %0 = affine.load %arg4[symbol(%arg0), symbol(%arg1), symbol(%arg2), symbol(%arg3)] : memref<64x256x14x14xf32>
    %1 = affine.load %arg9[symbol(%arg0), symbol(%arg5), symbol(%arg2) + symbol(%arg6), symbol(%arg3) + symbol(%arg7)] : memref<64x256x16x16xf32>
    %2 = affine.load %arg8[symbol(%arg1), symbol(%arg5), symbol(%arg6), symbol(%arg7)] : memref<256x256x3x3xf32>
    %3 = arith.mulf %1, %2 : f32
    %4 = arith.addf %0, %3 : f32
    affine.store %4, %arg4[symbol(%arg0), symbol(%arg1), symbol(%arg2), symbol(%arg3)] : memref<64x256x14x14xf32>
    return
  }
  func.func private @S203(%arg0: index, %arg1: index, %arg2: index, %arg3: index, %arg4: memref<64x256x14x14xf32>, %arg5: memref<64x256x14x14xf32>) attributes {scop.stmt} {
    %cst = arith.constant 0.000000e+00 : f32
    %cst_0 = arith.constant 1.000000e+00 : f32
    %cst_1 = arith.constant 1.000000e-05 : f64
    %0 = affine.load %arg5[symbol(%arg0), symbol(%arg1), symbol(%arg2), symbol(%arg3)] : memref<64x256x14x14xf32>
    %1 = arith.truncf %cst_1 : f64 to f32
    %2 = arith.addf %1, %cst_0 : f32
    %3 = math.rsqrt %2 : f32
    %4 = arith.mulf %0, %3 : f32
    %5 = arith.addf %4, %cst : f32
    affine.store %5, %arg4[symbol(%arg0), symbol(%arg1), symbol(%arg2), symbol(%arg3)] : memref<64x256x14x14xf32>
    return
  }
  func.func private @S204(%arg0: index, %arg1: index, %arg2: index, %arg3: index, %arg4: memref<64x256x14x14xf32>, %arg5: memref<64x256x14x14xf32>) attributes {scop.stmt} {
    %cst = arith.constant 0.000000e+00 : f32
    %0 = affine.load %arg5[symbol(%arg0), symbol(%arg1), symbol(%arg2), symbol(%arg3)] : memref<64x256x14x14xf32>
    %1 = arith.cmpf ugt, %0, %cst : f32
    %2 = arith.select %1, %0, %cst : f32
    affine.store %2, %arg4[symbol(%arg0), symbol(%arg1), symbol(%arg2), symbol(%arg3)] : memref<64x256x14x14xf32>
    return
  }
  func.func private @S205(%arg0: index, %arg1: index, %arg2: index, %arg3: index, %arg4: memref<64x1024x14x14xf32>, %arg5: index, %arg6: index, %arg7: index, %arg8: memref<1024x256x1x1xf32>, %arg9: memref<64x256x14x14xf32>) attributes {scop.stmt} {
    %0 = affine.load %arg4[symbol(%arg0), symbol(%arg1), symbol(%arg2), symbol(%arg3)] : memref<64x1024x14x14xf32>
    %1 = affine.load %arg9[symbol(%arg0), symbol(%arg5), symbol(%arg2) + symbol(%arg6), symbol(%arg3) + symbol(%arg7)] : memref<64x256x14x14xf32>
    %2 = affine.load %arg8[symbol(%arg1), symbol(%arg5), symbol(%arg6), symbol(%arg7)] : memref<1024x256x1x1xf32>
    %3 = arith.mulf %1, %2 : f32
    %4 = arith.addf %0, %3 : f32
    affine.store %4, %arg4[symbol(%arg0), symbol(%arg1), symbol(%arg2), symbol(%arg3)] : memref<64x1024x14x14xf32>
    return
  }
  func.func private @S206(%arg0: index, %arg1: index, %arg2: index, %arg3: index, %arg4: memref<64x1024x14x14xf32>, %arg5: memref<64x1024x14x14xf32>) attributes {scop.stmt} {
    %cst = arith.constant 0.000000e+00 : f32
    %cst_0 = arith.constant 1.000000e+00 : f32
    %cst_1 = arith.constant 1.000000e-05 : f64
    %0 = affine.load %arg5[symbol(%arg0), symbol(%arg1), symbol(%arg2), symbol(%arg3)] : memref<64x1024x14x14xf32>
    %1 = arith.truncf %cst_1 : f64 to f32
    %2 = arith.addf %1, %cst_0 : f32
    %3 = math.rsqrt %2 : f32
    %4 = arith.mulf %0, %3 : f32
    %5 = arith.addf %4, %cst : f32
    affine.store %5, %arg4[symbol(%arg0), symbol(%arg1), symbol(%arg2), symbol(%arg3)] : memref<64x1024x14x14xf32>
    return
  }
  func.func private @S207(%arg0: index, %arg1: index, %arg2: index, %arg3: index, %arg4: memref<64x1024x14x14xf32>, %arg5: memref<64x1024x14x14xf32>, %arg6: memref<64x1024x14x14xf32>) attributes {scop.stmt} {
    %0 = affine.load %arg6[symbol(%arg0), symbol(%arg1), symbol(%arg2), symbol(%arg3)] : memref<64x1024x14x14xf32>
    %1 = affine.load %arg5[symbol(%arg0), symbol(%arg1), symbol(%arg2), symbol(%arg3)] : memref<64x1024x14x14xf32>
    %2 = arith.addf %0, %1 : f32
    affine.store %2, %arg4[symbol(%arg0), symbol(%arg1), symbol(%arg2), symbol(%arg3)] : memref<64x1024x14x14xf32>
    return
  }
  func.func private @S208(%arg0: index, %arg1: index, %arg2: index, %arg3: index, %arg4: memref<64x1024x14x14xf32>, %arg5: memref<64x1024x14x14xf32>) attributes {scop.stmt} {
    %cst = arith.constant 0.000000e+00 : f32
    %0 = affine.load %arg5[symbol(%arg0), symbol(%arg1), symbol(%arg2), symbol(%arg3)] : memref<64x1024x14x14xf32>
    %1 = arith.cmpf ugt, %0, %cst : f32
    %2 = arith.select %1, %0, %cst : f32
    affine.store %2, %arg4[symbol(%arg0), symbol(%arg1), symbol(%arg2), symbol(%arg3)] : memref<64x1024x14x14xf32>
    return
  }
  func.func private @S209(%arg0: index, %arg1: index, %arg2: index, %arg3: index, %arg4: memref<64x256x14x14xf32>, %arg5: index, %arg6: index, %arg7: index, %arg8: memref<256x1024x1x1xf32>, %arg9: memref<64x1024x14x14xf32>) attributes {scop.stmt} {
    %0 = affine.load %arg4[symbol(%arg0), symbol(%arg1), symbol(%arg2), symbol(%arg3)] : memref<64x256x14x14xf32>
    %1 = affine.load %arg9[symbol(%arg0), symbol(%arg5), symbol(%arg2) + symbol(%arg6), symbol(%arg3) + symbol(%arg7)] : memref<64x1024x14x14xf32>
    %2 = affine.load %arg8[symbol(%arg1), symbol(%arg5), symbol(%arg6), symbol(%arg7)] : memref<256x1024x1x1xf32>
    %3 = arith.mulf %1, %2 : f32
    %4 = arith.addf %0, %3 : f32
    affine.store %4, %arg4[symbol(%arg0), symbol(%arg1), symbol(%arg2), symbol(%arg3)] : memref<64x256x14x14xf32>
    return
  }
  func.func private @S210(%arg0: index, %arg1: index, %arg2: index, %arg3: index, %arg4: memref<64x256x14x14xf32>, %arg5: memref<64x256x14x14xf32>) attributes {scop.stmt} {
    %cst = arith.constant 0.000000e+00 : f32
    %cst_0 = arith.constant 1.000000e+00 : f32
    %cst_1 = arith.constant 1.000000e-05 : f64
    %0 = affine.load %arg5[symbol(%arg0), symbol(%arg1), symbol(%arg2), symbol(%arg3)] : memref<64x256x14x14xf32>
    %1 = arith.truncf %cst_1 : f64 to f32
    %2 = arith.addf %1, %cst_0 : f32
    %3 = math.rsqrt %2 : f32
    %4 = arith.mulf %0, %3 : f32
    %5 = arith.addf %4, %cst : f32
    affine.store %5, %arg4[symbol(%arg0), symbol(%arg1), symbol(%arg2), symbol(%arg3)] : memref<64x256x14x14xf32>
    return
  }
  func.func private @S211(%arg0: index, %arg1: index, %arg2: index, %arg3: index, %arg4: memref<64x256x14x14xf32>, %arg5: memref<64x256x14x14xf32>) attributes {scop.stmt} {
    %cst = arith.constant 0.000000e+00 : f32
    %0 = affine.load %arg5[symbol(%arg0), symbol(%arg1), symbol(%arg2), symbol(%arg3)] : memref<64x256x14x14xf32>
    %1 = arith.cmpf ugt, %0, %cst : f32
    %2 = arith.select %1, %0, %cst : f32
    affine.store %2, %arg4[symbol(%arg0), symbol(%arg1), symbol(%arg2), symbol(%arg3)] : memref<64x256x14x14xf32>
    return
  }
  func.func private @S212(%arg0: index, %arg1: index, %arg2: index, %arg3: index, %arg4: memref<64x256x16x16xf32>) attributes {scop.stmt} {
    %cst = arith.constant 0.000000e+00 : f32
    affine.store %cst, %arg4[symbol(%arg0), symbol(%arg1), symbol(%arg2), symbol(%arg3)] : memref<64x256x16x16xf32>
    return
  }
  func.func private @S213(%arg0: index, %arg1: index, %arg2: index, %arg3: index, %arg4: memref<64x256x14x14xf32>, %arg5: index, %arg6: index, %arg7: index, %arg8: memref<256x256x3x3xf32>, %arg9: memref<64x256x16x16xf32>) attributes {scop.stmt} {
    %0 = affine.load %arg4[symbol(%arg0), symbol(%arg1), symbol(%arg2), symbol(%arg3)] : memref<64x256x14x14xf32>
    %1 = affine.load %arg9[symbol(%arg0), symbol(%arg5), symbol(%arg2) + symbol(%arg6), symbol(%arg3) + symbol(%arg7)] : memref<64x256x16x16xf32>
    %2 = affine.load %arg8[symbol(%arg1), symbol(%arg5), symbol(%arg6), symbol(%arg7)] : memref<256x256x3x3xf32>
    %3 = arith.mulf %1, %2 : f32
    %4 = arith.addf %0, %3 : f32
    affine.store %4, %arg4[symbol(%arg0), symbol(%arg1), symbol(%arg2), symbol(%arg3)] : memref<64x256x14x14xf32>
    return
  }
  func.func private @S214(%arg0: index, %arg1: index, %arg2: index, %arg3: index, %arg4: memref<64x256x14x14xf32>, %arg5: memref<64x256x14x14xf32>) attributes {scop.stmt} {
    %cst = arith.constant 0.000000e+00 : f32
    %cst_0 = arith.constant 1.000000e+00 : f32
    %cst_1 = arith.constant 1.000000e-05 : f64
    %0 = affine.load %arg5[symbol(%arg0), symbol(%arg1), symbol(%arg2), symbol(%arg3)] : memref<64x256x14x14xf32>
    %1 = arith.truncf %cst_1 : f64 to f32
    %2 = arith.addf %1, %cst_0 : f32
    %3 = math.rsqrt %2 : f32
    %4 = arith.mulf %0, %3 : f32
    %5 = arith.addf %4, %cst : f32
    affine.store %5, %arg4[symbol(%arg0), symbol(%arg1), symbol(%arg2), symbol(%arg3)] : memref<64x256x14x14xf32>
    return
  }
  func.func private @S215(%arg0: index, %arg1: index, %arg2: index, %arg3: index, %arg4: memref<64x256x14x14xf32>, %arg5: memref<64x256x14x14xf32>) attributes {scop.stmt} {
    %cst = arith.constant 0.000000e+00 : f32
    %0 = affine.load %arg5[symbol(%arg0), symbol(%arg1), symbol(%arg2), symbol(%arg3)] : memref<64x256x14x14xf32>
    %1 = arith.cmpf ugt, %0, %cst : f32
    %2 = arith.select %1, %0, %cst : f32
    affine.store %2, %arg4[symbol(%arg0), symbol(%arg1), symbol(%arg2), symbol(%arg3)] : memref<64x256x14x14xf32>
    return
  }
  func.func private @S216(%arg0: index, %arg1: index, %arg2: index, %arg3: index, %arg4: memref<64x1024x14x14xf32>, %arg5: index, %arg6: index, %arg7: index, %arg8: memref<1024x256x1x1xf32>, %arg9: memref<64x256x14x14xf32>) attributes {scop.stmt} {
    %0 = affine.load %arg4[symbol(%arg0), symbol(%arg1), symbol(%arg2), symbol(%arg3)] : memref<64x1024x14x14xf32>
    %1 = affine.load %arg9[symbol(%arg0), symbol(%arg5), symbol(%arg2) + symbol(%arg6), symbol(%arg3) + symbol(%arg7)] : memref<64x256x14x14xf32>
    %2 = affine.load %arg8[symbol(%arg1), symbol(%arg5), symbol(%arg6), symbol(%arg7)] : memref<1024x256x1x1xf32>
    %3 = arith.mulf %1, %2 : f32
    %4 = arith.addf %0, %3 : f32
    affine.store %4, %arg4[symbol(%arg0), symbol(%arg1), symbol(%arg2), symbol(%arg3)] : memref<64x1024x14x14xf32>
    return
  }
  func.func private @S217(%arg0: index, %arg1: index, %arg2: index, %arg3: index, %arg4: memref<64x1024x14x14xf32>, %arg5: memref<64x1024x14x14xf32>) attributes {scop.stmt} {
    %cst = arith.constant 0.000000e+00 : f32
    %cst_0 = arith.constant 1.000000e+00 : f32
    %cst_1 = arith.constant 1.000000e-05 : f64
    %0 = affine.load %arg5[symbol(%arg0), symbol(%arg1), symbol(%arg2), symbol(%arg3)] : memref<64x1024x14x14xf32>
    %1 = arith.truncf %cst_1 : f64 to f32
    %2 = arith.addf %1, %cst_0 : f32
    %3 = math.rsqrt %2 : f32
    %4 = arith.mulf %0, %3 : f32
    %5 = arith.addf %4, %cst : f32
    affine.store %5, %arg4[symbol(%arg0), symbol(%arg1), symbol(%arg2), symbol(%arg3)] : memref<64x1024x14x14xf32>
    return
  }
  func.func private @S218(%arg0: index, %arg1: index, %arg2: index, %arg3: index, %arg4: memref<64x1024x14x14xf32>, %arg5: memref<64x1024x14x14xf32>, %arg6: memref<64x1024x14x14xf32>) attributes {scop.stmt} {
    %0 = affine.load %arg6[symbol(%arg0), symbol(%arg1), symbol(%arg2), symbol(%arg3)] : memref<64x1024x14x14xf32>
    %1 = affine.load %arg5[symbol(%arg0), symbol(%arg1), symbol(%arg2), symbol(%arg3)] : memref<64x1024x14x14xf32>
    %2 = arith.addf %0, %1 : f32
    affine.store %2, %arg4[symbol(%arg0), symbol(%arg1), symbol(%arg2), symbol(%arg3)] : memref<64x1024x14x14xf32>
    return
  }
  func.func private @S219(%arg0: index, %arg1: index, %arg2: index, %arg3: index, %arg4: memref<64x1024x14x14xf32>, %arg5: memref<64x1024x14x14xf32>) attributes {scop.stmt} {
    %cst = arith.constant 0.000000e+00 : f32
    %0 = affine.load %arg5[symbol(%arg0), symbol(%arg1), symbol(%arg2), symbol(%arg3)] : memref<64x1024x14x14xf32>
    %1 = arith.cmpf ugt, %0, %cst : f32
    %2 = arith.select %1, %0, %cst : f32
    affine.store %2, %arg4[symbol(%arg0), symbol(%arg1), symbol(%arg2), symbol(%arg3)] : memref<64x1024x14x14xf32>
    return
  }
  func.func private @S220(%arg0: index, %arg1: index, %arg2: index, %arg3: index, %arg4: memref<64x256x14x14xf32>, %arg5: index, %arg6: index, %arg7: index, %arg8: memref<256x1024x1x1xf32>, %arg9: memref<64x1024x14x14xf32>) attributes {scop.stmt} {
    %0 = affine.load %arg4[symbol(%arg0), symbol(%arg1), symbol(%arg2), symbol(%arg3)] : memref<64x256x14x14xf32>
    %1 = affine.load %arg9[symbol(%arg0), symbol(%arg5), symbol(%arg2) + symbol(%arg6), symbol(%arg3) + symbol(%arg7)] : memref<64x1024x14x14xf32>
    %2 = affine.load %arg8[symbol(%arg1), symbol(%arg5), symbol(%arg6), symbol(%arg7)] : memref<256x1024x1x1xf32>
    %3 = arith.mulf %1, %2 : f32
    %4 = arith.addf %0, %3 : f32
    affine.store %4, %arg4[symbol(%arg0), symbol(%arg1), symbol(%arg2), symbol(%arg3)] : memref<64x256x14x14xf32>
    return
  }
  func.func private @S221(%arg0: index, %arg1: index, %arg2: index, %arg3: index, %arg4: memref<64x256x14x14xf32>, %arg5: memref<64x256x14x14xf32>) attributes {scop.stmt} {
    %cst = arith.constant 0.000000e+00 : f32
    %cst_0 = arith.constant 1.000000e+00 : f32
    %cst_1 = arith.constant 1.000000e-05 : f64
    %0 = affine.load %arg5[symbol(%arg0), symbol(%arg1), symbol(%arg2), symbol(%arg3)] : memref<64x256x14x14xf32>
    %1 = arith.truncf %cst_1 : f64 to f32
    %2 = arith.addf %1, %cst_0 : f32
    %3 = math.rsqrt %2 : f32
    %4 = arith.mulf %0, %3 : f32
    %5 = arith.addf %4, %cst : f32
    affine.store %5, %arg4[symbol(%arg0), symbol(%arg1), symbol(%arg2), symbol(%arg3)] : memref<64x256x14x14xf32>
    return
  }
  func.func private @S222(%arg0: index, %arg1: index, %arg2: index, %arg3: index, %arg4: memref<64x256x14x14xf32>, %arg5: memref<64x256x14x14xf32>) attributes {scop.stmt} {
    %cst = arith.constant 0.000000e+00 : f32
    %0 = affine.load %arg5[symbol(%arg0), symbol(%arg1), symbol(%arg2), symbol(%arg3)] : memref<64x256x14x14xf32>
    %1 = arith.cmpf ugt, %0, %cst : f32
    %2 = arith.select %1, %0, %cst : f32
    affine.store %2, %arg4[symbol(%arg0), symbol(%arg1), symbol(%arg2), symbol(%arg3)] : memref<64x256x14x14xf32>
    return
  }
  func.func private @S223(%arg0: index, %arg1: index, %arg2: index, %arg3: index, %arg4: memref<64x256x16x16xf32>) attributes {scop.stmt} {
    %cst = arith.constant 0.000000e+00 : f32
    affine.store %cst, %arg4[symbol(%arg0), symbol(%arg1), symbol(%arg2), symbol(%arg3)] : memref<64x256x16x16xf32>
    return
  }
  func.func private @S224(%arg0: index, %arg1: index, %arg2: index, %arg3: index, %arg4: memref<64x256x14x14xf32>, %arg5: index, %arg6: index, %arg7: index, %arg8: memref<256x256x3x3xf32>, %arg9: memref<64x256x16x16xf32>) attributes {scop.stmt} {
    %0 = affine.load %arg4[symbol(%arg0), symbol(%arg1), symbol(%arg2), symbol(%arg3)] : memref<64x256x14x14xf32>
    %1 = affine.load %arg9[symbol(%arg0), symbol(%arg5), symbol(%arg2) + symbol(%arg6), symbol(%arg3) + symbol(%arg7)] : memref<64x256x16x16xf32>
    %2 = affine.load %arg8[symbol(%arg1), symbol(%arg5), symbol(%arg6), symbol(%arg7)] : memref<256x256x3x3xf32>
    %3 = arith.mulf %1, %2 : f32
    %4 = arith.addf %0, %3 : f32
    affine.store %4, %arg4[symbol(%arg0), symbol(%arg1), symbol(%arg2), symbol(%arg3)] : memref<64x256x14x14xf32>
    return
  }
  func.func private @S225(%arg0: index, %arg1: index, %arg2: index, %arg3: index, %arg4: memref<64x256x14x14xf32>, %arg5: memref<64x256x14x14xf32>) attributes {scop.stmt} {
    %cst = arith.constant 0.000000e+00 : f32
    %cst_0 = arith.constant 1.000000e+00 : f32
    %cst_1 = arith.constant 1.000000e-05 : f64
    %0 = affine.load %arg5[symbol(%arg0), symbol(%arg1), symbol(%arg2), symbol(%arg3)] : memref<64x256x14x14xf32>
    %1 = arith.truncf %cst_1 : f64 to f32
    %2 = arith.addf %1, %cst_0 : f32
    %3 = math.rsqrt %2 : f32
    %4 = arith.mulf %0, %3 : f32
    %5 = arith.addf %4, %cst : f32
    affine.store %5, %arg4[symbol(%arg0), symbol(%arg1), symbol(%arg2), symbol(%arg3)] : memref<64x256x14x14xf32>
    return
  }
  func.func private @S226(%arg0: index, %arg1: index, %arg2: index, %arg3: index, %arg4: memref<64x256x14x14xf32>, %arg5: memref<64x256x14x14xf32>) attributes {scop.stmt} {
    %cst = arith.constant 0.000000e+00 : f32
    %0 = affine.load %arg5[symbol(%arg0), symbol(%arg1), symbol(%arg2), symbol(%arg3)] : memref<64x256x14x14xf32>
    %1 = arith.cmpf ugt, %0, %cst : f32
    %2 = arith.select %1, %0, %cst : f32
    affine.store %2, %arg4[symbol(%arg0), symbol(%arg1), symbol(%arg2), symbol(%arg3)] : memref<64x256x14x14xf32>
    return
  }
  func.func private @S227(%arg0: index, %arg1: index, %arg2: index, %arg3: index, %arg4: memref<64x1024x14x14xf32>, %arg5: index, %arg6: index, %arg7: index, %arg8: memref<1024x256x1x1xf32>, %arg9: memref<64x256x14x14xf32>) attributes {scop.stmt} {
    %0 = affine.load %arg4[symbol(%arg0), symbol(%arg1), symbol(%arg2), symbol(%arg3)] : memref<64x1024x14x14xf32>
    %1 = affine.load %arg9[symbol(%arg0), symbol(%arg5), symbol(%arg2) + symbol(%arg6), symbol(%arg3) + symbol(%arg7)] : memref<64x256x14x14xf32>
    %2 = affine.load %arg8[symbol(%arg1), symbol(%arg5), symbol(%arg6), symbol(%arg7)] : memref<1024x256x1x1xf32>
    %3 = arith.mulf %1, %2 : f32
    %4 = arith.addf %0, %3 : f32
    affine.store %4, %arg4[symbol(%arg0), symbol(%arg1), symbol(%arg2), symbol(%arg3)] : memref<64x1024x14x14xf32>
    return
  }
  func.func private @S228(%arg0: index, %arg1: index, %arg2: index, %arg3: index, %arg4: memref<64x1024x14x14xf32>, %arg5: memref<64x1024x14x14xf32>) attributes {scop.stmt} {
    %cst = arith.constant 0.000000e+00 : f32
    %cst_0 = arith.constant 1.000000e+00 : f32
    %cst_1 = arith.constant 1.000000e-05 : f64
    %0 = affine.load %arg5[symbol(%arg0), symbol(%arg1), symbol(%arg2), symbol(%arg3)] : memref<64x1024x14x14xf32>
    %1 = arith.truncf %cst_1 : f64 to f32
    %2 = arith.addf %1, %cst_0 : f32
    %3 = math.rsqrt %2 : f32
    %4 = arith.mulf %0, %3 : f32
    %5 = arith.addf %4, %cst : f32
    affine.store %5, %arg4[symbol(%arg0), symbol(%arg1), symbol(%arg2), symbol(%arg3)] : memref<64x1024x14x14xf32>
    return
  }
  func.func private @S229(%arg0: index, %arg1: index, %arg2: index, %arg3: index, %arg4: memref<64x1024x14x14xf32>, %arg5: memref<64x1024x14x14xf32>, %arg6: memref<64x1024x14x14xf32>) attributes {scop.stmt} {
    %0 = affine.load %arg6[symbol(%arg0), symbol(%arg1), symbol(%arg2), symbol(%arg3)] : memref<64x1024x14x14xf32>
    %1 = affine.load %arg5[symbol(%arg0), symbol(%arg1), symbol(%arg2), symbol(%arg3)] : memref<64x1024x14x14xf32>
    %2 = arith.addf %0, %1 : f32
    affine.store %2, %arg4[symbol(%arg0), symbol(%arg1), symbol(%arg2), symbol(%arg3)] : memref<64x1024x14x14xf32>
    return
  }
  func.func private @S230(%arg0: index, %arg1: index, %arg2: index, %arg3: index, %arg4: memref<64x1024x14x14xf32>, %arg5: memref<64x1024x14x14xf32>) attributes {scop.stmt} {
    %cst = arith.constant 0.000000e+00 : f32
    %0 = affine.load %arg5[symbol(%arg0), symbol(%arg1), symbol(%arg2), symbol(%arg3)] : memref<64x1024x14x14xf32>
    %1 = arith.cmpf ugt, %0, %cst : f32
    %2 = arith.select %1, %0, %cst : f32
    affine.store %2, %arg4[symbol(%arg0), symbol(%arg1), symbol(%arg2), symbol(%arg3)] : memref<64x1024x14x14xf32>
    return
  }
  func.func private @S231(%arg0: index, %arg1: index, %arg2: index, %arg3: index, %arg4: memref<64x256x14x14xf32>, %arg5: index, %arg6: index, %arg7: index, %arg8: memref<256x1024x1x1xf32>, %arg9: memref<64x1024x14x14xf32>) attributes {scop.stmt} {
    %0 = affine.load %arg4[symbol(%arg0), symbol(%arg1), symbol(%arg2), symbol(%arg3)] : memref<64x256x14x14xf32>
    %1 = affine.load %arg9[symbol(%arg0), symbol(%arg5), symbol(%arg2) + symbol(%arg6), symbol(%arg3) + symbol(%arg7)] : memref<64x1024x14x14xf32>
    %2 = affine.load %arg8[symbol(%arg1), symbol(%arg5), symbol(%arg6), symbol(%arg7)] : memref<256x1024x1x1xf32>
    %3 = arith.mulf %1, %2 : f32
    %4 = arith.addf %0, %3 : f32
    affine.store %4, %arg4[symbol(%arg0), symbol(%arg1), symbol(%arg2), symbol(%arg3)] : memref<64x256x14x14xf32>
    return
  }
  func.func private @S232(%arg0: index, %arg1: index, %arg2: index, %arg3: index, %arg4: memref<64x256x14x14xf32>, %arg5: memref<64x256x14x14xf32>) attributes {scop.stmt} {
    %cst = arith.constant 0.000000e+00 : f32
    %cst_0 = arith.constant 1.000000e+00 : f32
    %cst_1 = arith.constant 1.000000e-05 : f64
    %0 = affine.load %arg5[symbol(%arg0), symbol(%arg1), symbol(%arg2), symbol(%arg3)] : memref<64x256x14x14xf32>
    %1 = arith.truncf %cst_1 : f64 to f32
    %2 = arith.addf %1, %cst_0 : f32
    %3 = math.rsqrt %2 : f32
    %4 = arith.mulf %0, %3 : f32
    %5 = arith.addf %4, %cst : f32
    affine.store %5, %arg4[symbol(%arg0), symbol(%arg1), symbol(%arg2), symbol(%arg3)] : memref<64x256x14x14xf32>
    return
  }
  func.func private @S233(%arg0: index, %arg1: index, %arg2: index, %arg3: index, %arg4: memref<64x256x14x14xf32>, %arg5: memref<64x256x14x14xf32>) attributes {scop.stmt} {
    %cst = arith.constant 0.000000e+00 : f32
    %0 = affine.load %arg5[symbol(%arg0), symbol(%arg1), symbol(%arg2), symbol(%arg3)] : memref<64x256x14x14xf32>
    %1 = arith.cmpf ugt, %0, %cst : f32
    %2 = arith.select %1, %0, %cst : f32
    affine.store %2, %arg4[symbol(%arg0), symbol(%arg1), symbol(%arg2), symbol(%arg3)] : memref<64x256x14x14xf32>
    return
  }
…
          }
        }
      }
    }
    call @set_frequency_caps(%c5000000_i64, %c4600000_i64) : (i64, i64) -> ()
    affine.for %arg1 = 0 to 64 {
      affine.for %arg2 = 0 to 1024 {
        affine.for %arg3 = 0 to 14 {
          affine.for %arg4 = 0 to 14 {
            func.call @S340(%arg1, %arg2, %arg3, %arg4, %alloc_190, %alloc_385) : (index, index, index, index, memref<64x1024x14x14xf32>, memref<64x1024x14x14xf32>) -> ()
          }
        }
      }
    }
    %alloc_386 = memref.alloc() {alignment = 64 : i64} : memref<64x256x14x14xf32>
    memref.copy %alloc_187, %alloc_386 : memref<64x256x14x14xf32> to memref<64x256x14x14xf32>
    call @set_frequency_caps(%c5000000_i64, %c799999_i64) : (i64, i64) -> ()
    affine.for %arg1 = 0 to 64 {
      affine.for %arg2 = 0 to 256 {
        affine.for %arg3 = 0 to 14 {
          affine.for %arg4 = 0 to 14 {
            affine.for %arg5 = 0 to 1024 {
              affine.for %arg6 = 0 to 1 {
                affine.for %arg7 = 0 to 1 {
                  func.call @S341(%arg1, %arg2, %arg3, %arg4, %alloc_386, %arg5, %arg6, %arg7, %alloc_13, %alloc_190) : (index, index, index, index, memref<64x256x14x14xf32>, index, index, index, memref<256x1024x1x1xf32>, memref<64x1024x14x14xf32>) -> ()
                }
              }
            }
          }
        }
      }
    }
    %alloc_387 = memref.alloc() {alignment = 64 : i64} : memref<64x256x14x14xf32>
    call @set_frequency_caps(%c5000000_i64, %c4600000_i64) : (i64, i64) -> ()
    affine.for %arg1 = 0 to 64 {
      affine.for %arg2 = 0 to 256 {
        affine.for %arg3 = 0 to 14 {
          affine.for %arg4 = 0 to 14 {
            func.call @S342(%arg1, %arg2, %arg3, %arg4, %alloc_387, %alloc_386) : (index, index, index, index, memref<64x256x14x14xf32>, memref<64x256x14x14xf32>) -> ()
          }
        }
      }
    }
    call @set_frequency_caps(%c5000000_i64, %c4600000_i64) : (i64, i64) -> ()
    affine.for %arg1 = 0 to 64 {
      affine.for %arg2 = 0 to 256 {
        affine.for %arg3 = 0 to 14 {
          affine.for %arg4 = 0 to 14 {
            func.call @S343(%arg1, %arg2, %arg3, %arg4, %alloc_186, %alloc_387) : (index, index, index, index, memref<64x256x14x14xf32>, memref<64x256x14x14xf32>) -> ()
          }
        }
      }
    }
    %alloc_388 = memref.alloc() {alignment = 64 : i64} : memref<64x256x16x16xf32>
    call @set_frequency_caps(%c5000000_i64, %c4600000_i64) : (i64, i64) -> ()
    affine.for %arg1 = 0 to 64 {
      affine.for %arg2 = 0 to 256 {
        affine.for %arg3 = 0 to 16 {
          affine.for %arg4 = 0 to 16 {
            func.call @S344(%arg1, %arg2, %arg3, %arg4, %alloc_388) : (index, index, index, index, memref<64x256x16x16xf32>) -> ()
          }
        }
      }
    }
    %subview_389 = memref.subview %alloc_388[0, 0, 1, 1] [64, 256, 14, 14] [1, 1, 1, 1] : memref<64x256x16x16xf32> to memref<64x256x14x14xf32, strided<[65536, 256, 16, 1], offset: 17>>
    memref.copy %alloc_186, %subview_389 : memref<64x256x14x14xf32> to memref<64x256x14x14xf32, strided<[65536, 256, 16, 1], offset: 17>>
    call @set_frequency_caps(%c5000000_i64, %c799999_i64) : (i64, i64) -> ()
    affine.for %arg1 = 0 to 64 {
      affine.for %arg2 = 0 to 256 {
        affine.for %arg3 = 0 to 14 {
          affine.for %arg4 = 0 to 14 {
            affine.for %arg5 = 0 to 256 {
              affine.for %arg6 = 0 to 3 {
                affine.for %arg7 = 0 to 3 {
                  func.call @S345(%arg1, %arg2, %arg3, %arg4, %alloc_187, %arg5, %arg6, %arg7, %alloc_12, %alloc_388) : (index, index, index, index, memref<64x256x14x14xf32>, index, index, index, memref<256x256x3x3xf32>, memref<64x256x16x16xf32>) -> ()
                }
              }
            }
          }
        }
      }
    }
    %alloc_390 = memref.alloc() {alignment = 64 : i64} : memref<64x256x14x14xf32>
    call @set_frequency_caps(%c899999_i64, %c4600000_i64) : (i64, i64) -> ()
    affine.for %arg1 = 0 to 64 {
      affine.for %arg2 = 0 to 256 {
        affine.for %arg3 = 0 to 14 {
          affine.for %arg4 = 0 to 14 {
            func.call @S346(%arg1, %arg2, %arg3, %arg4, %alloc_390, %alloc_187) : (index, index, index, index, memref<64x256x14x14xf32>, memref<64x256x14x14xf32>) -> ()
          }
        }
      }
    }
    call @set_frequency_caps(%c5000000_i64, %c4600000_i64) : (i64, i64) -> ()
    affine.for %arg1 = 0 to 64 {
      affine.for %arg2 = 0 to 256 {
        affine.for %arg3 = 0 to 14 {
          affine.for %arg4 = 0 to 14 {
            func.call @S347(%arg1, %arg2, %arg3, %arg4, %alloc_186, %alloc_390) : (index, index, index, index, memref<64x256x14x14xf32>, memref<64x256x14x14xf32>) -> ()
          }
        }
      }
    }
    call @set_frequency_caps(%c5000000_i64, %c800000_i64) : (i64, i64) -> ()
    affine.for %arg1 = 0 to 64 {
      affine.for %arg2 = 0 to 1024 {
        affine.for %arg3 = 0 to 14 {
          affine.for %arg4 = 0 to 14 {
            affine.for %arg5 = 0 to 256 {
              affine.for %arg6 = 0 to 1 {
                affine.for %arg7 = 0 to 1 {
                  func.call @S348(%arg1, %arg2, %arg3, %arg4, %alloc_191, %arg5, %arg6, %arg7, %alloc_11, %alloc_186) : (index, index, index, index, memref<64x1024x14x14xf32>, index, index, index, memref<1024x256x1x1xf32>, memref<64x256x14x14xf32>) -> ()
                }
              }
            }
          }
        }
      }
    }
    %alloc_391 = memref.alloc() {alignment = 64 : i64} : memref<64x1024x14x14xf32>
    call @set_frequency_caps(%c5000000_i64, %c4600000_i64) : (i64, i64) -> ()
    affine.for %arg1 = 0 to 64 {
      affine.for %arg2 = 0 to 1024 {
        affine.for %arg3 = 0 to 14 {
          affine.for %arg4 = 0 to 14 {
            func.call @S349(%arg1, %arg2, %arg3, %arg4, %alloc_391, %alloc_191) : (index, index, index, index, memref<64x1024x14x14xf32>, memref<64x1024x14x14xf32>) -> ()
          }
        }
      }
    }
    %alloc_392 = memref.alloc() {alignment = 64 : i64} : memref<64x1024x14x14xf32>
    call @set_frequency_caps(%c5000000_i64, %c4600000_i64) : (i64, i64) -> ()
    affine.for %arg1 = 0 to 64 {
      affine.for %arg2 = 0 to 1024 {
        affine.for %arg3 = 0 to 14 {
          affine.for %arg4 = 0 to 14 {
            func.call @S350(%arg1, %arg2, %arg3, %arg4, %alloc_392, %alloc_190, %alloc_391) : (index, index, index, index, memref<64x1024x14x14xf32>, memref<64x1024x14x14xf32>, memref<64x1024x14x14xf32>) -> ()
          }
        }
      }
    }
    call @set_frequency_caps(%c5000000_i64, %c4600000_i64) : (i64, i64) -> ()
    affine.for %arg1 = 0 to 64 {
      affine.for %arg2 = 0 to 1024 {
        affine.for %arg3 = 0 to 14 {
          affine.for %arg4 = 0 to 14 {
            func.call @S351(%arg1, %arg2, %arg3, %arg4, %alloc_190, %alloc_392) : (index, index, index, index, memref<64x1024x14x14xf32>, memref<64x1024x14x14xf32>) -> ()
          }
        }
      }
    }
    %alloc_393 = memref.alloc() {alignment = 64 : i64} : memref<64x512x14x14xf32>
    call @set_frequency_caps(%c5000000_i64, %c4600000_i64) : (i64, i64) -> ()
    affine.for %arg1 = 0 to 64 {
      affine.for %arg2 = 0 to 512 {
        affine.for %arg3 = 0 to 14 {
          affine.for %arg4 = 0 to 14 {
            func.call @S352(%arg1, %arg2, %arg3, %arg4, %alloc_393) : (index, index, index, index, memref<64x512x14x14xf32>) -> ()
          }
        }
      }
    }
    call @set_frequency_caps(%c5000000_i64, %c799999_i64) : (i64, i64) -> ()
    affine.for %arg1 = 0 to 64 {
      affine.for %arg2 = 0 to 512 {
        affine.for %arg3 = 0 to 14 {
          affine.for %arg4 = 0 to 14 {
            affine.for %arg5 = 0 to 1024 {
              affine.for %arg6 = 0 to 1 {
                affine.for %arg7 = 0 to 1 {
                  func.call @S353(%arg1, %arg2, %arg3, %arg4, %alloc_393, %arg5, %arg6, %arg7, %alloc_10, %alloc_190) : (index, index, index, index, memref<64x512x14x14xf32>, index, index, index, memref<512x1024x1x1xf32>, memref<64x1024x14x14xf32>) -> ()
                }
              }
            }
          }
        }
      }
    }
    %alloc_394 = memref.alloc() {alignment = 64 : i64} : memref<64x512x14x14xf32>
    call @set_frequency_caps(%c5000000_i64, %c4600000_i64) : (i64, i64) -> ()
    affine.for %arg1 = 0 to 64 {
      affine.for %arg2 = 0 to 512 {
        affine.for %arg3 = 0 to 14 {
          affine.for %arg4 = 0 to 14 {
            func.call @S354(%arg1, %arg2, %arg3, %arg4, %alloc_394, %alloc_393) : (index, index, index, index, memref<64x512x14x14xf32>, memref<64x512x14x14xf32>) -> ()
          }
        }
      }
    }
    call @set_frequency_caps(%c5000000_i64, %c4600000_i64) : (i64, i64) -> ()
    affine.for %arg1 = 0 to 64 {
      affine.for %arg2 = 0 to 512 {
        affine.for %arg3 = 0 to 14 {
          affine.for %arg4 = 0 to 14 {
            func.call @S355(%arg1, %arg2, %arg3, %arg4, %alloc_393, %alloc_394) : (index, index, index, index, memref<64x512x14x14xf32>, memref<64x512x14x14xf32>) -> ()
          }
        }
      }
    }
    %alloc_395 = memref.alloc() {alignment = 64 : i64} : memref<64x512x16x16xf32>
    call @set_frequency_caps(%c5000000_i64, %c4600000_i64) : (i64, i64) -> ()
    affine.for %arg1 = 0 to 64 {
      affine.for %arg2 = 0 to 512 {
        affine.for %arg3 = 0 to 16 {
          affine.for %arg4 = 0 to 16 {
            func.call @S356(%arg1, %arg2, %arg3, %arg4, %alloc_395) : (index, index, index, index, memref<64x512x16x16xf32>) -> ()
          }
        }
      }
    }
    %subview_396 = memref.subview %alloc_395[0, 0, 1, 1] [64, 512, 14, 14] [1, 1, 1, 1] : memref<64x512x16x16xf32> to memref<64x512x14x14xf32, strided<[131072, 256, 16, 1], offset: 17>>
    memref.copy %alloc_393, %subview_396 : memref<64x512x14x14xf32> to memref<64x512x14x14xf32, strided<[131072, 256, 16, 1], offset: 17>>
    %alloc_397 = memref.alloc() {alignment = 64 : i64} : memref<64x512x7x7xf32>
    %alloc_398 = memref.alloc() {alignment = 64 : i64} : memref<64x512x7x7xf32>
    call @set_frequency_caps(%c5000000_i64, %c4600000_i64) : (i64, i64) -> ()
    affine.for %arg1 = 0 to 64 {
      affine.for %arg2 = 0 to 512 {
        affine.for %arg3 = 0 to 7 {
          affine.for %arg4 = 0 to 7 {
            func.call @S357(%arg1, %arg2, %arg3, %arg4, %alloc_398) : (index, index, index, index, memref<64x512x7x7xf32>) -> ()
          }
        }
      }
    }
    %alloc_399 = memref.alloc() {alignment = 64 : i64} : memref<64x512x7x7xf32>
    memref.copy %alloc_398, %alloc_399 : memref<64x512x7x7xf32> to memref<64x512x7x7xf32>
    call @set_frequency_caps(%c5000000_i64, %c800000_i64) : (i64, i64) -> ()
    affine.for %arg1 = 0 to 64 {
      affine.for %arg2 = 0 to 512 {
        affine.for %arg3 = 0 to 7 {
          affine.for %arg4 = 0 to 7 {
            affine.for %arg5 = 0 to 512 {
              affine.for %arg6 = 0 to 3 {
                affine.for %arg7 = 0 to 3 {
                  func.call @S358(%arg1, %arg2, %arg3, %arg4, %alloc_399, %arg5, %arg6, %arg7, %alloc_9, %alloc_395) : (index, index, index, index, memref<64x512x7x7xf32>, index, index, index, memref<512x512x3x3xf32>, memref<64x512x16x16xf32>) -> ()
                }
              }
            }
          }
        }
      }
    }
    %alloc_400 = memref.alloc() {alignment = 64 : i64} : memref<64x512x7x7xf32>
    call @set_frequency_caps(%c5000000_i64, %c4600000_i64) : (i64, i64) -> ()
    affine.for %arg1 = 0 to 64 {
      affine.for %arg2 = 0 to 512 {
        affine.for %arg3 = 0 to 7 {
          affine.for %arg4 = 0 to 7 {
            func.call @S359(%arg1, %arg2, %arg3, %arg4, %alloc_400, %alloc_399) : (index, index, index, index, memref<64x512x7x7xf32>, memref<64x512x7x7xf32>) -> ()
          }
        }
      }
    }
    call @set_frequency_caps(%c5000000_i64, %c4600000_i64) : (i64, i64) -> ()
    affine.for %arg1 = 0 to 64 {
      affine.for %arg2 = 0 to 512 {
        affine.for %arg3 = 0 to 7 {
          affine.for %arg4 = 0 to 7 {
            func.call @S360(%arg1, %arg2, %arg3, %arg4, %alloc_397, %alloc_400) : (index, index, index, index, memref<64x512x7x7xf32>, memref<64x512x7x7xf32>) -> ()
          }
        }
      }
    }
    %alloc_401 = memref.alloc() {alignment = 64 : i64} : memref<64x2048x7x7xf32>
    %alloc_402 = memref.alloc() {alignment = 64 : i64} : memref<64x2048x7x7xf32>
    call @set_frequency_caps(%c5000000_i64, %c4600000_i64) : (i64, i64) -> ()
    affine.for %arg1 = 0 to 64 {
      affine.for %arg2 = 0 to 2048 {
        affine.for %arg3 = 0 to 7 {
          affine.for %arg4 = 0 to 7 {
            func.call @S361(%arg1, %arg2, %arg3, %arg4, %alloc_402) : (index, index, index, index, memref<64x2048x7x7xf32>) -> ()
          }
        }
      }
    }
    %alloc_403 = memref.alloc() {alignment = 64 : i64} : memref<64x2048x7x7xf32>
    memref.copy %alloc_402, %alloc_403 : memref<64x2048x7x7xf32> to memref<64x2048x7x7xf32>
    call @set_frequency_caps(%c5000000_i64, %c799999_i64) : (i64, i64) -> ()
    affine.for %arg1 = 0 to 64 {
      affine.for %arg2 = 0 to 2048 {
        affine.for %arg3 = 0 to 7 {
          affine.for %arg4 = 0 to 7 {
            affine.for %arg5 = 0 to 512 {
              affine.for %arg6 = 0 to 1 {
                affine.for %arg7 = 0 to 1 {
                  func.call @S362(%arg1, %arg2, %arg3, %arg4, %alloc_403, %arg5, %arg6, %arg7, %alloc_8, %alloc_397) : (index, index, index, index, memref<64x2048x7x7xf32>, index, index, index, memref<2048x512x1x1xf32>, memref<64x512x7x7xf32>) -> ()
                }
              }
            }
          }
        }
      }
    }
    %alloc_404 = memref.alloc() {alignment = 64 : i64} : memref<64x2048x7x7xf32>
    call @set_frequency_caps(%c5000000_i64, %c4600000_i64) : (i64, i64) -> ()
    affine.for %arg1 = 0 to 64 {
      affine.for %arg2 = 0 to 2048 {
        affine.for %arg3 = 0 to 7 {
          affine.for %arg4 = 0 to 7 {
            func.call @S363(%arg1, %arg2, %arg3, %arg4, %alloc_404, %alloc_403) : (index, index, index, index, memref<64x2048x7x7xf32>, memref<64x2048x7x7xf32>) -> ()
          }
        }
      }
    }
    %alloc_405 = memref.alloc() {alignment = 64 : i64} : memref<64x2048x7x7xf32>
    memref.copy %alloc_402, %alloc_405 : memref<64x2048x7x7xf32> to memref<64x2048x7x7xf32>
    call @set_frequency_caps(%c5000000_i64, %c799999_i64) : (i64, i64) -> ()
    affine.for %arg1 = 0 to 64 {
      affine.for %arg2 = 0 to 2048 {
        affine.for %arg3 = 0 to 7 {
          affine.for %arg4 = 0 to 7 {
            affine.for %arg5 = 0 to 1024 {
              affine.for %arg6 = 0 to 1 {
                affine.for %arg7 = 0 to 1 {
                  func.call @S364(%arg1, %arg2, %arg3, %arg4, %alloc_405, %arg5, %arg6, %arg7, %alloc_7, %alloc_190) : (index, index, index, index, memref<64x2048x7x7xf32>, index, index, index, memref<2048x1024x1x1xf32>, memref<64x1024x14x14xf32>) -> ()
                }
              }
            }
          }
        }
      }
    }
    %alloc_406 = memref.alloc() {alignment = 64 : i64} : memref<64x2048x7x7xf32>
    call @set_frequency_caps(%c5000000_i64, %c4600000_i64) : (i64, i64) -> ()
    affine.for %arg1 = 0 to 64 {
      affine.for %arg2 = 0 to 2048 {
        affine.for %arg3 = 0 to 7 {
          affine.for %arg4 = 0 to 7 {
            func.call @S365(%arg1, %arg2, %arg3, %arg4, %alloc_406, %alloc_405) : (index, index, index, index, memref<64x2048x7x7xf32>, memref<64x2048x7x7xf32>) -> ()
          }
        }
      }
    }
    %alloc_407 = memref.alloc() {alignment = 64 : i64} : memref<64x2048x7x7xf32>
    call @set_frequency_caps(%c5000000_i64, %c4600000_i64) : (i64, i64) -> ()
    affine.for %arg1 = 0 to 64 {
      affine.for %arg2 = 0 to 2048 {
        affine.for %arg3 = 0 to 7 {
          affine.for %arg4 = 0 to 7 {
            func.call @S366(%arg1, %arg2, %arg3, %arg4, %alloc_407, %alloc_406, %alloc_404) : (index, index, index, index, memref<64x2048x7x7xf32>, memref<64x2048x7x7xf32>, memref<64x2048x7x7xf32>) -> ()
          }
        }
      }
    }
    call @set_frequency_caps(%c899999_i64, %c4600000_i64) : (i64, i64) -> ()
    affine.for %arg1 = 0 to 64 {
      affine.for %arg2 = 0 to 2048 {
        affine.for %arg3 = 0 to 7 {
          affine.for %arg4 = 0 to 7 {
            func.call @S367(%arg1, %arg2, %arg3, %arg4, %alloc_401, %alloc_407) : (index, index, index, index, memref<64x2048x7x7xf32>, memref<64x2048x7x7xf32>) -> ()
          }
        }
      }
    }
    %alloc_408 = memref.alloc() {alignment = 64 : i64} : memref<64x512x7x7xf32>
    memref.copy %alloc_398, %alloc_408 : memref<64x512x7x7xf32> to memref<64x512x7x7xf32>
    call @set_frequency_caps(%c5000000_i64, %c799999_i64) : (i64, i64) -> ()
    affine.for %arg1 = 0 to 64 {
      affine.for %arg2 = 0 to 512 {
        affine.for %arg3 = 0 to 7 {
          affine.for %arg4 = 0 to 7 {
            affine.for %arg5 = 0 to 2048 {
              affine.for %arg6 = 0 to 1 {
                affine.for %arg7 = 0 to 1 {
                  func.call @S368(%arg1, %arg2, %arg3, %arg4, %alloc_408, %arg5, %arg6, %arg7, %alloc_6, %alloc_401) : (index, index, index, index, memref<64x512x7x7xf32>, index, index, index, memref<512x2048x1x1xf32>, memref<64x2048x7x7xf32>) -> ()
                }
              }
            }
          }
        }
      }
    }
    %alloc_409 = memref.alloc() {alignment = 64 : i64} : memref<64x512x7x7xf32>
    call @set_frequency_caps(%c899999_i64, %c4600000_i64) : (i64, i64) -> ()
    affine.for %arg1 = 0 to 64 {
      affine.for %arg2 = 0 to 512 {
        affine.for %arg3 = 0 to 7 {
          affine.for %arg4 = 0 to 7 {
            func.call @S369(%arg1, %arg2, %arg3, %arg4, %alloc_409, %alloc_408) : (index, index, index, index, memref<64x512x7x7xf32>, memref<64x512x7x7xf32>) -> ()
          }
        }
      }
    }
    call @set_frequency_caps(%c5000000_i64, %c4600000_i64) : (i64, i64) -> ()
    affine.for %arg1 = 0 to 64 {
      affine.for %arg2 = 0 to 512 {
        affine.for %arg3 = 0 to 7 {
          affine.for %arg4 = 0 to 7 {
            func.call @S370(%arg1, %arg2, %arg3, %arg4, %alloc_397, %alloc_409) : (index, index, index, index, memref<64x512x7x7xf32>, memref<64x512x7x7xf32>) -> ()
          }
        }
      }
    }
    %alloc_410 = memref.alloc() {alignment = 64 : i64} : memref<64x512x9x9xf32>
    call @set_frequency_caps(%c5000000_i64, %c4600000_i64) : (i64, i64) -> ()
    affine.for %arg1 = 0 to 64 {
      affine.for %arg2 = 0 to 512 {
        affine.for %arg3 = 0 to 9 {
          affine.for %arg4 = 0 to 9 {
            func.call @S371(%arg1, %arg2, %arg3, %arg4, %alloc_410) : (index, index, index, index, memref<64x512x9x9xf32>) -> ()
          }
        }
      }
    }
    %subview_411 = memref.subview %alloc_410[0, 0, 1, 1] [64, 512, 7, 7] [1, 1, 1, 1] : memref<64x512x9x9xf32> to memref<64x512x7x7xf32, strided<[41472, 81, 9, 1], offset: 10>>
    memref.copy %alloc_397, %subview_411 : memref<64x512x7x7xf32> to memref<64x512x7x7xf32, strided<[41472, 81, 9, 1], offset: 10>>
    %alloc_412 = memref.alloc() {alignment = 64 : i64} : memref<64x512x7x7xf32>
    memref.copy %alloc_398, %alloc_412 : memref<64x512x7x7xf32> to memref<64x512x7x7xf32>
    call @set_frequency_caps(%c5000000_i64, %c799999_i64) : (i64, i64) -> ()
    affine.for %arg1 = 0 to 64 {
      affine.for %arg2 = 0 to 512 {
        affine.for %arg3 = 0 to 7 {
          affine.for %arg4 = 0 to 7 {
            affine.for %arg5 = 0 to 512 {
              affine.for %arg6 = 0 to 3 {
                affine.for %arg7 = 0 to 3 {
                  func.call @S372(%arg1, %arg2, %arg3, %arg4, %alloc_412, %arg5, %arg6, %arg7, %alloc_5, %alloc_410) : (index, index, index, index, memref<64x512x7x7xf32>, index, index, index, memref<512x512x3x3xf32>, memref<64x512x9x9xf32>) -> ()
                }
              }
            }
          }
        }
      }
    }
    %alloc_413 = memref.alloc() {alignment = 64 : i64} : memref<64x512x7x7xf32>
    call @set_frequency_caps(%c899999_i64, %c4600000_i64) : (i64, i64) -> ()
    affine.for %arg1 = 0 to 64 {
      affine.for %arg2 = 0 to 512 {
        affine.for %arg3 = 0 to 7 {
          affine.for %arg4 = 0 to 7 {
            func.call @S373(%arg1, %arg2, %arg3, %arg4, %alloc_413, %alloc_412) : (index, index, index, index, memref<64x512x7x7xf32>, memref<64x512x7x7xf32>) -> ()
          }
        }
      }
    }
    call @set_frequency_caps(%c5000000_i64, %c4600000_i64) : (i64, i64) -> ()
    affine.for %arg1 = 0 to 64 {
      affine.for %arg2 = 0 to 512 {
        affine.for %arg3 = 0 to 7 {
          affine.for %arg4 = 0 to 7 {
            func.call @S374(%arg1, %arg2, %arg3, %arg4, %alloc_397, %alloc_413) : (index, index, index, index, memref<64x512x7x7xf32>, memref<64x512x7x7xf32>) -> ()
          }
        }
      }
    }
    %alloc_414 = memref.alloc() {alignment = 64 : i64} : memref<64x2048x7x7xf32>
    memref.copy %alloc_402, %alloc_414 : memref<64x2048x7x7xf32> to memref<64x2048x7x7xf32>
    call @set_frequency_caps(%c5000000_i64, %c799999_i64) : (i64, i64) -> ()
    affine.for %arg1 = 0 to 64 {
      affine.for %arg2 = 0 to 2048 {
        affine.for %arg3 = 0 to 7 {
          affine.for %arg4 = 0 to 7 {
            affine.for %arg5 = 0 to 512 {
              affine.for %arg6 = 0 to 1 {
                affine.for %arg7 = 0 to 1 {
                  func.call @S375(%arg1, %arg2, %arg3, %arg4, %alloc_414, %arg5, %arg6, %arg7, %alloc_4, %alloc_397) : (index, index, index, index, memref<64x2048x7x7xf32>, index, index, index, memref<2048x512x1x1xf32>, memref<64x512x7x7xf32>) -> ()
                }
              }
            }
          }
        }
      }
    }
    %alloc_415 = memref.alloc() {alignment = 64 : i64} : memref<64x2048x7x7xf32>
    call @set_frequency_caps(%c5000000_i64, %c4600000_i64) : (i64, i64) -> ()
    affine.for %arg1 = 0 to 64 {
      affine.for %arg2 = 0 to 2048 {
        affine.for %arg3 = 0 to 7 {
          affine.for %arg4 = 0 to 7 {
            func.call @S376(%arg1, %arg2, %arg3, %arg4, %alloc_415, %alloc_414) : (index, index, index, index, memref<64x2048x7x7xf32>, memref<64x2048x7x7xf32>) -> ()
          }
        }
      }
    }
    %alloc_416 = memref.alloc() {alignment = 64 : i64} : memref<64x2048x7x7xf32>
    call @set_frequency_caps(%c5000000_i64, %c4600000_i64) : (i64, i64) -> ()
    affine.for %arg1 = 0 to 64 {
      affine.for %arg2 = 0 to 2048 {
        affine.for %arg3 = 0 to 7 {
          affine.for %arg4 = 0 to 7 {
            func.call @S377(%arg1, %arg2, %arg3, %arg4, %alloc_416, %alloc_401, %alloc_415) : (index, index, index, index, memref<64x2048x7x7xf32>, memref<64x2048x7x7xf32>, memref<64x2048x7x7xf32>) -> ()
          }
        }
      }
    }
    call @set_frequency_caps(%c899999_i64, %c4600000_i64) : (i64, i64) -> ()
    affine.for %arg1 = 0 to 64 {
      affine.for %arg2 = 0 to 2048 {
        affine.for %arg3 = 0 to 7 {
          affine.for %arg4 = 0 to 7 {
            func.call @S378(%arg1, %arg2, %arg3, %arg4, %alloc_401, %alloc_416) : (index, index, index, index, memref<64x2048x7x7xf32>, memref<64x2048x7x7xf32>) -> ()
          }
        }
      }
    }
    %alloc_417 = memref.alloc() {alignment = 64 : i64} : memref<64x512x7x7xf32>
    memref.copy %alloc_398, %alloc_417 : memref<64x512x7x7xf32> to memref<64x512x7x7xf32>
    call @set_frequency_caps(%c5000000_i64, %c799999_i64) : (i64, i64) -> ()
    affine.for %arg1 = 0 to 64 {
      affine.for %arg2 = 0 to 512 {
        affine.for %arg3 = 0 to 7 {
          affine.for %arg4 = 0 to 7 {
            affine.for %arg5 = 0 to 2048 {
              affine.for %arg6 = 0 to 1 {
                affine.for %arg7 = 0 to 1 {
                  func.call @S379(%arg1, %arg2, %arg3, %arg4, %alloc_417, %arg5, %arg6, %arg7, %alloc_3, %alloc_401) : (index, index, index, index, memref<64x512x7x7xf32>, index, index, index, memref<512x2048x1x1xf32>, memref<64x2048x7x7xf32>) -> ()
                }
              }
            }
          }
        }
      }
    }
    %alloc_418 = memref.alloc() {alignment = 64 : i64} : memref<64x512x7x7xf32>
    call @set_frequency_caps(%c899999_i64, %c4600000_i64) : (i64, i64) -> ()
    affine.for %arg1 = 0 to 64 {
      affine.for %arg2 = 0 to 512 {
        affine.for %arg3 = 0 to 7 {
          affine.for %arg4 = 0 to 7 {
            func.call @S380(%arg1, %arg2, %arg3, %arg4, %alloc_418, %alloc_417) : (index, index, index, index, memref<64x512x7x7xf32>, memref<64x512x7x7xf32>) -> ()
          }
        }
      }
    }
    call @set_frequency_caps(%c5000000_i64, %c4600000_i64) : (i64, i64) -> ()
    affine.for %arg1 = 0 to 64 {
      affine.for %arg2 = 0 to 512 {
        affine.for %arg3 = 0 to 7 {
          affine.for %arg4 = 0 to 7 {
            func.call @S381(%arg1, %arg2, %arg3, %arg4, %alloc_397, %alloc_418) : (index, index, index, index, memref<64x512x7x7xf32>, memref<64x512x7x7xf32>) -> ()
          }
        }
      }
    }
    %alloc_419 = memref.alloc() {alignment = 64 : i64} : memref<64x512x9x9xf32>
    call @set_frequency_caps(%c5000000_i64, %c4600000_i64) : (i64, i64) -> ()
    affine.for %arg1 = 0 to 64 {
      affine.for %arg2 = 0 to 512 {
        affine.for %arg3 = 0 to 9 {
          affine.for %arg4 = 0 to 9 {
            func.call @S382(%arg1, %arg2, %arg3, %arg4, %alloc_419) : (index, index, index, index, memref<64x512x9x9xf32>) -> ()
          }
        }
      }
    }
    %subview_420 = memref.subview %alloc_419[0, 0, 1, 1] [64, 512, 7, 7] [1, 1, 1, 1] : memref<64x512x9x9xf32> to memref<64x512x7x7xf32, strided<[41472, 81, 9, 1], offset: 10>>
    memref.copy %alloc_397, %subview_420 : memref<64x512x7x7xf32> to memref<64x512x7x7xf32, strided<[41472, 81, 9, 1], offset: 10>>
    call @set_frequency_caps(%c5000000_i64, %c799999_i64) : (i64, i64) -> ()
    affine.for %arg1 = 0 to 64 {
      affine.for %arg2 = 0 to 512 {
        affine.for %arg3 = 0 to 7 {
          affine.for %arg4 = 0 to 7 {
            affine.for %arg5 = 0 to 512 {
              affine.for %arg6 = 0 to 3 {
                affine.for %arg7 = 0 to 3 {
                  func.call @S383(%arg1, %arg2, %arg3, %arg4, %alloc_398, %arg5, %arg6, %arg7, %alloc_2, %alloc_419) : (index, index, index, index, memref<64x512x7x7xf32>, index, index, index, memref<512x512x3x3xf32>, memref<64x512x9x9xf32>) -> ()
                }
              }
            }
          }
        }
      }
    }
    %alloc_421 = memref.alloc() {alignment = 64 : i64} : memref<64x512x7x7xf32>
    call @set_frequency_caps(%c899999_i64, %c4600000_i64) : (i64, i64) -> ()
    affine.for %arg1 = 0 to 64 {
      affine.for %arg2 = 0 to 512 {
        affine.for %arg3 = 0 to 7 {
          affine.for %arg4 = 0 to 7 {
            func.call @S384(%arg1, %arg2, %arg3, %arg4, %alloc_421, %alloc_398) : (index, index, index, index, memref<64x512x7x7xf32>, memref<64x512x7x7xf32>) -> ()
          }
        }
      }
    }
    call @set_frequency_caps(%c5000000_i64, %c4600000_i64) : (i64, i64) -> ()
    affine.for %arg1 = 0 to 64 {
      affine.for %arg2 = 0 to 512 {
        affine.for %arg3 = 0 to 7 {
          affine.for %arg4 = 0 to 7 {
            func.call @S385(%arg1, %arg2, %arg3, %arg4, %alloc_397, %alloc_421) : (index, index, index, index, memref<64x512x7x7xf32>, memref<64x512x7x7xf32>) -> ()
          }
        }
      }
    }
    call @set_frequency_caps(%c5000000_i64, %c799999_i64) : (i64, i64) -> ()
    affine.for %arg1 = 0 to 64 {
      affine.for %arg2 = 0 to 2048 {
        affine.for %arg3 = 0 to 7 {
          affine.for %arg4 = 0 to 7 {
            affine.for %arg5 = 0 to 512 {
              affine.for %arg6 = 0 to 1 {
                affine.for %arg7 = 0 to 1 {
                  func.call @S386(%arg1, %arg2, %arg3, %arg4, %alloc_402, %arg5, %arg6, %arg7, %alloc_1, %alloc_397) : (index, index, index, index, memref<64x2048x7x7xf32>, index, index, index, memref<2048x512x1x1xf32>, memref<64x512x7x7xf32>) -> ()
                }
              }
            }
          }
        }
      }
    }
    %alloc_422 = memref.alloc() {alignment = 64 : i64} : memref<64x2048x7x7xf32>
    call @set_frequency_caps(%c5000000_i64, %c4600000_i64) : (i64, i64) -> ()
    affine.for %arg1 = 0 to 64 {
      affine.for %arg2 = 0 to 2048 {
        affine.for %arg3 = 0 to 7 {
          affine.for %arg4 = 0 to 7 {
            func.call @S387(%arg1, %arg2, %arg3, %arg4, %alloc_422, %alloc_402) : (index, index, index, index, memref<64x2048x7x7xf32>, memref<64x2048x7x7xf32>) -> ()
          }
        }
      }
    }
    %alloc_423 = memref.alloc() {alignment = 64 : i64} : memref<64x2048x7x7xf32>
    call @set_frequency_caps(%c5000000_i64, %c4600000_i64) : (i64, i64) -> ()
    affine.for %arg1 = 0 to 64 {
      affine.for %arg2 = 0 to 2048 {
        affine.for %arg3 = 0 to 7 {
          affine.for %arg4 = 0 to 7 {
            func.call @S388(%arg1, %arg2, %arg3, %arg4, %alloc_423, %alloc_401, %alloc_422) : (index, index, index, index, memref<64x2048x7x7xf32>, memref<64x2048x7x7xf32>, memref<64x2048x7x7xf32>) -> ()
          }
        }
      }
    }
    call @set_frequency_caps(%c899999_i64, %c4600000_i64) : (i64, i64) -> ()
    affine.for %arg1 = 0 to 64 {
      affine.for %arg2 = 0 to 2048 {
        affine.for %arg3 = 0 to 7 {
          affine.for %arg4 = 0 to 7 {
            func.call @S389(%arg1, %arg2, %arg3, %arg4, %alloc_401, %alloc_423) : (index, index, index, index, memref<64x2048x7x7xf32>, memref<64x2048x7x7xf32>) -> ()
          }
        }
      }
    }
    %alloc_424 = memref.alloc() {alignment = 64 : i64} : memref<64x2048x1x1xf32>
    %alloc_425 = memref.alloc() {alignment = 64 : i64} : memref<64x2048x1x1xf32>
    call @set_frequency_caps(%c5000000_i64, %c4600000_i64) : (i64, i64) -> ()
    affine.for %arg1 = 0 to 64 {
      affine.for %arg2 = 0 to 2048 {
        affine.for %arg3 = 0 to 1 {
          affine.for %arg4 = 0 to 1 {
            func.call @S390(%arg1, %arg2, %arg3, %arg4, %alloc_425) : (index, index, index, index, memref<64x2048x1x1xf32>) -> ()
          }
        }
      }
    }
    call @set_frequency_caps(%c5000000_i64, %c4600000_i64) : (i64, i64) -> ()
    affine.for %arg1 = 0 to 64 {
      affine.for %arg2 = 0 to 2048 {
        affine.for %arg3 = 0 to 1 {
          affine.for %arg4 = 0 to 1 {
            affine.for %arg5 = 0 to 7 {
              affine.for %arg6 = 0 to 7 {
                func.call @S391(%arg1, %arg2, %arg3, %arg4, %alloc_425, %arg5, %arg6, %alloc_401) : (index, index, index, index, memref<64x2048x1x1xf32>, index, index, memref<64x2048x7x7xf32>) -> ()
              }
            }
          }
        }
      }
    }
    call @set_frequency_caps(%c5000000_i64, %c4600000_i64) : (i64, i64) -> ()
    affine.for %arg1 = 0 to 64 {
      affine.for %arg2 = 0 to 2048 {
        affine.for %arg3 = 0 to 1 {
          affine.for %arg4 = 0 to 1 {
            func.call @S392(%arg1, %arg2, %arg3, %arg4, %alloc_424, %alloc_425) : (index, index, index, index, memref<64x2048x1x1xf32>, memref<64x2048x1x1xf32>) -> ()
          }
        }
      }
    }
    %alloc_426 = memref.alloc() : memref<64x2048xf32>
    %collapse_shape = memref.collapse_shape %alloc_424 [[0], [1, 2, 3]] : memref<64x2048x1x1xf32> into memref<64x2048xf32>
    affine.for %arg1 = 0 to 64 {
      affine.for %arg2 = 0 to 2048 {
        %0 = memref.load %collapse_shape[%arg1, %arg2] : memref<64x2048xf32>
        memref.store %0, %alloc_426[%arg1, %arg2] : memref<64x2048xf32>
      }
    }
    %alloc_427 = memref.alloc() {alignment = 64 : i64} : memref<2048x1000xf32>
    call @set_frequency_caps(%c5000000_i64, %c4600000_i64) : (i64, i64) -> ()
    affine.for %arg1 = 0 to 1000 {
      affine.for %arg2 = 0 to 2048 {
        func.call @S393(%arg2, %arg1, %alloc_427, %alloc) : (index, index, memref<2048x1000xf32>, memref<1000x2048xf32>) -> ()
      }
    }
    %alloc_428 = memref.alloc() {alignment = 64 : i64} : memref<64x1000xf32>
    %alloc_429 = memref.alloc() {alignment = 64 : i64} : memref<64x1000xf32>
    call @set_frequency_caps(%c5000000_i64, %c4600000_i64) : (i64, i64) -> ()
    affine.for %arg1 = 0 to 64 {
      affine.for %arg2 = 0 to 1000 {
        func.call @S394(%arg1, %arg2, %alloc_429) : (index, index, memref<64x1000xf32>) -> ()
      }
    }
    call @set_frequency_caps(%c5000000_i64, %c799999_i64) : (i64, i64) -> ()
    affine.for %arg1 = 0 to 64 {
      affine.for %arg2 = 0 to 1000 {
        affine.for %arg3 = 0 to 2048 {
          func.call @S395(%arg1, %arg2, %alloc_429, %arg3, %alloc_427, %alloc_426) : (index, index, memref<64x1000xf32>, index, memref<2048x1000xf32>, memref<64x2048xf32>) -> ()
        }
      }
    }
    call @set_frequency_caps(%c5000000_i64, %c4600000_i64) : (i64, i64) -> ()
    affine.for %arg1 = 0 to 64 {
      affine.for %arg2 = 0 to 1000 {
        func.call @S396(%arg1, %arg2, %alloc_428, %alloc_0, %alloc_429) : (index, index, memref<64x1000xf32>, memref<1000xf32>, memref<64x1000xf32>) -> ()
      }
    }
    memref.dealloc %alloc_106 : memref<64x64x112x112xf32>
    memref.dealloc %alloc_107 : memref<64x64x112x112xf32>
    memref.dealloc %alloc_110 : memref<64x64x56x56xf32>
    memref.dealloc %alloc_111 : memref<64x64x56x56xf32>
    memref.dealloc %alloc_112 : memref<64x64x56x56xf32>
    memref.dealloc %alloc_113 : memref<64x64x56x56xf32>
    memref.dealloc %alloc_114 : memref<64x64x56x56xf32>
    memref.dealloc %alloc_117 : memref<64x64x56x56xf32>
    memref.dealloc %alloc_118 : memref<64x64x56x56xf32>
    memref.dealloc %alloc_119 : memref<64x256x56x56xf32>
    memref.dealloc %alloc_120 : memref<64x256x56x56xf32>
    memref.dealloc %alloc_121 : memref<64x256x56x56xf32>
    memref.dealloc %alloc_122 : memref<64x256x56x56xf32>
    memref.dealloc %alloc_123 : memref<64x256x56x56xf32>
    memref.dealloc %alloc_124 : memref<64x256x56x56xf32>
    memref.dealloc %alloc_125 : memref<64x256x56x56xf32>
    memref.dealloc %alloc_126 : memref<64x64x56x56xf32>
    memref.dealloc %alloc_127 : memref<64x64x56x56xf32>
    memref.dealloc %alloc_130 : memref<64x64x56x56xf32>
    memref.dealloc %alloc_131 : memref<64x64x56x56xf32>
    memref.dealloc %alloc_132 : memref<64x256x56x56xf32>
    memref.dealloc %alloc_133 : memref<64x256x56x56xf32>
    memref.dealloc %alloc_134 : memref<64x256x56x56xf32>
    memref.dealloc %alloc_135 : memref<64x64x56x56xf32>
    memref.dealloc %alloc_136 : memref<64x64x56x56xf32>
    memref.dealloc %alloc_139 : memref<64x64x56x56xf32>
    memref.dealloc %alloc_140 : memref<64x256x56x56xf32>
    memref.dealloc %alloc_141 : memref<64x256x56x56xf32>
    memref.dealloc %alloc_142 : memref<64x128x56x56xf32>
    memref.dealloc %alloc_143 : memref<64x128x56x56xf32>
    memref.dealloc %alloc_146 : memref<64x128x28x28xf32>
    memref.dealloc %alloc_147 : memref<64x128x28x28xf32>
    memref.dealloc %alloc_148 : memref<64x128x28x28xf32>
    memref.dealloc %alloc_149 : memref<64x128x28x28xf32>
    memref.dealloc %alloc_150 : memref<64x512x28x28xf32>
    memref.dealloc %alloc_151 : memref<64x512x28x28xf32>
    memref.dealloc %alloc_152 : memref<64x512x28x28xf32>
    memref.dealloc %alloc_153 : memref<64x512x28x28xf32>
    memref.dealloc %alloc_154 : memref<64x512x28x28xf32>
    memref.dealloc %alloc_155 : memref<64x512x28x28xf32>
    memref.dealloc %alloc_156 : memref<64x512x28x28xf32>
    memref.dealloc %alloc_157 : memref<64x128x28x28xf32>
    memref.dealloc %alloc_158 : memref<64x128x28x28xf32>
    memref.dealloc %alloc_161 : memref<64x128x28x28xf32>
    memref.dealloc %alloc_162 : memref<64x128x28x28xf32>
    memref.dealloc %alloc_163 : memref<64x512x28x28xf32>
    memref.dealloc %alloc_164 : memref<64x512x28x28xf32>
    memref.dealloc %alloc_165 : memref<64x512x28x28xf32>
    memref.dealloc %alloc_166 : memref<64x128x28x28xf32>
    memref.dealloc %alloc_167 : memref<64x128x28x28xf32>
    memref.dealloc %alloc_170 : memref<64x128x28x28xf32>
    memref.dealloc %alloc_171 : memref<64x128x28x28xf32>
    memref.dealloc %alloc_172 : memref<64x512x28x28xf32>
    memref.dealloc %alloc_173 : memref<64x512x28x28xf32>
    memref.dealloc %alloc_174 : memref<64x512x28x28xf32>
    memref.dealloc %alloc_175 : memref<64x128x28x28xf32>
    memref.dealloc %alloc_176 : memref<64x128x28x28xf32>
    memref.dealloc %alloc_179 : memref<64x128x28x28xf32>
    memref.dealloc %alloc_180 : memref<64x512x28x28xf32>
    memref.dealloc %alloc_181 : memref<64x512x28x28xf32>
    memref.dealloc %alloc_182 : memref<64x256x28x28xf32>
    memref.dealloc %alloc_183 : memref<64x256x28x28xf32>
    memref.dealloc %alloc_186 : memref<64x256x14x14xf32>
    memref.dealloc %alloc_187 : memref<64x256x14x14xf32>
    memref.dealloc %alloc_188 : memref<64x256x14x14xf32>
    memref.dealloc %alloc_189 : memref<64x256x14x14xf32>
    memref.dealloc %alloc_190 : memref<64x1024x14x14xf32>
    memref.dealloc %alloc_191 : memref<64x1024x14x14xf32>
    memref.dealloc %alloc_192 : memref<64x1024x14x14xf32>
    memref.dealloc %alloc_193 : memref<64x1024x14x14xf32>
    memref.dealloc %alloc_194 : memref<64x1024x14x14xf32>
    memref.dealloc %alloc_195 : memref<64x1024x14x14xf32>
    memref.dealloc %alloc_196 : memref<64x1024x14x14xf32>
    memref.dealloc %alloc_197 : memref<64x256x14x14xf32>
    memref.dealloc %alloc_198 : memref<64x256x14x14xf32>
    memref.dealloc %alloc_201 : memref<64x256x14x14xf32>
    memref.dealloc %alloc_202 : memref<64x256x14x14xf32>
    memref.dealloc %alloc_203 : memref<64x1024x14x14xf32>
    memref.dealloc %alloc_204 : memref<64x1024x14x14xf32>
    memref.dealloc %alloc_205 : memref<64x1024x14x14xf32>
    memref.dealloc %alloc_206 : memref<64x256x14x14xf32>
    memref.dealloc %alloc_207 : memref<64x256x14x14xf32>
    memref.dealloc %alloc_210 : memref<64x256x14x14xf32>
    memref.dealloc %alloc_211 : memref<64x256x14x14xf32>
    memref.dealloc %alloc_212 : memref<64x1024x14x14xf32>
    memref.dealloc %alloc_213 : memref<64x1024x14x14xf32>
    memref.dealloc %alloc_214 : memref<64x1024x14x14xf32>
    memref.dealloc %alloc_215 : memref<64x256x14x14xf32>
    memref.dealloc %alloc_216 : memref<64x256x14x14xf32>
    memref.dealloc %alloc_219 : memref<64x256x14x14xf32>
    memref.dealloc %alloc_220 : memref<64x256x14x14xf32>
    memref.dealloc %alloc_221 : memref<64x1024x14x14xf32>
    memref.dealloc %alloc_222 : memref<64x1024x14x14xf32>
    memref.dealloc %alloc_223 : memref<64x1024x14x14xf32>
    memref.dealloc %alloc_224 : memref<64x256x14x14xf32>
    memref.dealloc %alloc_225 : memref<64x256x14x14xf32>
    memref.dealloc %alloc_228 : memref<64x256x14x14xf32>
    memref.dealloc %alloc_229 : memref<64x256x14x14xf32>
    memref.dealloc %alloc_230 : memref<64x1024x14x14xf32>
    memref.dealloc %alloc_231 : memref<64x1024x14x14xf32>
    memref.dealloc %alloc_232 : memref<64x1024x14x14xf32>
    memref.dealloc %alloc_233 : memref<64x256x14x14xf32>
    memref.dealloc %alloc_234 : memref<64x256x14x14xf32>
    memref.dealloc %alloc_237 : memref<64x256x14x14xf32>
    memref.dealloc %alloc_238 : memref<64x256x14x14xf32>
    memref.dealloc %alloc_239 : memref<64x1024x14x14xf32>
    memref.dealloc %alloc_240 : memref<64x1024x14x14xf32>
    memref.dealloc %alloc_241 : memref<64x1024x14x14xf32>
    memref.dealloc %alloc_242 : memref<64x256x14x14xf32>
    memref.dealloc %alloc_243 : memref<64x256x14x14xf32>
    memref.dealloc %alloc_246 : memref<64x256x14x14xf32>
    memref.dealloc %alloc_247 : memref<64x256x14x14xf32>
    memref.dealloc %alloc_248 : memref<64x1024x14x14xf32>
    memref.dealloc %alloc_249 : memref<64x1024x14x14xf32>
    memref.dealloc %alloc_250 : memref<64x1024x14x14xf32>
    memref.dealloc %alloc_251 : memref<64x256x14x14xf32>
    memref.dealloc %alloc_252 : memref<64x256x14x14xf32>
    memref.dealloc %alloc_255 : memref<64x256x14x14xf32>
    memref.dealloc %alloc_256 : memref<64x256x14x14xf32>
    memref.dealloc %alloc_257 : memref<64x1024x14x14xf32>
    memref.dealloc %alloc_258 : memref<64x1024x14x14xf32>
    memref.dealloc %alloc_259 : memref<64x1024x14x14xf32>
    memref.dealloc %alloc_260 : memref<64x256x14x14xf32>
    memref.dealloc %alloc_261 : memref<64x256x14x14xf32>
    memref.dealloc %alloc_264 : memref<64x256x14x14xf32>
    memref.dealloc %alloc_265 : memref<64x256x14x14xf32>
    memref.dealloc %alloc_266 : memref<64x1024x14x14xf32>
    memref.dealloc %alloc_267 : memref<64x1024x14x14xf32>
    memref.dealloc %alloc_268 : memref<64x1024x14x14xf32>
    memref.dealloc %alloc_269 : memref<64x256x14x14xf32>
    memref.dealloc %alloc_270 : memref<64x256x14x14xf32>
    memref.dealloc %alloc_273 : memref<64x256x14x14xf32>
    memref.dealloc %alloc_274 : memref<64x256x14x14xf32>
    memref.dealloc %alloc_275 : memref<64x1024x14x14xf32>
    memref.dealloc %alloc_276 : memref<64x1024x14x14xf32>
    memref.dealloc %alloc_277 : memref<64x1024x14x14xf32>
    memref.dealloc %alloc_278 : memref<64x256x14x14xf32>
    memref.dealloc %alloc_279 : memref<64x256x14x14xf32>
    memref.dealloc %alloc_282 : memref<64x256x14x14xf32>
    memref.dealloc %alloc_283 : memref<64x256x14x14xf32>
    memref.dealloc %alloc_284 : memref<64x1024x14x14xf32>
    memref.dealloc %alloc_285 : memref<64x1024x14x14xf32>
    memref.dealloc %alloc_286 : memref<64x1024x14x14xf32>
    memref.dealloc %alloc_287 : memref<64x256x14x14xf32>
    memref.dealloc %alloc_288 : memref<64x256x14x14xf32>
    memref.dealloc %alloc_291 : memref<64x256x14x14xf32>
    memref.dealloc %alloc_292 : memref<64x256x14x14xf32>
    memref.dealloc %alloc_293 : memref<64x1024x14x14xf32>
    memref.dealloc %alloc_294 : memref<64x1024x14x14xf32>
    memref.dealloc %alloc_295 : memref<64x1024x14x14xf32>
    memref.dealloc %alloc_296 : memref<64x256x14x14xf32>
    memref.dealloc %alloc_297 : memref<64x256x14x14xf32>
    memref.dealloc %alloc_300 : memref<64x256x14x14xf32>
    memref.dealloc %alloc_301 : memref<64x256x14x14xf32>
    memref.dealloc %alloc_302 : memref<64x1024x14x14xf32>
    memref.dealloc %alloc_303 : memref<64x1024x14x14xf32>
    memref.dealloc %alloc_304 : memref<64x1024x14x14xf32>
    memref.dealloc %alloc_305 : memref<64x256x14x14xf32>
    memref.dealloc %alloc_306 : memref<64x256x14x14xf32>
    memref.dealloc %alloc_309 : memref<64x256x14x14xf32>
    memref.dealloc %alloc_310 : memref<64x256x14x14xf32>
    memref.dealloc %alloc_311 : memref<64x1024x14x14xf32>
    memref.dealloc %alloc_312 : memref<64x1024x14x14xf32>
    memref.dealloc %alloc_313 : memref<64x1024x14x14xf32>
    memref.dealloc %alloc_314 : memref<64x256x14x14xf32>
    memref.dealloc %alloc_315 : memref<64x256x14x14xf32>
    memref.dealloc %alloc_318 : memref<64x256x14x14xf32>
    memref.dealloc %alloc_319 : memref<64x256x14x14xf32>
    memref.dealloc %alloc_320 : memref<64x1024x14x14xf32>
    memref.dealloc %alloc_321 : memref<64x1024x14x14xf32>
    memref.dealloc %alloc_322 : memref<64x1024x14x14xf32>
    memref.dealloc %alloc_323 : memref<64x256x14x14xf32>
    memref.dealloc %alloc_324 : memref<64x256x14x14xf32>
    memref.dealloc %alloc_327 : memref<64x256x14x14xf32>
    memref.dealloc %alloc_328 : memref<64x256x14x14xf32>
    memref.dealloc %alloc_329 : memref<64x1024x14x14xf32>
    memref.dealloc %alloc_330 : memref<64x1024x14x14xf32>
    memref.dealloc %alloc_331 : memref<64x1024x14x14xf32>
    memref.dealloc %alloc_332 : memref<64x256x14x14xf32>
    memref.dealloc %alloc_333 : memref<64x256x14x14xf32>
    memref.dealloc %alloc_336 : memref<64x256x14x14xf32>
    memref.dealloc %alloc_337 : memref<64x256x14x14xf32>
    memref.dealloc %alloc_338 : memref<64x1024x14x14xf32>
    memref.dealloc %alloc_339 : memref<64x1024x14x14xf32>
    memref.dealloc %alloc_340 : memref<64x1024x14x14xf32>
    memref.dealloc %alloc_341 : memref<64x256x14x14xf32>
    memref.dealloc %alloc_342 : memref<64x256x14x14xf32>
    memref.dealloc %alloc_345 : memref<64x256x14x14xf32>
    memref.dealloc %alloc_346 : memref<64x256x14x14xf32>
    memref.dealloc %alloc_347 : memref<64x1024x14x14xf32>
    memref.dealloc %alloc_348 : memref<64x1024x14x14xf32>
    memref.dealloc %alloc_349 : memref<64x1024x14x14xf32>
    memref.dealloc %alloc_350 : memref<64x256x14x14xf32>
    memref.dealloc %alloc_351 : memref<64x256x14x14xf32>
    memref.dealloc %alloc_354 : memref<64x256x14x14xf32>
    memref.dealloc %alloc_355 : memref<64x256x14x14xf32>
    memref.dealloc %alloc_356 : memref<64x1024x14x14xf32>
    memref.dealloc %alloc_357 : memref<64x1024x14x14xf32>
    memref.dealloc %alloc_358 : memref<64x1024x14x14xf32>
    memref.dealloc %alloc_359 : memref<64x256x14x14xf32>
    memref.dealloc %alloc_360 : memref<64x256x14x14xf32>
    memref.dealloc %alloc_363 : memref<64x256x14x14xf32>
    memref.dealloc %alloc_364 : memref<64x256x14x14xf32>
    memref.dealloc %alloc_365 : memref<64x1024x14x14xf32>
    memref.dealloc %alloc_366 : memref<64x1024x14x14xf32>
    memref.dealloc %alloc_367 : memref<64x1024x14x14xf32>
    memref.dealloc %alloc_368 : memref<64x256x14x14xf32>
    memref.dealloc %alloc_369 : memref<64x256x14x14xf32>
    memref.dealloc %alloc_372 : memref<64x256x14x14xf32>
    memref.dealloc %alloc_373 : memref<64x256x14x14xf32>
    memref.dealloc %alloc_374 : memref<64x1024x14x14xf32>
    memref.dealloc %alloc_375 : memref<64x1024x14x14xf32>
    memref.dealloc %alloc_376 : memref<64x1024x14x14xf32>
    memref.dealloc %alloc_377 : memref<64x256x14x14xf32>
    memref.dealloc %alloc_378 : memref<64x256x14x14xf32>
    memref.dealloc %alloc_381 : memref<64x256x14x14xf32>
    memref.dealloc %alloc_382 : memref<64x256x14x14xf32>
    memref.dealloc %alloc_383 : memref<64x1024x14x14xf32>
    memref.dealloc %alloc_384 : memref<64x1024x14x14xf32>
    memref.dealloc %alloc_385 : memref<64x1024x14x14xf32>
    memref.dealloc %alloc_386 : memref<64x256x14x14xf32>
    memref.dealloc %alloc_387 : memref<64x256x14x14xf32>
    memref.dealloc %alloc_390 : memref<64x256x14x14xf32>
    memref.dealloc %alloc_391 : memref<64x1024x14x14xf32>
    memref.dealloc %alloc_392 : memref<64x1024x14x14xf32>
    memref.dealloc %alloc_393 : memref<64x512x14x14xf32>
    memref.dealloc %alloc_394 : memref<64x512x14x14xf32>
    memref.dealloc %alloc_397 : memref<64x512x7x7xf32>
    memref.dealloc %alloc_398 : memref<64x512x7x7xf32>
    memref.dealloc %alloc_399 : memref<64x512x7x7xf32>
    memref.dealloc %alloc_400 : memref<64x512x7x7xf32>
    memref.dealloc %alloc_401 : memref<64x2048x7x7xf32>
    memref.dealloc %alloc_402 : memref<64x2048x7x7xf32>
    memref.dealloc %alloc_403 : memref<64x2048x7x7xf32>
    memref.dealloc %alloc_404 : memref<64x2048x7x7xf32>
    memref.dealloc %alloc_405 : memref<64x2048x7x7xf32>
    memref.dealloc %alloc_406 : memref<64x2048x7x7xf32>
    memref.dealloc %alloc_407 : memref<64x2048x7x7xf32>
    memref.dealloc %alloc_408 : memref<64x512x7x7xf32>
    memref.dealloc %alloc_409 : memref<64x512x7x7xf32>
    memref.dealloc %alloc_412 : memref<64x512x7x7xf32>
    memref.dealloc %alloc_413 : memref<64x512x7x7xf32>
    memref.dealloc %alloc_414 : memref<64x2048x7x7xf32>
    memref.dealloc %alloc_415 : memref<64x2048x7x7xf32>
    memref.dealloc %alloc_416 : memref<64x2048x7x7xf32>
    memref.dealloc %alloc_417 : memref<64x512x7x7xf32>
    memref.dealloc %alloc_418 : memref<64x512x7x7xf32>
    memref.dealloc %alloc_421 : memref<64x512x7x7xf32>
    memref.dealloc %alloc_422 : memref<64x2048x7x7xf32>
    memref.dealloc %alloc_423 : memref<64x2048x7x7xf32>
    memref.dealloc %alloc_424 : memref<64x2048x1x1xf32>
    memref.dealloc %alloc_425 : memref<64x2048x1x1xf32>
    memref.dealloc %alloc_427 : memref<2048x1000xf32>
    memref.dealloc %alloc_428 : memref<64x1000xf32>
    memref.dealloc %alloc_429 : memref<64x1000xf32>
    memref.dealloc %alloc_105 : memref<64x3x230x230xf32>
    memref.dealloc %alloc_108 : memref<64x64x114x114xf32>
    memref.dealloc %alloc_115 : memref<64x64x58x58xf32>
    memref.dealloc %alloc_128 : memref<64x64x58x58xf32>
    memref.dealloc %alloc_137 : memref<64x64x58x58xf32>
    memref.dealloc %alloc_144 : memref<64x128x58x58xf32>
    memref.dealloc %alloc_159 : memref<64x128x30x30xf32>
    memref.dealloc %alloc_168 : memref<64x128x30x30xf32>
    memref.dealloc %alloc_177 : memref<64x128x30x30xf32>
    memref.dealloc %alloc_184 : memref<64x256x30x30xf32>
    memref.dealloc %alloc_199 : memref<64x256x16x16xf32>
    memref.dealloc %alloc_208 : memref<64x256x16x16xf32>
    memref.dealloc %alloc_217 : memref<64x256x16x16xf32>
    memref.dealloc %alloc_226 : memref<64x256x16x16xf32>
    memref.dealloc %alloc_235 : memref<64x256x16x16xf32>
    memref.dealloc %alloc_244 : memref<64x256x16x16xf32>
    memref.dealloc %alloc_253 : memref<64x256x16x16xf32>
    memref.dealloc %alloc_262 : memref<64x256x16x16xf32>
    memref.dealloc %alloc_271 : memref<64x256x16x16xf32>
    memref.dealloc %alloc_280 : memref<64x256x16x16xf32>
    memref.dealloc %alloc_289 : memref<64x256x16x16xf32>
    memref.dealloc %alloc_298 : memref<64x256x16x16xf32>
    memref.dealloc %alloc_307 : memref<64x256x16x16xf32>
    memref.dealloc %alloc_316 : memref<64x256x16x16xf32>
    memref.dealloc %alloc_325 : memref<64x256x16x16xf32>
    memref.dealloc %alloc_334 : memref<64x256x16x16xf32>
    memref.dealloc %alloc_343 : memref<64x256x16x16xf32>
    memref.dealloc %alloc_352 : memref<64x256x16x16xf32>
    memref.dealloc %alloc_361 : memref<64x256x16x16xf32>
    memref.dealloc %alloc_370 : memref<64x256x16x16xf32>
    memref.dealloc %alloc_379 : memref<64x256x16x16xf32>
    memref.dealloc %alloc_388 : memref<64x256x16x16xf32>
    memref.dealloc %alloc_395 : memref<64x512x16x16xf32>
    memref.dealloc %alloc_410 : memref<64x512x9x9xf32>
    memref.dealloc %alloc_419 : memref<64x512x9x9xf32>
    return %alloc_428 : memref<64x1000xf32>
  }
  func.func @main() -> i32 {
    %c0_i32 = arith.constant 0 : i32
    %cst = arith.constant 0.000000e+00 : f32
    %alloc = memref.alloc() : memref<64x3x224x224xf32>
    affine.for %arg0 = 0 to 64 {
      affine.for %arg1 = 0 to 3 {
        affine.for %arg2 = 0 to 224 {
          affine.for %arg3 = 0 to 224 {
            affine.store %cst, %alloc[%arg0, %arg1, %arg2, %arg3] : memref<64x3x224x224xf32>
          }
        }
      }
    }
    call @start_energy_time() : () -> ()
    %0 = call @forward(%alloc) : (memref<64x3x224x224xf32>) -> memref<64x1000xf32>
    call @stop_energy_time() : () -> ()
    call @print_energy_time() : () -> ()
    return %c0_i32 : i32
  }
}

